Ryan_ddpg-stock-trading-code/data/DDPGAgent-ddpg-20200428_18-34-26-model-PortfolioEnv.bin (torch_old, 21847 bytes, 10 tensors)

conv1.weight f4 [2, 4, 3, 1]
000000 2a 15 7b be d6 cd 61 3e 2a 20 97 bd 68 6b a2 3d
       -0.24519792 0.22051176 -0.07379182 0.07930642
000010 94 84 5a 3d 7f fd 85 be 67 bb 53 bb ab 8e a6 be
       0.053349093 -0.26169965 -0.0032307745 -0.32530722
000020 7a 0a 8f bd b6 7b 94 bc e4 06 3b be a7 e2 ed bc
       -0.0698442 -0.018125396 -0.18264347 -0.02903874
000030 19 00 87 3d 4c 1b ad 3d e2 02 5c be 39 07 5a 3e
       0.065918155 0.08452472 -0.21485475 0.21291818
000040 ed 36 b9 bd 92 cb 89 be bb a9 12 bd d1 ab 76 3e
       -0.090436794 -0.26913124 -0.0358064 0.2408898
000050 ed 8a 65 be 79 47 c6 bd 72 ae 0d 3e 06 05 7e be
       -0.22416277 -0.09681601 0.13836077 -0.24806604

conv1.bias f4 [2]
000000 c8 97 c9 bd 44 e0 fa 3d
       -0.09843403 0.122498065

conv2.weight f4 [30, 2, 48, 1]
000000 48 f5 ec bb 02 99 8c 3a fb 71 c6 3d 21 51 a3 b9
       -0.0072313882 0.0010726752 0.09689709 -0.00031150228
000010 24 0b 33 3d c8 fe be 3d b7 4f ad bd 4e 7c e9 bd
       0.043711796 0.093259394 -0.0846247 -0.11400662
000020 14 4d c7 3d 2a 97 06 bd 92 ed d7 bd 77 97 98 bd
       0.09731498 -0.032859005 -0.1054336 -0.074507646
000030 c8 64 d0 bd b5 5f 6a bd a2 3c 4a bd 97 a8 46 bc
       -0.101754725 -0.05722018 -0.04937423 -0.012125156
000040 26 a4 d4 3a c5 db ad 3d 22 fd 05 3d 97 cb f0 3c
       0.0016223236 0.08489183 0.03271211 0.029393954
000050 d4 45 8a bc af 24 91 3d f6 0d ad ba 6b fd 75 3d
       -0.016879 0.07087075 -0.0013203013 0.06005613
000060 b1 06 92 bb 2d 43 82 bc b8 28 c2 3d 62 84 aa bc
       -0.004456364 -0.015901173 0.09480423 -0.020815078
000070 77 04 aa bd c4 6e 76 3d dc 29 84 bd 60 f6 96 bd
       -0.08301633 0.060164228 -0.064532965 -0.07371211
000080 97 7d 79 3d 94 d7 d8 3d 33 0f ac bd 4e aa aa bd
       0.060910787 0.10587993 -0.084013365 -0.08333264
000090 90 b0 cc bc 82 8e 17 3c d4 53 93 bd a1 fd 35 3d
       -0.024986535 0.009250285 -0.07193723 0.044431332
0000a0 34 8e b8 3d f2 82 bf bc b7 05 1c 3d 82 29 7c 3d
       0.09011498 -0.02337787 0.038091388 0.061563022
0000b0 68 0a 74 bd 02 98 8a bd bb a0 26 3d 90 a8 11 3d
       -0.059580237 -0.067672744 0.04068063 0.035561144
0000c0 8d ab dc 3c 86 c3 df 3c 66 d8 cd bd fd 70 27 3d
       0.02693727 0.027314913 -0.1005104 0.04087924
0000d0 fd af 28 bd 69 25 d3 3d ff bf 45 bd 95 14 13 3d
       -0.04118346 0.1030987 -0.048278805 0.0359083
0000e0 bb a5 1a 3c f0 d1 1b 3d 1b f3 cf 3c a7 b7 c7 bd
       0.009438927 0.03804201 0.025384476 -0.09751826
0000f0 e3 d2 9d 3d 2f 6a 85 bd b3 86 92 bd c6 46 6c 3d
       0.07706239 -0.065143935 -0.07154598 0.057684682
000100 40 be dd bc c5 54 3a bd ca fc 32 bd 10 b4 03 bd
       -0.027068257 -0.045491 -0.04369811 -0.032154143
000110 4a ed 55 3d 60 c1 f1 3d fc 8f 78 bd e4 48 61 3d
       0.05222825 0.118044615 -0.06068419 0.055001155
000120 cc 90 b1 bd 22 15 da 3d d2 bd 68 bd b1 f2 6b bd
       -0.08670196 0.10648562 -0.05682165 -0.057604495
000130 4e 7b a0 3c e4 f9 9d bd aa fc ea bc cf d4 6d 3d
       0.019590046 -0.077136785 -0.028684933 0.05806428
000140 92 db 24 bd 99 ac 85 3d ac d6 89 3c 6c df 9f bd
       -0.04024846 0.06527061 0.016825996 -0.07806286
000150 20 48 1e 3d 68 78 ec 3b df 18 68 3d 88 d1 67 bd
       0.038643003 0.007216502 0.056664344 -0.05659631
000160 cf 4b 86 bd 2b 28 45 bd d6 2c 3c bd f1 0c 4b bd
       -0.06557428 -0.04813401 -0.045941196 -0.04957289
000170 8a 85 5c 38 33 9d 84 3d 01 0c 89 bd 81 98 13 3d
       5.2576455e-05 0.06475296 -0.06691743 0.03603411
000180 59 40 81 bc fa b5 a7 3d 7b 96 5e bd 2a 3c 07 3d
       -0.015777754 0.08189006 -0.054342728 0.03301636
000190 8a 8e 4e 3d 00 90 ec bc 0b 00 c0 bd 44 79 3c 3d
       0.050428905 -0.028877258 -0.09375008 0.046014085
0001a0 f9 dc 83 bd b9 5e b4 bd 38 dc 62 3d fb 39 88 3d
       -0.064386316 -0.088071294 0.0553858 0.06651684
0001b0 18 d9 49 bd 46 c9 a0 3d c4 12 7e bd 53 2c b3 3d
       -0.049279302 0.0785089 -0.062029615 0.087486885
0001c0 fd ed b4 bb 2e 03 ad bd fb 5a 4d bc 6c 69 5f 3d
       -0.0055215345 -0.08447872 -0.012533898 0.054543898
0001d0 62 24 8f bd 3e aa 78 3d 27 97 19 3d 13 5c 70 bc
       -0.06989361 0.06070923 0.037497666 -0.01467039
0001e0 8c 9d 10 bb ee 22 c8 bd e7 6e 38 bd de f3 dd 3b
       -0.0022066562 -0.09772287 -0.04502764 0.006773456
0001f0 c6 69 47 3d 55 07 b3 3d 87 62 9c bd 7b 9a a6 bd
       0.048684858 0.08741633 -0.0763598 -0.081349336
000200 20 4c 93 3d 17 6a f9 3c 3b 9e a3 bd 76 82 cf bd
       0.07192254 0.030446095 -0.079891644 -0.10132305
000210 2e ed 95 bd e1 5f b7 3d ba e0 20 3d a8 9d 76 bd
       -0.07320629 0.08953834 0.039276816 -0.060208946
000220 75 3a 81 bd ee d1 f9 3c ba b4 16 3c 9d e3 63 bd
       -0.06309978 0.03049561 0.009198362 -0.05563699
000230 28 04 79 3c f7 33 bf 3b fa 0f 0b bd fa 53 3b bd
       0.015198745 0.005835052 -0.033950783 -0.045734383
000240 34 6f 24 3d 18 ee d1 bd 9b c8 ec bc c9 4b 62 3d
       0.040145114 -0.10250491 -0.02890425 0.055248056
000250 f7 55 c9 bd 35 66 71 bd 70 b2 52 bd 5f 02 75 3c
       -0.098308496 -0.058935363 -0.051439703 0.014954179
000260 cb 2a 3a 3d de bd 66 bc 8a 03 7d bd b1 0b 37 3d
       0.045450967 -0.014083354 -0.061770953 0.044688884
000270 6e 84 ad 3d dd a4 24 3d 20 b8 96 3d 27 bf 50 bd
       0.084725246 0.04019629 0.07359338 -0.050963547
000280 e1 91 38 bd a5 92 b4 3d f7 47 8e 3d 95 2d ca bd
       -0.045060996 0.08817033 0.0694732 -0.09871975
000290 af 22 3e 3d 36 af 91 bd 82 d1 e6 bc aa e5 6b bc
       0.046419796 -0.07113497 -0.028176073 -0.014398018
0002a0 cd 41 d5 3c 2e 0b 07 3c cf e8 23 bd 35 86 74 3c
       0.026032353 0.008242412 -0.040016945 0.014924576
0002b0 6e 93 87 bd fe 92 14 3d cd 1b a2 3b 9f b9 43 3d
       -0.06619917 0.036272995 0.004947162 0.047784444
0002c0 1c d8 5a bd 32 3d 7c 3d d5 61 09 bd f3 b9 9a bd
       -0.053428754 0.061581798 -0.033540566 -0.07554998
0002d0 87 ec bf 3d c6 c3 af bb 99 6a 88 3d bc 7d a1 3d
       0.09371286 -0.005363914 0.06660957 0.0788531
0002e0 63 5f ca 3d 9b 3a 53 bd 1c 0d 2e 3d cc 80 c7 3c
       0.09881475 -0.051569562 0.04249297 0.024353407
0002f0 57 54 e4 3d e4 b3 8f bd 42 73 96 3d 5a 68 a1 3d
       0.11148899 -0.07016733 0.073462024 0.078812316
000300 fa 18 82 bc e5 4a 8b bd c3 a8 16 3d 39 d5 8f 3d
       -0.01588105 -0.068013944 0.036782037 0.07023091
000310 98 cf 8b bd d1 f1 b8 3c e4 5c a8 bb 9b f3 9d bd
       -0.06826705 0.022576245 -0.0051380266 -0.0771248
000320 0d ad d2 bc f9 74 7d bc 64 37 40 3c 62 c9 dc bd
       -0.025717283 -0.015469783 0.011731956 -0.10780598
000330 12 8d 15 bc 8f 8c 8b bd aa 8b a7 3d 4a 4a 93 3c
       -0.009127872 -0.06813919 0.08180936 0.01797976
000340 86 3b 64 3d 5c ce 96 bd 65 f1 57 3d 34 03 c1 bc
       0.05572083 -0.07363579 0.052720446 -0.023561098
000350 96 2c 9a bd 5e 03 d9 bd a0 3e c4 bd af c2 33 bd
       -0.07528035 -0.10596345 -0.09582257 -0.043886837
000360 d8 99 9e 3c 2c e6 d1 bc 88 7e ae 3d 59 cf 49 bc
       0.019360468 -0.02562245 0.08520228 -0.012317502
000370 3c ef ef bc 2f a7 ac 3d a4 05 89 bd a4 f3 66 3c
       -0.02928888 0.08430325 -0.06690529 0.014096174
000380 90 3b c1 bd 5c 7d 94 3a 03 eb 8e 3d 65 02 0e 3d
       -0.09435189 0.0011328864 0.06978419 0.034670252
000390 5e 3a 8b 3d 16 46 18 bd 56 02 37 3d 7a 7d 48 3c
       0.06798242 -0.037176214 0.044679962 0.012236947
0003a0 10 4c 31 bd 7f 3f 85 bd 37 9d 2e bd a5 53 85 3d
       -0.04328543 -0.065062515 -0.0426304 0.065100946
0003b0 88 5d a3 bd 4c d2 b8 bc 07 16 b3 3d 79 ef df bc
       -0.07976824 -0.022561215 0.08744436 -0.02733587
0003c0 bb ec af 3c e6 e1 82 3d 68 5c b0 3d 80 c2 cd 3c
       0.021475187 0.06390743 0.08611375 0.025117159
0003d0 59 c4 0f bd 71 b1 2c bc 3a 0b 2c bd d3 e9 81 bd
       -0.03509936 -0.010540352 -0.042002894 -0.063434266
0003e0 f3 23 8b 3d c7 8a 37 3d 66 13 c1 3d 1a 2a 0c bd
       0.06793966 0.044810083 0.09427528 -0.03421984
0003f0 1a f8 23 3d 34 b9 6e 3d 4c fa 00 3c 26 5d c9 3d
       0.04003153 0.058282092 0.007872175 0.0983222

conv2.bias f4 [30]
000000 2b e5 e6 bc 20 ba 29 bd f2 ad 01 3d dd 8d 54 3d
       -0.028185448 -0.04143727 0.031660028 0.051893104
000010 d9 26 62 3d 2c 00 a7 3d 6f 81 8c 3d 13 ea 51 3c
       0.05521283 0.0815433 0.06860625 0.012812155
000020 ec 27 81 3b 07 dc 4b 3d eb 20 4a 3d 8a 10 a5 3d
       0.0039415266 0.04977038 0.0493478 0.08059795
000030 92 bc ba 3d e9 3e d0 3d 31 27 be 3d 55 ee 55 3d
       0.09117998 0.10168249 0.09284819 0.052229244
000040 1b 3c 4d bd 19 94 b9 3d af 69 f5 3c ce d0 74 3d
       -0.05010615 0.090614505 0.02995762 0.059769444
000050 b0 47 13 3c 54 7e 73 3d 00 42 d5 bc 90 65 3a 3d
       0.00898926 0.059446648 -0.026032448 0.045507014
000060 dd c3 99 3d 43 cd c9 3d e0 be a7 3d 5a 63 99 3d
       0.07508061 0.09853604 0.081907034 0.07489653
000070 f4 c4 e3 bc 00 12 94 bc
       -0.027803876 -0.01807499

conv3.weight f4 [1, 31, 1, 1]
000000 48 7d 1a 3d 27 ef 8d 3d d6 03 43 3e 62 79 09 3e
       0.037717134 0.0693038 0.19044432 0.1342521
000010 a1 2c 34 3e 16 7b c7 3d 9e cf e6 bd 77 14 01 3d
       0.1759515 0.09740274 -0.112700686 0.031513657
000020 3d 56 34 be e5 0f 16 3e d7 73 17 3e fa 33 52 be
       -0.17611022 0.14654501 0.14790283 -0.2052764
000030 aa 10 40 3e 01 d4 b5 3d 99 92 bf bd 34 ec 05 be
       0.18756357 0.08878327 -0.09354133 -0.13078386
000040 0d 4a 43 3d 9b 0c 44 3e e7 bd 2b 3e ac 6d 11 3e
       0.047678042 0.19145434 0.16771661 0.14201993
000050 60 8a 14 be 9a fc 41 3e 88 b6 e1 bd 02 b7 76 be
       -0.14505911 0.18944016 -0.11021143 -0.2409325
000060 68 f9 2a be da ab 13 3e 04 63 29 3e b5 6f 00 3e
       -0.16696703 0.14421025 0.16541678 0.12542613
000070 78 5b 41 3e 2e 75 51 ba 6b a3 db 3d
       0.18882549 -0.00079901784 0.10724529

conv1.weight f4 [2, 4, 3, 1]
000000 45 0c 0c be c5 99 7d 3e 8d 43 f0 bd 25 72 76 be
       -0.13676555 0.2476569 -0.11731634 -0.2406698
000010 f5 5e dc 3d 6c c9 6f 3c 8a 26 a0 3d 9d cd a5 bd
       0.10760299 0.014635425 0.07819851 -0.08095858
000020 14 82 8a bc f9 b6 54 be da 16 4a 3c 00 e4 77 3e
       -0.01690773 -0.20772924 0.01233455 0.24208069
000030 ad 0a 80 3e 11 30 b2 bd b0 ed 7f bc 36 4e 4f be
       0.25008145 -0.08700574 -0.015620634 -0.20244679
000040 f5 f7 48 3e ca 13 95 3d 88 9f 3f 3e 38 ca e3 bd
       0.19625838 0.07279165 0.187132 -0.111225545
000050 3a 7a b7 bd 52 fa bc bd 0d e0 99 bd c1 84 70 3c
       -0.0895886 -0.09227432 -0.075134374 0.0146800885

conv1.bias f4 [2]
000000 34 1e df 3b 79 74 8d 3b
       0.0068090204 0.004316863

conv2.weight f4 [20, 2, 48, 1]
000000 2c 2e 53 bc b8 55 95 bc 25 1c 2d bd a3 50 fa bc
       -0.012889426 -0.01822935 -0.04226317 -0.030556029
000010 e7 69 34 bd 51 11 9b bd 55 17 72 bd 87 39 1f bc
       -0.04404631 -0.07571662 -0.059104282 -0.009718305
000020 46 45 19 3d 94 1c ac bc a8 cb 78 bd d8 e6 22 bd
       0.03741958 -0.02100972 -0.060741097 -0.03977093
000030 76 ca 46 3c 49 df 82 3c f2 ef 21 bd eb ad 6d bd
       0.012133231 0.015975611 -0.03953547 -0.05802719
000040 c6 61 b8 bd db f7 80 bd 06 af bc bd 63 b3 b3 bc
       -0.09003024 -0.06297275 -0.092130706 -0.021936124
000050 66 58 e1 bc 00 63 58 bd 0d 92 71 3b 60 2b 8a bd
       -0.027507972 -0.05282879 0.0036860735 -0.067465544
000060 fe 53 fb bb a0 b0 8f bd 64 3d 10 bc c1 cb 61 3a
       -0.0076699248 -0.070161104 -0.008803699 0.00086134305
000070 ce 90 fa bc fd a9 b5 bd 61 ce b3 3a 1f 72 9d 3d
       -0.030586626 -0.08870313 0.0013718122 0.076877825
000080 6e ed d4 bd d3 e2 62 bd 88 7c 57 bc 59 1f 93 bd
       -0.103968486 -0.055392098 -0.013152249 -0.071837135
000090 ca eb 20 3c 31 75 a4 bc 5e c6 36 3d 49 41 94 bb
       0.0098218415 -0.020075412 0.04462277 -0.004524384
0000a0 7a 18 88 3c 49 19 26 bd 96 82 d4 bc 87 33 1b 3a
       0.016613234 -0.040551458 -0.025941174 0.0005920459
0000b0 72 f8 83 3c 50 e6 96 3c df d5 40 bd c5 e4 af 3c
       0.016109679 0.018420368 -0.047078963 0.02147139
0000c0 7f 69 b5 3b 86 a0 d9 bc 43 15 69 bc d7 33 79 3d
       0.0055362578 -0.026565801 -0.014226261 0.060840454
0000d0 bb c1 81 3d 77 ac 14 bd 44 25 0b 39 d9 08 7b 3b
       0.06335779 -0.036297288 0.00013269956 0.0038304834
0000e0 4e ef ca 3c 5a d7 a5 bc 96 5e 0f bd 9e 72 38 bd
       0.024772312 -0.02024429 -0.035002314 -0.045031182
0000f0 6f ee 27 3d 2e 69 cf bc 74 66 06 3d 99 24 8a bc
       0.040998872 -0.025318708 0.03281255 -0.016863154
000100 12 95 42 bd 23 6c 19 bc 2f b9 d7 bc 38 4f 60 bc
       -0.047505446 -0.009364161 -0.02633342 -0.013690762
000110 60 d2 52 3d fe 62 33 bd 53 0a 13 bd d5 62 5e 3d
       0.05147016 -0.04379558 -0.035898518 0.054293472
000120 3e 66 2d bd 4d a7 a7 bc 85 81 1f bd 3c fd d2 bc
       -0.042333834 -0.020465517 -0.03894188 -0.025755517
000130 0d 4c 34 3c 02 3a 26 bd 58 d6 11 bc 04 0c 37 bc
       0.01100446 -0.040582664 -0.008901201 -0.011172298
000140 ba 97 9c bc 49 06 97 bd 68 81 1a 3c 4f 78 d9 bb
       -0.019115318 -0.07374246 0.009430267 -0.0066366564
000150 c3 e4 9c 3c 3e fe 5e bd b6 1d 85 bd 10 be bb bc
       0.01915205 -0.054441683 -0.064998075 -0.022917777
000160 9b c5 5e bd 0d 84 36 bc 52 91 00 bd 62 57 df 3c
       -0.05438767 -0.011139882 -0.03138859 0.027263347
000170 25 68 64 bc ba ba 31 bd 56 90 9b bc 04 14 82 bb
       -0.013940846 -0.043390967 -0.018989723 -0.003969671
000180 80 be 75 bd 77 d1 91 bd 22 35 99 bc e2 72 2e 3d
       -0.059996128 -0.071200304 -0.018702094 0.04259003
000190 9a 48 0f bd 0c 54 3c 3c fd 18 de 3c 6b 9c e0 bc
       -0.034981348 0.011494648 0.027111525 -0.027418336
0001a0 32 f7 48 bd e4 71 2a 3c 42 5c f8 bc da 54 a1 bd
       -0.04906387 0.01040313 -0.03031743 -0.07877512
0001b0 3d 8f 2d bd 1e 47 8a bb 09 db 95 3c a4 64 f1 bc
       -0.04237293 -0.0042199036 0.01829292 -0.029466935
0001c0 45 3a 37 bd 69 93 6a bd e3 ae 0b bd 91 5a a5 3c
       -0.044733305 -0.057269488 -0.03410233 0.020184787
0001d0 ec bb 13 3d 55 77 60 bd 16 82 44 bc 09 b3 7c bd
       0.03606789 -0.054801304 -0.0119939055 -0.06169418
0001e0 47 8c 46 3c 35 48 86 bd 89 cd db bc eb 26 62 bd
       0.012118406 -0.06556741 -0.026831405 -0.055212896
0001f0 51 6b 45 bd 59 f2 87 bd 87 9c 2e bd 17 ec ad bd
       -0.048198048 -0.06638021 -0.042629745 -0.08492296
000200 80 81 44 3b fe c4 8e bc d9 7e 8d bc 7c 18 3a 3b
       0.0029984415 -0.017427918 -0.0172724 0.0028395941
000210 89 0c 2a bd 1e 7e 81 bd 94 c4 99 3c c9 2c 22 3c
       -0.04151586 -0.06322883 0.018770494 0.009898373
000220 29 2e 29 3d 9d d8 83 bb 60 56 e0 bd 95 ea d7 bc
       0.041303787 -0.004023625 -0.10953975 -0.026356975
000230 7d 52 64 bd d1 32 bd bd a0 8f c3 bc c1 21 cd bc
       -0.05574273 -0.09238208 -0.023872197 -0.02504051
000240 d6 35 24 bd a3 42 9c bd 9a f3 53 3c 70 ff 14 bd
       -0.040090404 -0.076298974 0.012936497 -0.036376417
000250 1b e7 a7 3c 46 39 84 3c 5a 03 f0 bb 23 f7 67 bd
       0.020495942 0.016140591 -0.0073246183 -0.056632172
000260 03 03 6a bb 75 4b 2b bb 02 22 5c bc ff 29 9c bc
       -0.0035707362 -0.0026137505 -0.0134358425 -0.019062994
000270 d3 c1 99 3b 0a 30 c6 bc 24 a1 f7 3c 54 fd 22 3d
       0.004692295 -0.024192829 0.030228205 0.039792374
000280 d1 c7 8e 3c 8d f4 0b bd cc ec 4a 3d 63 18 5f bd
       0.017429264 -0.03416877 0.049542233 -0.054466616
000290 91 e1 76 3b 48 98 82 3b 6c 3e 81 39 eb 80 5b bc
       0.003767107 0.0039854385 0.00024651305 -0.013397436
0002a0 89 3b 80 3c 45 82 49 3c 11 30 4f bd 36 70 05 bd
       0.015653389 0.012299125 -0.05058295 -0.032577716
0002b0 1f c0 51 39 6a a9 a8 3b 34 1e 85 3d 82 0b 00 3d
       0.00020003364 0.005147149 0.064999014 0.031260975
0002c0 9d 29 aa bd f9 a4 e7 bb ff b1 20 3d 88 a8 96 3c
       -0.08308718 -0.007069227 0.03923225 0.018390909
0002d0 d7 11 e4 bc d7 81 2f bd 4d 40 91 3c c9 ef 2f bd
       -0.027840538 -0.042848434 0.017730856 -0.042953286
0002e0 0b 9d a2 bc 97 ed 83 bc 9e b0 3f bc b0 9f df 3c
       -0.019850275 -0.016104503 -0.011699824 0.027297825
0002f0 4d f8 f8 3c cd 2c d7 bc 68 d6 b8 37 88 c2 9c 3c
       0.030391837 -0.02626648 2.203435e-05 0.019135728
000300 95 cd 8e bc fa 08 fb bb b0 1a 32 bc 67 69 74 3c
       -0.017432014 -0.007660982 -0.010870621 0.014917708
000310 e8 69 73 bc 2d 16 b9 bc 9c f0 1c 3b 4a ea 21 3b
       -0.014856793 -0.022593582 0.0023947125 0.0024706298
000320 89 d7 60 bc 4e b3 38 bc 03 0b 61 bb db ec fa bb
       -0.013723263 -0.011273218 -0.003433884 -0.00765763
000330 f4 56 4f 3b 90 fc 2f bc f1 06 7d 3b 21 8c 73 bc
       0.0031637521 -0.010741368 0.0038608874 -0.014864952
000340 9a 36 73 bc 3c 72 de bb c9 43 9c bc 85 a4 80 bc
       -0.014844561 -0.00678852 -0.019075291 -0.015703449
000350 84 b4 36 bc 0c 3b 6c bb 87 d4 a2 bc 31 fa 5e 3b
       -0.011151437 -0.0036045937 -0.019876732 0.0034023637
000360 5a 9d 95 3c 1a 70 39 bc dd 0d a3 bc 46 4f 39 bb
       0.018263508 -0.011318231 -0.019904071 -0.002827601
000370 83 f2 94 bc 5e 6c b9 bc af e7 00 bb 5d a7 ae bc
       -0.018182045 -0.022634681 -0.0019669344 -0.02132004
000380 a6 5f 90 bc 0e 45 6f bc 8b 0f ef bc 74 d1 44 bc
       -0.017623734 -0.014603866 -0.029182216 -0.012012828
000390 75 ea aa bc 6b ec 58 bc a2 62 a7 bc f0 8a 42 bc
       -0.020863751 -0.01323996 -0.020432774 -0.011873946
0003a0 70 ac 3c bc 06 78 85 bc 7d fe a9 bc 5a 05 37 bc
       -0.011515722 -0.016292583 -0.020751232 -0.0111707095
0003b0 06 d7 c1 3c 77 9b 05 bd e3 e3 f9 bc 7d 5d e6 bc
       0.023662101 -0.032618966 -0.030504173 -0.02812075
0003c0 fe 5e 35 3b d0 08 d2 3b 6c 6f 24 bc de 4a 1d bb
       0.0027675028 0.006409742 -0.010036331 -0.0024000923
0003d0 8a 64 79 bc c3 98 5a bb a5 e2 a3 bb 03 c7 cf bb
       -0.015221724 -0.0033355213 -0.0050013834 -0.0063408627
0003e0 50 34 98 bc 54 e8 da bc 66 32 e3 bb 32 cd 8a 3c
       -0.018579632 -0.02672211 -0.006933498 0.016943548
0003f0 79 1e 51 bc d2 1a e9 ba e4 0c a4 3c 09 87 0e 3b
       -0.012763613 -0.0017784482 0.020025678 0.0021747968

conv2.bias f4 [20]
000000 ef c6 ca ba c3 f9 61 bb 29 e2 0f ba e3 d7 3c bc
       -0.0015470664 -0.0034481145 -0.00054887176 -0.011526081
000010 15 90 1e b9 2f 2a 93 b9 99 e1 7b b6 55 65 2e bb
       -0.00015121729 -0.00028069454 -3.753323e-06 -0.0026610692
000020 b9 db a2 ba d8 6b 75 ba 81 d7 8a bb a2 31 53 39
       -0.0012425102 -0.0009362078 -0.004237116 0.00020141018
000030 e2 74 3d ba cd 25 41 b4 59 72 10 bb 56 de 6e bc
       -0.0007227195 -1.7988278e-07 -0.0022040813 -0.014579376
000040 4f a0 bf b9 7e 3e 8b ba 52 bf 7e 39 7b bd a7 b8
       -0.00036549798 -0.0010623483 0.000242946 -7.998474e-05

layer3.weight f4 [1, 66]
000000 c9 c3 8f bd f2 72 b3 bd 49 de 52 3d af 0e 77 3d
       -0.07019765 -0.087621585 0.05148152 0.060316738
000010 4d fa 99 3d 83 43 43 3d 28 98 22 3d 48 90 c5 3c
       0.07518444 0.047671806 0.03969589 0.02411665
000020 a9 42 44 3d 85 79 95 3d 03 2f 36 3d 1b e2 58 bd
       0.047915135 0.07298569 0.044478428 -0.052950006
000030 3f c1 20 3d 34 08 fb 3c b6 46 82 3d 3e 47 9d bd
       0.039246794 0.03064356 0.06361143 -0.07679604
000040 4f 84 a0 3c 2a e2 76 3d ed f7 30 3d e7 ee 6d bd
       0.01959434 0.06027428 0.04320519 -0.058089163
000050 43 d0 4e bc 3c bd 19 bd 8b e3 28 bd a6 9c 7a 3d
       -0.012622896 -0.037533984 -0.041232627 0.061184548
000060 d6 2c 8d 3d d3 f1 b4 3c 6b 30 91 bd 70 35 65 3d
       0.068933174 0.022087967 -0.07089313 0.055959165
000070 14 0c 42 bd d0 7e 44 bd 1b f7 82 3d f7 fd 6b 3d
       -0.0473748 -0.0479725 0.06394788 0.057615247
000080 28 95 60 3d 42 c3 d7 bc cf 8b 8f 3b 9e b7 1a bd
       0.054829746 -0.026338223 0.00438068 -0.037772767
000090 4a 08 0f bd 93 88 19 bd 83 c4 86 bd 54 74 b3 3c
       -0.034920014 -0.037483763 -0.065804504 0.021906056
0000a0 37 40 80 bc 4b dc d8 3c e8 fe 6f bd 8e 2c a6 bd
       -0.01565562 0.026472231 -0.058592707 -0.08113967
0000b0 4a 05 92 3d 2f aa 9e bb 85 ce cd 3d 43 54 1c bd
       0.07129915 -0.004842065 0.10049156 -0.038166296
0000c0 9f 00 64 bd 34 29 cf bd 2a 3e 68 bd 97 15 05 3d
       -0.055664655 -0.10115281 -0.05669991 0.032491293
0000d0 a4 a6 8c 3d 89 2f 2a 3d 9a 30 cf 3c e2 2d ae bd
       0.06867722 0.04154924 0.02529173 -0.08504845
0000e0 1d f1 32 3d 9f 7d 5b bd 09 ea 45 bd b8 06 80 bd
       0.043686975 -0.0535866 -0.048318896 -0.062512815
0000f0 e0 6c 4d b9 c4 1b 54 39 20 95 c1 38 64 4a 3d b6
       -0.00019590883 0.00020228239 9.230734e-05 -2.8206496e-06
000100 c4 72 a0 b8 a3 8b 01 b8
       -7.650771e-05 -3.0886044e-05
