Ryan_ddpg-stock-trading-code/data/DDPGAgent-ddpg-20200501_22-22-59-model-PortfolioEnv.bin (torch_old, 21847 bytes, 10 tensors)

conv1.weight f4 [2, 4, 3, 1]
0	0x3ea1457d	0.31498328
1	0xbd833bb0	-0.06407869
2	0xbe221000	-0.15826416
3	0x3e5b31b7	0.21405683
4	0xbe22ae7d	-0.15886874
5	0x3dddb3a0	0.108252764
6	0x3e8d4f31	0.2759948
7	0xbe0223ff	-0.12709044
8	0xbdcb674f	-0.09931814
9	0x3e1b6bce	0.15177843
10	0xbe2b8acf	-0.1675217
11	0xbdcf8f2f	-0.10134732
12	0xbdf2576f	-0.11833083
13	0xbdd91c9a	-0.106011584
14	0xbe049c6e	-0.12950298
15	0x3be6b589	0.0070406836
16	0x3e13de53	0.14440279
17	0x3e262f1d	0.1622891
18	0xbdc46866	-0.09590225
19	0x3e12b8a3	0.14328246
20	0x3e38ec7a	0.18058959
21	0x3cf72af1	0.030171843
22	0xbdb88f72	-0.09011735
23	0xbe581e2f	-0.21105264

conv1.bias f4 [2]
0	0x3eb4f01e	0.35339445
1	0xbe88b29e	-0.26698774

conv2.weight f4 [30, 2, 48, 1]
0	0xbdb85127	-0.089998536
1	0x3db8fa5a	0.09032126
2	0xbd218cfd	-0.039441098
3	0x3d6e0aca	0.058115758
4	0x3cd95e39	0.026534187
5	0x3e039f51	0.12853743
6	0x3b9ddc9d	0.004817559
7	0xbe48f943	-0.19626336
8	0xbdd1d67a	-0.10245986
9	0x3d14565c	0.03621517
10	0x3d349e90	0.04409653
11	0x3dbc2402	0.091865554
12	0x3d189171	0.03724808
13	0xbe1c655b	-0.15273039
14	0x3e838407	0.25686666
15	0x3e4b5828	0.19857848
16	0x3d0efd44	0.0349095
17	0x3c6a12ff	0.014286756
18	0x3d2bf626	0.041982792
19	0xbdb364fc	-0.087594956
20	0x3d72058f	0.059087332
21	0xbe665c96	-0.22496256
22	0xb849c4ac	-4.81053e-05
23	0xbe1e56bb	-0.15462773
24	0xbdd63bcc	-0.10460624
25	0x3e152293	0.1456397
26	0x3e348020	0.17627001
27	0x3d164fc6	0.03669717
28	0xbe8ac619	-0.27104262
29	0xbd3a5353	-0.04548962
30	0xbe22a9a4	-0.15885025
31	0x3c97f389	0.018548744
32	0xbe384a49	-0.17997088
33	0x3d1f1aaa	0.03884379
34	0xbd851851	-0.064987786
35	0x3e95f523	0.29288587
36	0xbe02766f	-0.12740491
37	0x3d166b24	0.03672327
38	0x3e01bb56	0.12669119
39	0xbd825f0c	-0.06365785
40	0x3e2fc13a	0.17163554
41	0xbdd91654	-0.10599962
42	0xbdcdbedf	-0.100461714
43	0xbe47ea47	-0.19522963
44	0x3cbbb2e7	0.022912456
45	0x3dd5679d	0.10420153
46	0xbdbb9702	-0.09159662
47	0x3dc4c1d4	0.09607282
48	0xbe20f89d	-0.15719838
49	0x3d33066c	0.043707296
50	0xbca34568	-0.019930556
51	0x3e579fa0	0.21056986
52	0xbd0cdb39	-0.034388755
53	0x3d3a5cda	0.045498706
54	0xbe3e7f0a	-0.18603149
55	0x3de9d189	0.11416919
56	0xbe1c1d21	-0.15245487
57	0xbde931b7	-0.113864355
58	0x3e479389	0.19489874
59	0xbdfa8447	-0.12232261
60	0x3da96646	0.0827146
61	0x3c4c95b6	0.012486866
62	0x3d286268	0.041109473
63	0x3e649e3d	0.22325988
64	0xbdf96df4	-0.12179175
65	0xbdda2afd	-0.106527306
66	0x3deb94f3	0.11503019
67	0xbdf5e868	-0.120072186
68	0xbc9347bb	-0.01797854
69	0xbd5e09cf	-0.054208573
70	0xbd78e630	-0.0607664
71	0x3e0e0732	0.13869932
72	0x3e09a0a9	0.13440193
73	0xbdcb1158	-0.099154174
74	0xbe2bfd2f	-0.167958
75	0xbe4a4cda	-0.19755879
76	0xbd1578b6	-0.036492072
77	0xbd348be8	-0.044078737
78	0xbe4171bc	-0.18891042
79	0xbdf3e550	-0.11908972
80	0xbde2fb3e	-0.11083077
81	0x3db84c51	0.08998931
82	0xbddba59b	-0.10724946
83	0xbd937dd5	-0.07201735
84	0xbc8c8c5f	-0.017156778
85	0xbd686eb9	-0.05674622
86	0xbde08724	-0.10963276
87	0xbd49c61e	-0.049261205
88	0xbe470d66	-0.19438705
89	0x3e33d007	0.17559825
90	0x3d4a6b16	0.04941853
91	0x3de38871	0.111100085
92	0x3e38c5b6	0.1804417
93	0xbe2023fc	-0.15638727
94	0x3e21852c	0.15773457
95	0xbdd5c141	-0.10437251
96	0xbc54561f	-0.012959986
97	0x3c4e2341	0.012581647
98	0x3b8a866b	0.0042274497
99	0xbd4f7662	-0.050650008
100	0x3dd0380f	0.10166942
101	0xbe328e3e	-0.17437074
102	0x3e0a44c2	0.13502792
103	0xbd2d4208	-0.0422993
104	0x3e002ef5	0.12517913
105	0xbc102ff0	-0.008800492
106	0xbd4cc107	-0.049988773
107	0x3ddee597	0.108836345
108	0x3dac8202	0.084232345
109	0xbe101fce	-0.14074633
110	0xbcaa9dd1	-0.020827206
111	0xbc26f2fb	-0.010189767
112	0x3cfcd770	0.030864447
113	0xbd502535	-0.050816733
114	0x3c192d3b	0.009349163
115	0x3d896cf3	0.067102335
116	0x3eafe7c3	0.34356508
117	0x3d9b3567	0.07578545
118	0x3dac61b8	0.08417076
119	0xbdd49f08	-0.10381895
120	0x3dde2ed8	0.108487785
121	0x3e6eceb7	0.23321043
122	0x3da8f940	0.08250666
123	0x3ead8471	0.33890107
124	0xbd0d3311	-0.03447253
125	0xbc93131c	-0.017953448
126	0xbdb4f307	-0.08835416
127	0x3e7dc0e7	0.24780618
128	0x3e6eff6d	0.23339625
129	0x3cea795c	0.028622322
130	0x3b6364a6	0.0034697442
131	0xbdc77737	-0.09739535
132	0xbda93f2c	-0.08264002
133	0xbdd26b2e	-0.10274349
134	0xbd543afc	-0.051814064
135	0x3e03992d	0.128514
136	0x3d827dfc	0.06371686
137	0xbe380bb3	-0.17973213
138	0xbe94b437	-0.29043743
139	0xbcb5869a	-0.02215891
140	0xbda85871	-0.08219994
141	0x3d4b3e83	0.049620163
142	0x3d5c213f	0.053742643
143	0xbbc66426	-0.006054419
144	0xbe029e9c	-0.12755817
145	0xbdb3df47	-0.08782821
146	0x3e820eba	0.2540186
147	0x3e52586c	0.20541543
148	0xbe730bf4	-0.23735029
149	0xbe2a7a1a	-0.1664814
150	0x3d756097	0.05990657
151	0x3db04f64	0.086088926
152	0xbd08bead	-0.033384968
153	0x3dd2839f	0.10279011
154	0x3d465056	0.048416458
155	0xbdc7057a	-0.097178414
156	0x3daa83a9	0.083258934
157	0xbd255de5	-0.040372748
158	0xbda32955	-0.07966868
159	0x3e903eb3	0.28172836
160	0x3baba174	0.0052377526
161	0xbd8a0acc	-0.067403406
162	0xbe57e8fa	-0.21084967
163	0x3e77be21	0.24193622
164	0xbd8af828	-0.06785613
165	0x3dadeb6a	0.08492167
166	0xbce46df8	-0.027884468
167	0xbebb0afb	-0.36531815
168	0xbd225050	-0.039627373
169	0xbe14811d	-0.14502378
170	0xbe2d9f31	-0.16955258
171	0xbe17faed	-0.14841814
172	0xbca82635	-0.020526031
173	0xbe0952ae	-0.13410446
174	0x3e1bbf55	0.15209706
175	0xbde2ff58	-0.11083859
176	0x3d95936f	0.07303511
177	0x3dffd66e	0.12492071
178	0x3c7c6457	0.015404782
179	0xbe0654b9	-0.13118257
180	0xbb8331e8	-0.004003752
181	0x3bf740b6	0.007545556
182	0xbcf21c40	-0.029554486
183	0xbc963441	-0.018335463
184	0x3b3dad26	0.0028942316
185	0x3e813c15	0.2524115
186	0xbd738ac3	-0.059458505
187	0x3c8a129f	0.016854582
188	0x3e3dcd56	0.1853536
189	0x3dc8f5ce	0.098125085
190	0x3dc95915	0.09831444
191	0xbdf5999a	-0.11992188
192	0xbcb9905c	-0.022651844
193	0xbe415fd2	-0.18884209
194	0xbe750198	-0.23926389
195	0x3e0bc25c	0.13648361
196	0x3d96169b	0.073285304
197	0xbd8a1daf	-0.06743943
198	0x3e729d09	0.23692717
199	0xbe431e39	-0.19054498
200	0x3d631df1	0.055448476
201	0xbe6f6b2a	-0.23380724
202	0x3da94994	0.08265987
203	0xbd2cf030	-0.04222125
204	0x3d976546	0.07392363
205	0x3ba1b8e0	0.004935369
206	0x3d4c7c87	0.049923446
207	0xbd7625c4	-0.06009461
208	0xbd60f287	-0.054918792
209	0xbdc213d4	-0.09476438
210	0xbe08f34e	-0.13374063
211	0x3e890d2f	0.2676787
212	0xbd10f277	-0.035387482
213	0x3d45fcc5	0.048336763
214	0xbe5ec7a7	-0.21755849
215	0x3d851906	0.064989135
216	0x3dbd4502	0.09241678
217	0xbee484d6	-0.44632596
218	0x3cddc7b4	0.027072765
219	0xbd3f84d2	-0.046757527
220	0xbda0a51c	-0.07843992
221	0xbe7fab53	-0.24967699
222	0x3d82a006	0.06378178
223	0x3aa55fe6	0.0012617081
224	0x3d563936	0.052300654
225	0xbd91dc2f	-0.07122075
226	0x3d8976c2	0.067121044
227	0xbd837b42	-0.06419994
228	0x3cc1e6e2	0.023669664
229	0x3da76219	0.081730075
230	0x3d640d37	0.055676665
231	0xbd1781f4	-0.036989167
232	0xbe01ed8f	-0.12688278
233	0x3b866bf6	0.0041022254
234	0xbd6c6b8a	-0.057719745
235	0x3e4369cd	0.19083329
236	0x3c25db62	0.010123106
237	0xbdae4210	-0.08508694
238	0x3d002fd1	0.0312956
239	0x3d37f62b	0.0449125
240	0x3e4659a6	0.19370136
241	0xbda0f945	-0.078600444
242	0xbe5f1348	-0.21784699
243	0xbe22ce46	-0.15899
244	0xbd954d8b	-0.07290181
245	0x3e2de689	0.16982473
246	0x3dd6203d	0.10455368
247	0xbe4de7a0	-0.20107889
248	0x3dea26c7	0.114331774
249	0xbd03ade8	-0.03214827
250	0x3d805c41	0.06267596
251	0xbc3ae524	-0.01140717
252	0xbd014c66	-0.031567
253	0x3d9cc279	0.0765428
254	0xbe094ade	-0.13407466
255	0xbe4ca7af	-0.19985841

conv2.bias f4 [30]
0	0xbdcb0e59	-0.09914846
1	0x3d37eb70	0.044902265
2	0xbd7703e7	-0.060306456
3	0x3e3ebbc1	0.1862631
4	0xbbf2f304	-0.0074142236
5	0x3e8d9568	0.2765305
6	0x3e0594c4	0.13045031
7	0x3d3593d7	0.044330444
8	0xbe365c31	-0.17808606
9	0x3d950e91	0.07278169
10	0xbd162bae	-0.03666275
11	0xbde54175	-0.111941256
12	0xbcac0f04	-0.021003254
13	0xbde88598	-0.11353606
14	0xbd803f93	-0.06262126
15	0xbdbc2c89	-0.09188182
16	0x3d7e479d	0.062080014
17	0x3cd01138	0.025398836
18	0xbd9a236f	-0.0752629
19	0xbd8ddb40	-0.06926584
20	0x3d9097da	0.070602134
21	0xbe5c14d6	-0.21492323
22	0xbdf70752	-0.12061943
23	0x3c148030	0.009063765
24	0x3e890b6f	0.26766536
25	0x3ca366e0	0.019946516
26	0xbd813528	-0.06308967
27	0xbca9f9c3	-0.020748978
28	0x3e0677a1	0.13131572
29	0xbe52b77a	-0.20577803

conv3.weight f4 [1, 31, 1, 1]
0	0x3da686a9	0.08131153
1	0xbbc0c6ff	-0.005883097
2	0xbdca4a8e	-0.098775014
3	0x3e9d7c1b	0.30758747
4	0xbd351411	-0.04420859
5	0xbd91bd93	-0.071162365
6	0x3e76c16f	0.24097227
7	0xbe12cf12	-0.14336804
8	0x3bbc1820	0.0057401806
9	0xbd34c204	-0.04413034
10	0xbd072fc8	-0.033004552
11	0xbc576740	-0.013147175
12	0xbe08ed80	-0.13371849
13	0xbb921462	-0.004457996
14	0xbe2f1f3f	-0.17101763
15	0x3de0a094	0.10968128
16	0xbd8a4c6c	-0.067528576
17	0xbd0dbcaa	-0.034603752
18	0x3d7fd372	0.06245751
19	0xbe2d4c64	-0.16923672
20	0x3d264244	0.04059054
21	0x3e7cd18e	0.24689314
22	0x3de0e8d2	0.10981907
23	0xbe0682ce	-0.13135836
24	0xbdfcbe38	-0.12340969
25	0x3e5b55e4	0.21419483
26	0xbe867e7d	-0.26268378
27	0x3cd1d85d	0.025615865
28	0x3e5e147b	0.216875
29	0x3df1f572	0.11814393
30	0xbbf745f9	-0.007546183

conv1.weight f4 [2, 4, 3, 1]
0	0x3e7ae6e8	0.24502146
1	0xbdd74214	-0.1051065
2	0x3df9ed3c	0.12203452
3	0xbe8cef6d	-0.27526417
4	0x3e12e2ca	0.14344326
5	0xb9d97800	-0.00041478872
6	0x3e0b9a1c	0.13633007
7	0x3e0fee00	0.14055634
8	0xbe05db5f	-0.13071965
9	0x3d6bd418	0.057575315
10	0xbe53d2ee	-0.20685932
11	0x3e694614	0.22780639
12	0x3e3d29c2	0.1847296
13	0xbe2ff0a0	-0.17181635
14	0xbcf06230	-0.029343694
15	0xbe9248d6	-0.28571194
16	0x3e0d3dae	0.1379306
17	0x3c572bc0	0.013132989
18	0x3e81f25c	0.25380218
19	0x3da7da88	0.081959784
20	0xbdf075d8	-0.11741227
21	0x3e91fcea	0.2851327
22	0xbe424299	-0.18970717
23	0x3e4f4512	0.20241192

conv1.bias f4 [2]
0	0xbbef2c80	-0.007299006
1	0xbd0a9c98	-0.033840746

conv2.weight f4 [20, 2, 48, 1]
0	0x3dc051b4	0.09390584
1	0xbda26ac6	-0.07930522
2	0x3baec2d0	0.005333282
3	0xbd2b9b27	-0.04189601
4	0x3c94074c	0.018069886
5	0xbc40a370	-0.011757717
6	0x3da4ae6c	0.08041081
7	0x3c4d01b0	0.012512609
8	0xbdadcb3f	-0.08486032
9	0x3d141e48	0.03616169
10	0xbd1ba0fa	-0.037995316
11	0x3d87245a	0.065987304
12	0x3d5e323c	0.054247126
13	0x3d758264	0.059938803
14	0xbd88a16c	-0.06671414
15	0x3bcb2b90	0.0062002614
16	0xbdbf34c1	-0.09336234
17	0xbc96cc44	-0.018407948
18	0xbd849694	-0.06474033
19	0xbdc89685	-0.09794334
20	0x3d2baa48	0.04191044
21	0xbc2a69a8	-0.010401167
22	0xbd45b4ca	-0.048268117
23	0xbdcb3126	-0.09921484
24	0x3c3ffa90	0.011717454
25	0xbcd27538	-0.02569066
26	0x3d8458f4	0.06462279
27	0x3dd034d0	0.10166323
28	0xbd0ca71a	-0.034339048
29	0x3be66da0	0.0070321113
30	0xbd8b198c	-0.06791982
31	0x3d17d680	0.037069798
32	0xbc940e3c	-0.018073194
33	0x3d98a29c	0.0745289
34	0x3db4d1fa	0.08829112
35	0x3db35b14	0.08757606
36	0xbdac65a4	-0.08417824
37	0xbda4bfbe	-0.080443844
38	0x3db93018	0.09042376
39	0xbda4c55a	-0.08045454
40	0x3d3dc3d8	0.04632935
41	0xbc9f5bb8	-0.019452915
42	0x3d9dcd88	0.077052176
43	0x3d506fa8	0.050887734
44	0x3cb4c29c	0.022065453
45	0xbd5aa707	-0.053381946
46	0xbd78bdde	-0.060727946
47	0x3d959aac	0.07304892
48	0xbd849480	-0.064736366
49	0xbbdcb330	-0.006735228
50	0x3c51c8a8	0.012804188
51	0xbd5473c2	-0.051868208
52	0xbd804ef8	-0.06265062
53	0xbdc5078d	-0.09620581
54	0xbd6b247b	-0.057407837
55	0xbaae5a80	-0.0013302118
56	0x3c4ba258	0.0124288425
57	0x3d96f79c	0.073714465
58	0x3da467b6	0.08027594
59	0xbd51bdb6	-0.051206313
60	0x3d4dad38	0.050214022
61	0x3cac7698	0.021052644
62	0xbcbbc990	-0.02292326
63	0xbc1f7080	-0.009731412
64	0x3dab6902	0.08369638
65	0x3d70935c	0.058734283
66	0x3d57c074	0.052673772
67	0xbdc4784b	-0.095932566
68	0x3d361730	0.044455707
69	0xbd71c0dc	-0.059021816
70	0xbcb6840c	-0.022279762
71	0xbd1647da	-0.036689617
72	0xbcdf2c64	-0.027242847
73	0x3cf8b868	0.03036137
74	0xbd07df82	-0.033172138
75	0xbcf3aec4	-0.02974642
76	0x3d8c3c50	0.06847441
77	0x3d9ab640	0.07554293
78	0x3cd5f868	0.026119426
79	0xbd3c9c20	-0.04604733
80	0x3cdf0e98	0.027228639
81	0xbc4347c8	-0.011918969
82	0xbd6c0212	-0.057619162
83	0xbd577126	-0.05259814
84	0xbd9b79ef	-0.07591616
85	0xbda2d86e	-0.07951437
86	0x3d71f5c8	0.059072286
87	0x3b9c4720	0.004769221
88	0xbd95d38c	-0.0731574
89	0xbdb19385	-0.08670715
90	0xbd5d5b0f	-0.05404192
91	0x3c016970	0.007898673
92	0xbd832e06	-0.06405263
93	0xbdcca996	-0.099932835
94	0x3d293564	0.041310683
95	0xbdb667f5	-0.08906547
96	0x3daebaae	0.085317
97	0x3d3235a8	0.0435082
98	0xbc7989f0	-0.015230641
99	0x3c1278e8	0.008939959
100	0xbd5722ca	-0.05252341
101	0xbdb5fc1c	-0.08885977
102	0xbcddb1c8	-0.027062312
103	0x3dc58882	0.096451774
104	0x3d292850	0.04129821
105	0x3c85ce84	0.016333826
106	0xbca41040	-0.02002728
107	0xbd8b08c6	-0.06788783
108	0x3d6383a4	0.055545464
109	0x3cbc51f0	0.02298829
110	0xbdabc42c	-0.08387026
111	0x3c5b3f18	0.013381742
112	0x3d63b920	0.05559647
113	0x3d97cbf4	0.07411948
114	0x3d372d24	0.044720784
115	0x3d88bcb8	0.0667662
116	0xbd90401a	-0.070434764
117	0x3d8fd63a	0.07023282
118	0xba31dd80	-0.000678502
119	0xbb901b90	-0.004397817
120	0x3cca1750	0.02466932
121	0x3dcb2f16	0.0992109
122	0x3db1f102	0.08688547
123	0x3d0aab30	0.033854663
124	0x3dba1398	0.090857685
125	0x3dac8516	0.08423822
126	0xbbee7e40	-0.0072782338
127	0xbdbe43aa	-0.0929025
128	0xbda8de4b	-0.08245524
129	0x3d647d90	0.05578381
130	0x3dbce040	0.0922246
131	0x3d76c5d8	0.060247272
132	0x3d8d09c2	0.06886627
133	0xbc1d6e78	-0.009608857
134	0x3c6d0fc8	0.014469095
135	0x3da68878	0.08131498
136	0xbd56140b	-0.05226521
137	0x3a816200	0.0009871125
138	0xbdb49904	-0.08818248
139	0x3d8eb322	0.069677606
140	0x3d2b4efc	0.041823372
141	0x3d87608a	0.0661021
142	0xbdb8376e	-0.089949474
143	0x3db87240	0.090061665
144	0x3d4ebd8c	0.050473735
145	0x3d382bd4	0.044963673
146	0x3d59d6cc	0.053183362
147	0x3d7c4aec	0.06159489
148	0x3c86be94	0.016448297
149	0xbcf12424	-0.029436179
150	0x3d31f15c	0.04344307
151	0x3d5b2458	0.053501457
152	0x3ca7f158	0.020500824
153	0x3ba201c0	0.0049440563
154	0xbd6323b0	-0.055453956
155	0x3d78fb94	0.0607868
156	0x3c81d850	0.015850216
157	0x3bb73900	0.0055915117
158	0xbd0f074a	-0.03491906
159	0x3d4b0acc	0.049570844
160	0x3c8ffd18	0.01757674
161	0xbd0c2e4e	-0.034223847
162	0xbd50d5d6	-0.05098518
163	0x3da48656	0.08033435
164	0x3dab8b4e	0.0837618
165	0x3d9299f6	0.07158272
166	0x3c745df0	0.014914975
167	0x3d7e10f4	0.062027887
168	0xbdad6cff	-0.08468055
169	0x3da0c6ac	0.07850394
170	0x3c57ce40	0.013171732
171	0x3dbb265e	0.09138177
172	0x3cadd44c	0.021219395
173	0xbd739aa2	-0.05947364
174	0xbda86000	-0.082214355
175	0x3da87bc6	0.08226733
176	0xbd8370ae	-0.06417976
177	0xbdc4a827	-0.09602385
178	0x3d1d57f8	0.03841397
179	0x3dabd37a	0.08389945
180	0xbc2d6aa8	-0.010584511
181	0xbd10061a	-0.03516207
182	0x3cf83b60	0.03030175
183	0xbb86ee80	-0.004117787
184	0xbd75a23b	-0.05996917
185	0x3d773f84	0.060363308
186	0xbd2f34f7	-0.04277512
187	0x3c8f90e8	0.017525151
188	0x3c0930b0	0.008373424
189	0x3d197a5c	0.037470207
190	0xbd2ee5aa	-0.042699493
191	0xbcd5a1f8	-0.02607821
192	0xbc5996f0	-0.013280615
193	0xbd776ec3	-0.060408365
194	0x3dce7968	0.1008175
195	0xbd2b56a5	-0.041830678
196	0x3d95c752	0.07313408
197	0x3dcf45ac	0.10120711
198	0x3d76700c	0.06016545
199	0x39880300	0.00025942177
200	0xbd85d6ca	-0.065351084
201	0xbd76583c	-0.06014274
202	0xbc08c108	-0.0083468035
203	0xbc5563a8	-0.013024248
204	0xbbe49b20	-0.0069765
205	0xbda181a1	-0.07886053
206	0xbc2abf08	-0.010421522
207	0xbd907bb1	-0.07054842
208	0x3da1aeda	0.078946784
209	0x3d1eeebc	0.038801894
210	0x3d88d866	0.066819
211	0xbc2ef4a0	-0.01067844
212	0x3d98941c	0.074501246
213	0x3dcc9ad8	0.099904716
214	0xbc458658	-0.012055956
215	0xbd9690d2	-0.07351841
216	0xbbe082c0	-0.006851524
217	0x3d3a04c8	0.045414716
218	0xbd01ca96	-0.03168734
219	0xbc8d39bc	-0.017239444
220	0x3cb2e54c	0.021837853
221	0xbd0d99b8	-0.034570426
222	0xbd921654	-0.07133165
223	0x3d1a59e8	0.037683398
224	0x3c032010	0.00800325
225	0xbc07afd0	-0.008281663
226	0x3d59c3c4	0.053165212
227	0x3d0cf92c	0.034417316
228	0xbd995d97	-0.07488554
229	0x3d1c7e5c	0.038206443
230	0x3c13aa18	0.0090127215
231	0x3d127bec	0.035762712
232	0x3b5c2340	0.0033590347
233	0xbdcab033	-0.098968886
234	0xbd4dae3c	-0.05021499
235	0xbc9b6418	-0.018968627
236	0x3d5ca230	0.05386561
237	0x3b533560	0.003222786
238	0xbcba55d4	-0.022746004
239	0xbb8b6430	-0.0042538866
240	0x3ccc2570	0.024920195
241	0xbdbd6037	-0.09246867
242	0x3dce4670	0.10072029
243	0xbd6cc377	-0.057803597
244	0xbc6eaa30	-0.014566943
245	0x3bff3870	0.0077887103
246	0xbdbfe331	-0.09369505
247	0xbce2d904	-0.027691372
248	0x3cdfb7c8	0.027309313
249	0xbbd4d2c0	-0.00649485
250	0x3da1c544	0.078989536
251	0x3d9142a6	0.0709279
252	0x3d0453d8	0.032306522
253	0xbd7de789	-0.061988387
254	0xbd33a338	-0.04385683
255	0x3d9b4e9e	0.075833544

conv2.bias f4 [20]
0	0xbcc8a46c	-0.024492465
1	0xbd1890ec	-0.037247583
2	0x3ceb6720	0.028735697
3	0xbcc8e7f8	-0.024524674
4	0xbd373cb3	-0.04473562
5	0xbd213d70	-0.039365232
6	0x3d25ff10	0.04052645
7	0xbcbd032c	-0.023072802
8	0xbd4db2a9	-0.05021921
9	0xbdafd74d	-0.08585987
10	0xbdc46314	-0.0958921
11	0xbd8e28cc	-0.06941375
12	0x3d0fceb4	0.035109237
13	0xbdc88971	-0.0979184
14	0x3dbb9074	0.091584116
15	0xbd9e84ec	-0.077401966
16	0xbd32a684	-0.043615833
17	0x3d24cfb0	0.04023713
18	0xbd94eaef	-0.072713725
19	0xbd9fa690	-0.07795441

layer3.weight f4 [1, 66]
0	0x3d436000	0.047698975
1	0x3c650a20	0.013979465
2	0xbd46c6da	-0.048529483
3	0xbdf0b3d6	-0.11753051
4	0xbdf1c994	-0.11806026
5	0x3dd9f2d0	0.10642016
6	0xbcfaeef4	-0.03063152
7	0x3dbff9a8	0.0937379
8	0x3d10b55c	0.035329208
9	0x3dc22416	0.09479539
10	0x3dab98c0	0.08378744
11	0xbc72d670	-0.014821634
12	0xbbcbb800	-0.006217003
13	0x3d656024	0.05599989
14	0x3d5a4728	0.053290516
15	0x3d95430a	0.07288177
16	0xbd968f27	-0.07351523
17	0x3dbd50ea	0.09243949
18	0xbdb8f588	-0.09031206
19	0x3d59b2c4	0.053149
20	0xbd0ce158	-0.034394592
21	0x3c5b0ac0	0.013369262
22	0x3d2534fc	0.040333733
23	0x3d194a4c	0.03742437
24	0xbd7b8197	-0.061402883
25	0xbc8b7458	-0.01702325
26	0xbd3b02e6	-0.04565706
27	0xbdd772d0	-0.105199456
28	0xbb82bbb0	-0.0039896592
29	0xbc8c0018	-0.017089888
30	0xbdb966a4	-0.0905278
31	0xbde64758	-0.112440765
32	0x3ddc103a	0.107452825
33	0x3d7d807c	0.06189011
34	0x3d8db786	0.0691977
35	0xbdb88491	-0.0900966
36	0xbd9f01ca	-0.07764013
37	0xbdda9113	-0.10672202
38	0x3aa60e00	0.0012668967
39	0xbd206b26	-0.039164685
40	0xbdc2a558	-0.09504193
41	0x3dc8b458	0.09800023
42	0xbd3a7a1c	-0.04552661
43	0x3d81f594	0.063456684
44	0x3d96d04e	0.0736395
45	0x3de0ce5e	0.109768614
46	0x3cf8d1c8	0.030373469
47	0xbd9c08da	-0.07618876
48	0xbd037ae0	-0.032099605
49	0xbdd8e7a0	-0.10591054
50	0xbd84bf86	-0.06481843
51	0x3d683084	0.056686893
52	0xbb9acdf0	-0.0047242567
53	0xbde3835c	-0.11109039
54	0x3d3e5fc4	0.046478048
55	0xbde7f381	-0.113257416
56	0xbd4cb1ca	-0.04997424
57	0xbda341a0	-0.07971501
58	0x3d859d3c	0.06524131
59	0x3cb765d8	0.02238743
60	0x3a3b4780	0.0007144138
61	0xbcfd3d74	-0.030913092
62	0xbceff38c	-0.029290937
63	0xbd981cb4	-0.0742735
64	0x3dd0defa	0.101987794
65	0x3def7a02	0.11693193
