Ryan_ddpg-stock-trading-code/data/DDPGAgent-ddpg-20200429_19-46-19-model-PortfolioEnv.bin (torch_old, 21847 bytes, 10 tensors)

conv1.weight f4 [2, 4, 3, 1]
00000000: d67a 4e3e 8843 ab3d fd0f f83c e048 a33c
00000010: 143f f1bc 3c89 0c3e 89d9 f2bd 9cdb c8bd
00000020: d7f5 5ebe 31e7 50be 8654 58be 19be 393e
00000030: 0053 03be d81a 3abe 5243 f23d 488d 3abd
00000040: 6967 4fbd f369 7b3e 1f27 8fbe 72d4 73be
00000050: 0808 bcbd efd8 60be e301 4cbb 6321 d5bd
0.20164046 0.0836249 0.030281061 0.01993221 -0.029449023 0.13724226 -0.11857898 -0.09807512
-0.21773468 -0.20400693 -0.21125993 0.18138923 -0.1282463 -0.18174303 0.118292466 -0.045544893
-0.05063573 0.24552135 -0.27959535 -0.2381151 -0.09181219 -0.21957754 -0.0031129054 -0.10406759

conv1.bias f4 [2]
00000000: 8631 5cbe 70ce 713e
-0.21503267 0.23613906

conv2.weight f4 [30, 2, 48, 1]
00000000: 0df8 8d3a 5691 52bd 2195 93bc a871 a0bd
00000010: 16ca 48bd 6a4c e6bc 6167 8ebd 6742 b33d
00000020: eacc dfbd 9688 25bc 0794 4cbc 8e50 283d
00000030: e3db 503c 067b 81bc 798c 903d ce16 21bc
00000040: 4040 70bd b35f 4fbd b461 843d a31b 98bc
00000050: 4349 b03c 7358 b2bd 7bff 66bc a1d9 4fbc
00000060: 0c23 f6bc 106c c83c 4e20 953a 94cd fc3c
00000070: 59b2 463d 6702 dc3c c807 363d baec 56bd
00000080: ec2c 593d 3350 703d ceaa b13d 69ee 47bd
00000090: 8e8f ffbc c8f8 a4bd 2b32 a63d 3179 d13c
000000a0: c0fd b53c faf4 91ba c306 05bd 78e0 47bc
000000b0: ebd9 8bbd 52f9 56bd bf97 58bd 4ad8 843d
000000c0: bd3a 94bd 33c2 a93c 2b0f 9dbd 0155 a2bd
000000d0: d531 e0bc 5458 1fbd af77 9abd c9b7 5bbd
000000e0: aded 95bd f151 703c ae57 053d 0c40 9dbd
000000f0: c27d 64bd 9f2b 003c b2af f43c d27c 3dbd
00000100: 8e3b d23c afac 4c3d 9b15 f5bc 1d9f 333d
00000110: a1bd 023d 2ff5 a83c f491 c23c 8279 ac3c
00000120: 660f 0f3d f41e c3bd 19e6 313c fb71 983d
00000130: d7de b93c ceb5 b83d a489 3a3d f911 91bd
00000140: 55f7 acbd 89fa 8e3d ff44 103d 52bc dd3c
00000150: 1a54 82b9 79dd c2bd fff5 a6bd 20f7 4d3c
00000160: 18ae 0c3d 7ad2 0e3d f35e 683d 5670 a33d
00000170: 9812 7a3d 69ab 86bd 8f36 59bd 90cd 0c3d
00000180: d51e cfbb 761b 99bd d80e d0bd 13cf aebd
00000190: 0542 163d 080d 72bd be47 533c add5 2b3d
000001a0: c320 b5bd 3663 aabd 99f0 933d c2bf a3bd
000001b0: 5c8b c3bd a612 a9bd f856 143c 19a5 813c
000001c0: c5c4 89bd 8e99 85bc be01 b23c 41c5 a63d
000001d0: e908 3a3d a9c8 c03d 5e64 c33d 665f fa3b
000001e0: 7011 4f3d 7ac1 ac3c 66cf 46bd 92d4 333c
000001f0: a7f3 7e39 e048 86bd 4444 3b3d 485b c2bc
00000200: c698 083c 1f83 6c3d a52d b13d 2bb3 5ebc
00000210: 75b1 c8bc 3a45 91bd 6045 9fbd 3cca 25bd
00000220: a873 3b3d 6f74 aabd c560 8ebc 38a6 fcbb
00000230: 1c68 a2bb 35f1 573d 7772 a3bd 177f fe3c
00000240: a6be 54bd 11ec d1bd 4dfb 983d 142c d43c
00000250: 0346 a6bc 42a5 c23d 93c3 bdbd 5f01 cbbd
00000260: 1c2e 80bd 2181 243b 9585 973d 0593 723d
00000270: 3241 3bbd 967a ac3d d80a c23b 82c1 853b
00000280: 36b1 4d3d d4ab f2bc 4d5d 18bd b788 b53d
00000290: 8c45 083d eee7 23bc f8eb 213c bcc7 a9bc
000002a0: 0e2c 8bbd 86c9 cdbc 6d8e 1c3d 5b8c 20bd
000002b0: 6a87 803d 2581 6b3d 9c52 8fbd 5ad3 82bd
000002c0: 16f0 35bd a544 c9bd 8323 713b 4a46 9abd
000002d0: 53ff 88bd 5d06 cf3c 113f bbbd abf3 c4bd
000002e0: fc32 4fbd f046 1bbd e907 16bc ca78 a13d
000002f0: a012 d3bb 5e60 3cbb 28f6 1dbc 7c74 1d3d
00000300: d7fa e33c 4079 debc 9953 c7bd faf5 bbbd
00000310: c0a3 d5bd 3ca9 bfbd f2ea d8bc 94bb fdbc
00000320: de00 533d b3d6 3abd 3d94 f1bc 1ce3 acbd
00000330: 37ea f13c 5a6a 51bd 36f6 b63c 9250 09bd
00000340: d147 66bd f10f 9cbd a291 9fbd 5e9b 863c
00000350: 7682 163d fc19 a0bd a4eb 133d ffb8 2fbd
00000360: 191c d63c 1bb8 b13d 9812 95bd 4bae e53c
00000370: 289c 153d fbf7 c23a a853 97bd ae0d b03d
00000380: e518 25bd 1044 5bbd 262f 913d 2c70 bfbd
00000390: eacd a93d b502 663d 4858 c33d abfb 213d
000003a0: 0f55 8cbd 4002 34bd 5a2e 1abd b0e4 b73d
000003b0: 9288 3dbd 2d07 0cbd 6f84 b6bd 476a 59bd
000003c0: 6ece 6b3a 51de cd3b d044 9dbd 4fc3 f6bb
000003d0: 1448 a63d 33db 8cbc f9ff 0d3d ff42 a73c
000003e0: 7653 9a3c 6049 37bd c864 67bd 9cdf 8e3c
000003f0: 8d29 c13d dba9 803d 9af7 22bd ff31 0e3c
0.0010831371 -0.051408134 -0.018015446 -0.07834178 -0.04902085 -0.028112609 -0.06953312 0.087528996
-0.10927756 -0.010103365 -0.012486464 0.041092448 0.012747738 -0.015805732 0.07058043 -0.009832097
-0.058655024 -0.050628375 0.06463948 -0.018567866 0.021519309 -0.087082766 -0.014098997 -0.012686164
-0.030046009 0.02446559 0.0011377425 0.030859746 0.04850993 0.026856614 0.044441015 -0.052471854
0.053021356 0.058670234 0.086751565 -0.04881135 -0.031196382 -0.08055264 0.081150375 0.025570484
0.022215724 -0.0011135631 -0.03247715 -0.012199514 -0.06828674 -0.052483864 -0.05287909 0.06486566
-0.07237766 0.020722484 -0.07668909 -0.079263695 -0.027367512 -0.038902596 -0.07542359 -0.053642068
-0.07320724 0.014667974 0.03255432 -0.076782316 -0.055783994 0.0078229 0.029868934 -0.046261616
0.025663164 0.04996937 -0.029917529 0.043852914 0.031919125 0.020624725 0.023751236 0.021054033
0.034926794 -0.09527388 0.010858082 0.07443615 0.022689266 0.090190515 0.04554142 -0.07083506
-0.08445612 0.069813795 0.03522205 0.027067337 -0.00024858193 -0.09514899 -0.08152389 0.012571126
0.034345716 0.034868695 0.056731176 0.07980411 0.06105289 -0.06575663 -0.053030547 0.034375727
-0.006320814 -0.07475941 -0.10159081 -0.0853559 0.036684055 -0.05909446 0.012895523 0.041951824
-0.088441394 -0.08319704 0.07223625 -0.07995559 -0.09548065 -0.0825551 0.009053938 0.015825795
-0.06726984 -0.016308572 0.021729346 0.08143092 0.045418654 0.09413273 0.09540628 0.007640767
0.05055374 0.02108835 -0.048537634 0.010975974 0.00024314095 -0.065568686 0.0457194 -0.023725167
0.008337205 0.057742234 0.08651284 -0.013592522 -0.02449868 -0.07093282 -0.07776904 -0.04047607
0.045764595 -0.08322989 -0.017380128 -0.0077102445 -0.0049562585 0.052720267 -0.07980817 0.03106646
-0.05193963 -0.10250104 0.07469807 0.025899924 -0.020297056 0.09504177 -0.092658184 -0.09912371
-0.06258795 0.002510138 0.073985256 0.05922224 -0.045716472 0.08421819 0.005921703 0.004081906
0.05021783 -0.02962295 -0.037198354 0.08863967 0.03326945 -0.010004027 0.0098829195 -0.020725124
-0.06795512 -0.025120508 0.038221765 -0.039196353 0.06275828 0.05749621 -0.06998178 -0.06387968
-0.044418417 -0.09827546 0.0036794848 -0.07532938 -0.06689324 0.025271589 -0.09142888 -0.096167885
-0.050585732 -0.03790945 -0.009157159 0.07884367 -0.0064414293 -0.0028743963 -0.009641208 0.038441166
0.02782957 -0.027157426 -0.09732742 -0.09177776 -0.104316235 -0.09358451 -0.026479218 -0.030973233
0.0515145 -0.04561491 -0.02948963 -0.08441755 0.029530628 -0.051126815 0.0223342 -0.033524103
-0.056220833 -0.07620228 -0.07791449 0.016431507 0.03674551 -0.07817456 0.036113396 -0.042901035
0.026136445 0.086776935 -0.07278937 0.02803721 0.036525875 0.0014874929 -0.07389003 0.08596359
-0.040306944 -0.053531706 0.07089071 -0.09347567 0.08291228 0.056154925 0.09538323 0.03954665
-0.06852161 -0.04394746 -0.03764186 0.089791656 -0.04627282 -0.03418653 -0.089119785 -0.05307987
0.0008995299 0.0062826057 -0.076791406 -0.007530607 0.081192166 -0.017194366 0.034667943 0.020417688
0.018838625 -0.04474771 -0.056492597 0.01744061 0.09431753 0.06282397 -0.039786913 0.008678912

conv2.bias f4 [30]
00000000: 8695 16bb 6560 babd bbc1 ad3d e924 313d
00000010: 01b1 01bd a672 473c df08 7b3c cd59 de3c
00000020: 99a9 9b3c dad5 ddbd b6ba 343d 4043 9dbd
00000030: 2170 4b3d 6e0d 193d e2f5 5c3d 2d3c af3d
00000040: bf40 203d 749c d03d 1bbe a8bd af4a 693c
00000050: 7cd2 53bd cd85 863c 8f06 b5bd 4fa2 99bb
00000060: 8ea5 9b3c 7018 c5bd 7f79 7c3d 10e1 7bbd
00000070: f7b2 98bd fd1e 0abd
-0.0022977307 -0.09100417 0.08484217 0.04324809 -0.031662945 0.01217333 0.015321939 0.02714243
0.019001769 -0.108318046 0.044123374 -0.076788425 0.04966748 0.037366323 0.05394543 0.085563995
0.039124247 0.10186091 -0.08239385 0.014238997 -0.051714405 0.016421223 -0.088391416 -0.004688538
0.018999841 -0.09623802 0.061639305 -0.061493933 -0.0745601 -0.03372096

conv3.weight f4 [1, 31, 1, 1]
00000000: d9d1 1b3e 7549 0a3d 6007 323e 0be0 0dbb
00000010: e5b6 84bd 76e1 e2bd 2225 45bd aa98 293e
00000020: 8113 42be 38a5 db3d 3813 56bd eeb9 58bd
00000030: 9906 a4bd e4f5 afbd 0d96 013e 9140 cdbd
00000040: 325e ebbd 436e a5bd df13 0b3e bec9 993d
00000050: 5abb 9fbd 7b7c 293c c3a2 9bbd e9a3 bcbc
00000060: 3281 aa3d d9e9 e03d abc5 70bd e897 bc3d
00000070: 47c0 cdbc 3e46 ed3d 6b6c 0a3d
0.1521677 0.03376146 0.17385626 -0.0021648433 -0.06480197 -0.110781595 -0.048131116 0.16562143
-0.18952753 0.10724872 -0.052264422 -0.05291169 -0.08009071 -0.08591822 0.12654896 -0.10022081
-0.11492576 -0.080776714 0.13581799 0.075091824 -0.07799406 0.01034462 -0.07599404 -0.023027377
0.08325423 0.10982103 -0.05878226 0.09208661 -0.025116099 0.11585663 0.0337948

conv1.weight f4 [2, 4, 3, 1]
00000000: 4cca bfbd 5166 dd3d e917 8ebd 85cc 183e
00000010: fed0 053e 496f e5bd b1ce 253d bcbd 5bbc
00000020: f288 4d3d 1714 a03c 94b0 91bd 4233 883d
00000030: e1f7 743e 6cef a9bd 54e8 0d3e 5199 1abe
00000040: e53f 743e b07b 0a3e 7973 5c3d 504d 09be
00000050: 8007 1bbe 4e1c 22be 4f61 75bd 01f1 c0bd
-0.09364757 0.10810531 -0.06938154 0.14921768 0.13068005 -0.112028666 0.04048032 -0.013411935
0.05017943 0.01954083 -0.07113758 0.06650402 0.23922683 -0.08297619 0.13858157 -0.15097548
0.23852499 0.13523746 0.05382106 -0.13408399 -0.1513958 -0.1583111 -0.059907254 -0.09420968

conv1.bias f4 [2]
00000000: 3fe2 d23c ad04 a9bd
0.025742648 -0.08252845

conv2.weight f4 [20, 2, 48, 1]
00000000: 117f 83bd 2128 a6bd fa75 923d 33ca 673d
00000010: ba18 95bd 1556 bf3c 3c17 363d 099a 94bd
00000020: 2387 eebd 4786 5ebc 4658 9a3d 8524 e93c
00000030: 424a 38bd 4347 7c3d c44c a13d a8ac b4bd
00000040: 4f6d 9bbd 3c71 163d 05f2 f6bc 8100 adbd
00000050: aed3 0abd 9d28 a1bd 2900 d23d 3bc6 fabc
00000060: d0ab 2abc 8097 543d 3504 1b3d 3766 cebc
00000070: d9c3 da3c dbbe 81bd 210e 983d 6a07 ebbc
00000080: bc1a 81bd ea1e 22bd d935 9d3c f6d5 4f3c
00000090: ed42 093d 151e 4d3d cb81 413d a67f 453d
000000a0: bd9f 023d 66bd 58bd 4bc5 80bd c123 4d3d
000000b0: 2d78 843d 3587 7a3d 34a2 59bd 7b15 5bbd
000000c0: 41de 1a3d fe89 0dbd c6fc d0bd 8c70 3ebc
000000d0: 172d 83bd 9d83 a4bc 69c2 09bc d583 663d
000000e0: 2fee 273d 0043 cbbd 7242 74bc 7349 eabd
000000f0: 02fa 5b3d 6389 cdbb 4a2d 0bbd 65d5 b3bc
00000100: 1ce5 573d afd9 4abc 4afd cebd e62a 1abd
00000110: 126a b93a 827b 863c 7c8a c8bd 5768 8bbd
00000120: a65f cb3b 8479 67bd 66e9 823d c8bc 81bd
00000130: 88a8 87bd f058 9cbd 67c7 c53c 2eb4 4bbd
00000140: 930a 553c a01d c4bd c1b1 b93b 6a06 953c
00000150: 4f40 983d d1b9 8dbc a653 97bd e51e eebc
00000160: 7e56 c6bc a172 133d 5573 d9bd 1370 8f3c
00000170: ac34 c0bd 41ea a23d 3663 a7bd 0d7c bb3c
00000180: 881c f13a 58e8 723d 340f 6f3d 90b2 97bc
00000190: 4c2d c53d ec09 58bc b300 08bd d43d d7bc
000001a0: 926f f5b9 89bb a63b 9d0b 4a3d 8a7b 933d
000001b0: de5c a1bd fb63 eebb 92ce a0bd d80e 9cbd
000001c0: eefa 54bd 07a3 67bd 4472 24bc 4487 50bc
000001d0: 75a4 433d d97d 93ba 2b23 363d cd34 813c
000001e0: 7f64 88bd 20b2 9fbc b8a1 9c3c 2b44 4b3b
000001f0: ab32 ae3d 5dda 3e3d 5b3a 903d 884b c4bd
00000200: ec39 3f3c 2fd7 8b3d d81f e2bc e02d 593c
00000210: 847d 78bd 21a6 1c3d 5e6e 42bd 4c67 1ebd
00000220: 4be6 c6bd 3a48 a2bc 7736 c1bd 0294 2bbd
00000230: 4b54 83bd daf8 62bd 4294 0bbd 94fd eb3c
00000240: 8d10 54bd 2fbf c4bd 0563 6a3c 01f4 f53c
00000250: 09a8 183b 3ed0 1a3d d819 773d fca3 843d
00000260: 04ca 053d 34b1 71bd e637 dfbd 32e7 953c
00000270: 1ddc 08be 8537 ca3d fe0a 32bd eb63 393d
00000280: 85bd d7bd cbb9 503d 2241 7fbb 373b bdbc
00000290: 0876 94bd a94b ba3c 2f87 503d d740 27bb
000002a0: 6062 85bd 49fa 82bd 600a cb3b 8aad afbd
000002b0: 19a6 683d 8571 28bc 74a4 2e3c 8cfa b1bd
000002c0: 1834 24bd ff03 2ebb 3186 7f3d bd84 30bd
000002d0: 103d be3d caf0 0bbe 15e5 4ebd 5702 203d
000002e0: f1ba 803c 6c51 f2bd 687c f93c dc41 d0bd
000002f0: 35cc 673d 3709 8b3b dd36 02bc a2c0 1f3d
00000300: f6ea 7dbd d298 a03d 41bb 04bd 1995 bfbd
00000310: 5204 bfbd 5e45 06bd 4468 443d 3363 abbd
00000320: 1137 96bd fb48 cdbd 6292 24bd cfe8 453c
00000330: cc3c ed3b bdf6 41bd 5591 f1bd 29d6 b33d
00000340: a8d7 47bd 839a 7fbd 3b96 98bd 43bd 05bd
00000350: 590e 933d d23c c43c f3d6 2bbd c5d7 8b3c
00000360: 4168 f43d 597d d43a 6418 2dbd fed4 e33c
00000370: 711b 87bc 7298 c13c 4dfd 3ebd 493c 933c
00000380: 0483 2dbd 9426 44bd 92bc 413d c832 d73d
00000390: 5e88 babd b01a a0bd f491 803d f0b0 a03d
000003a0: 9b42 62bd cde8 85bd e5dd dd3d 8651 433d
000003b0: 3d39 ba3d c438 1ebc 7e2a 803d 0b34 cebb
000003c0: 516e b7bd 6927 80bd 739b 90bb a607 cbbd
000003d0: b2c7 e7bd b495 083b 813e 0abe 57b0 57bd
000003e0: 2268 aebd 73a1 4d3c d954 1c3d 8f7b 6a3d
000003f0: b8cc b93d 742c 81bd 0350 1c3c ad95 393c
-0.0642072 -0.08113123 0.071514085 0.056589317 -0.07280107 0.023356477 0.04445575 -0.072559424
-0.11646869 -0.013581819 0.07536368 0.028459797 -0.044992693 0.061591398 0.0787597 -0.08821994
-0.07589208 0.036729082 -0.0301447 -0.08447362 -0.03389328 -0.078690745 0.10253937 -0.030612102
-0.01041694 0.051902294 0.03784581 -0.025195224 0.026704716 -0.06335231 0.0742457 -0.028690059
-0.06303927 -0.039580263 0.019190716 0.01268529 0.03351109 0.050077517 0.04724292 0.04821744
0.03189062 -0.052915 -0.06287631 0.050082926 0.06468234 0.0611641 -0.053133205 -0.053487282
0.037809614 -0.034555428 -0.10204463 -0.011623513 -0.064050846 -0.02008229 -0.008408167 0.05627807
0.040998634 -0.099248886 -0.01490842 -0.114397906 0.053705223 -0.0062724813 -0.033978738 -0.02195234
0.05270873 -0.012381001 -0.10106905 -0.037638567 0.0014145991 0.016416315 -0.09792039 -0.068070106
0.0062064705 -0.05651237 0.063921735 -0.06334835 -0.06623942 -0.07634151 0.024142934 -0.04973238
0.013003009 -0.09575963 0.005666942 0.018191535 0.07434141 -0.017300518 -0.073890015 -0.029067466
-0.024211165 0.03599799 -0.10617701 0.017509496 -0.09385046 0.07954837 -0.0817322 0.0228863
0.0018395344 0.05930361 0.05836411 -0.018517762 0.0962778 -0.013185959 -0.03320379 -0.0262746
-0.00046813168 0.005088274 0.04932748 0.072012976 -0.07879041 -0.007275102 -0.078519 -0.07620019
-0.051997118 -0.05655196 -0.010037009 -0.012727562 0.04776426 -0.0011252715 0.044467133 0.015772248
-0.06659793 -0.019494116 0.019120082 0.0031015973 0.08505758 0.046594966 0.070423804 -0.09584719
0.0116715245 0.068281524 -0.027603075 0.013255566 -0.060666576 0.03824437 -0.047468536 -0.03867273
-0.09711894 -0.019809831 -0.094342165 -0.041889198 -0.06412562 -0.055413105 -0.034076937 0.028807439
-0.051773597 -0.09606778 0.014305835 0.030023577 0.0023293516 0.03779625 0.06032738 0.0647659
0.03266336 -0.059006885 -0.10899334 0.01829872 -0.13365217 0.09873871 -0.043467514 0.045261305
-0.10534195 0.050958436 -0.0038948734 -0.023099525 -0.07249075 0.022741156 0.05091017 -0.0025520825
-0.06512904 -0.06395394 0.006196305 -0.08578022 0.056799028 -0.010280971 0.010659326 -0.08690366
-0.040088743 -0.0026552675 0.062383834 -0.04309534 0.092889905 -0.13666072 -0.05051144 0.03906473
0.01571414 -0.11831936 0.03045483 -0.10168812 0.05659123 0.004243042 -0.007947651 0.03900207
-0.061991654 0.07841648 -0.03240514 -0.0935461 -0.09326996 -0.032780997 0.047950998 -0.0836853
-0.07334722 -0.100236855 -0.040178664 0.012079432 0.0072399136 -0.04735445 -0.11795298 0.08781082
-0.04878965 -0.062403213 -0.07450529 -0.032651197 0.07180471 0.023954783 -0.04195304 0.01707066
0.11933947 0.0016211673 -0.04225959 0.027811524 -0.016492577 0.023632262 -0.046628285 0.017973082
-0.042361274 -0.047888353 0.047298975 0.10507733 -0.09108041 -0.0781759 0.06277838 0.07846248
-0.0552393 -0.06538544 0.10833339 0.04768517 0.090929486 -0.009657089 0.06258105 -0.006292825
-0.08956588 -0.06257517 -0.0044130622 -0.09913568 -0.11317386 0.0020841183 -0.13500406 -0.052658405
-0.085159555 0.0125506995 0.038166855 0.05724674 0.0907225 -0.06307307 0.009540561 0.011327189

conv2.bias f4 [20]
00000000: 3978 98bd 6a1a abbd 4655 743c f805 4c3c
00000010: c46f 8cbc 606f 82bd b155 b4bd 6db2 0bbd
00000020: 87f9 6abd 4f38 85bc d693 3d3d 5a1f 023d
00000030: 9561 a6bc fe19 573c 8637 e4bb 033d b2bd
00000040: 3b35 c9bc 5918 95bd 234c 8fbd cc31 123c
-0.07444806 -0.083546475 0.014912909 0.012452595 -0.017143138 -0.06368899 -0.08805407 -0.034105707
-0.057366874 -0.016262202 0.046283565 0.03176818 -0.020310203 0.013128756 -0.0069646267 -0.08703043
-0.024561515 -0.072800346 -0.06996944 0.008923005

layer3.weight f4 [1, 66]
00000000: 3ac8 113d 5629 5abd 7382 23bd 98a4 f53c
00000010: 1df1 663c 5840 39bd 344a 433d 3960 6c3d
00000020: f427 98bc 2261 3b3c 8796 9dba 236e 20bc
00000030: 58c6 f1bc 0ae3 5f3d f4f1 c43c 27ad 803c
00000040: a64a 26bd fb8b d6bb ad0a 883d 7b2e 47bd
00000050: 9376 493c 3892 bf3d 5538 08bd 94a9 32bc
00000060: 5137 13bc 2ff4 0cbd af23 0e3d b293 31bc
00000070: 65ed 613d 4277 093d 02d2 503c 6503 ff3c
00000080: 867d 3f3d de73 cdbd 5534 d4bc 559b 883c
00000090: d2ab 053d f566 09bd af6b 38bd 981b 95bd
000000a0: b63f 42bd a2a5 0abd 1da4 623d 5a69 0639
000000b0: 6c75 c23b a631 8fbd 65b3 4b3d bd90 79bb
000000c0: 9e66 0a3b c990 b3bd c6b4 8e3d f8c8 05bd
000000d0: e704 22bd 2de9 aabb 0687 02bd 24dc 74bd
000000e0: 1abf 283c 320a 54bc 555a 3b3d 0a1a c83c
000000f0: 8700 2cba 42f5 24ba 9071 db39 ac74 423d
00000100: a52b db39 537f ecba
0.03559134 -0.053262077 -0.039919328 0.029985711 0.014095572 -0.04522738 0.047678187 0.057708953
-0.018573739 0.0114367325 -0.001202301 -0.009791884 -0.029513523 0.05465988 0.024041153 0.015707565
-0.040598534 -0.0065474487 0.06642661 -0.04862831 0.012296337 0.09354061 -0.033256847 -0.010904688
-0.008985356 -0.03441256 0.034702 -0.010838436 0.055158038 0.033561 0.012745382 0.031129548
0.046750568 -0.100318655 -0.02590386 0.01667563 0.032634564 -0.033545453 -0.04502457 -0.07280654
-0.04742404 -0.033849366 0.055332292 0.00012818482 0.005934408 -0.069918916 0.04973163 -0.0038080656
0.0021118294 -0.0876785 0.069680735 -0.03266236 -0.039555456 -0.005215785 -0.03186705 -0.059780255
0.010299468 -0.012941884 0.045740444 0.024426479 -0.0006561358 -0.000629265 0.00041855546 0.04747455
0.00041803453 -0.0018043317
