Ryan_ddpg-stock-trading-code/data/DDPGAgent-ddpg-20200501_16-47-32-model-PortfolioEnv.bin (torch_old, 21847 bytes, 10 tensors)

conv1.weight f4 [2, 4, 3, 1]
000000 75 af 59 be 6b 9b 15 be b3 04 c1 be 72 a8 6b 3e
       -0.21258338 -0.14610069 -0.37698898 0.23013476
000010 5c 4c 1b 3d 0e 4e 11 be 64 e0 1b be d0 20 9a be
       0.03791462 -0.14189932 -0.15222317 -0.3010316
000020 c6 0d 42 3e 49 c7 83 3c c9 d9 c0 3b a7 4d 0f 3e
       0.18950567 0.016086238 0.005885337 0.13994466
000030 7e 6c 42 bd da 1a b4 be 26 47 2b 3e b9 ed 8c 3e
       -0.047466747 -0.35176736 0.1672636 0.27525118
000040 53 76 cb bd c8 19 18 3e e2 6f fe 3d 2a 38 39 bd
       -0.09934678 0.14853585 0.12423684 -0.045219578
000050 c7 c0 a6 be 32 18 6d 3e fd 21 36 3e 97 c5 37 bd
       -0.32568952 0.23153761 0.17786403 -0.04486617

conv1.bias f4 [2]
000000 92 e8 ec 3d d9 f1 6f 3b
       0.11567797 0.0036612658

conv2.weight f4 [30, 2, 48, 1]
000000 16 3b ee bd f0 f9 bb bd 6c 2b 1f 3d 0a ef c5 bb
       -0.116323635 -0.09178531 0.03885977 -0.0060404586
000010 3e c2 58 3e 71 2b 28 3e 31 ad 62 3e 67 d0 a5 bd
       0.21167848 0.16422822 0.2213638 -0.0809639
000020 c4 98 14 3e 17 7a 79 3d b8 58 3f be 34 fc b9 3c
       0.145114 0.06090745 -0.18686187 0.022703268
000030 ca 87 36 3e ff 23 10 3e bf f4 4b 3d af 6b e0 bd
       0.17825237 0.14076231 0.049793955 -0.10958039
000040 08 61 5c 3c 9a 48 40 bb 85 ce 7b bd 7d 60 7b bd
       0.013450868 -0.002934015 -0.06147625 -0.061371315
000050 31 e5 47 be cb 13 6f 3d a9 4e 27 be 33 84 06 bd
       -0.19521023 0.058368485 -0.163386 -0.03284092
000060 b6 fe 75 3d 09 95 66 bd 3c e7 81 3c fd 45 32 3d
       0.060057364 -0.056294475 0.015857331 0.043523777
000070 0d d0 81 be a9 74 7e 3d 08 40 76 be 9e 1c 17 3e
       -0.25354043 0.062122975 -0.24047863 0.1475701
000080 59 ca 15 3e 79 a9 4f bd 2f 12 02 3c 85 c8 4c 3d
       0.14627971 -0.05069873 0.007938906 0.049995918
000090 a7 c3 73 be f1 09 c4 bc e2 e6 8f 3e fc d2 4d 3e
       -0.23805104 -0.023930522 0.28105837 0.20100015
0000a0 96 37 d3 3d d0 43 c0 3d d3 ff 17 be 74 6b 17 be
       0.103133366 0.09387934 -0.14843683 -0.14787084
0000b0 68 86 28 be 44 b3 77 3d 25 a7 1a be 12 d2 6a bd
       -0.16457522 0.060473695 -0.15102823 -0.057329245
0000c0 5c b2 91 be 72 8d 90 3e 03 d9 a4 bd 09 ca 5e 3c
       -0.2845639 0.28232914 -0.08049204 0.013597974
0000d0 73 b8 44 3e 01 9a b0 bd 34 df 37 3e 24 ad e1 bd
       0.19210987 -0.08623124 0.17956239 -0.11019352
0000e0 d6 74 21 3e 83 27 91 be ab f5 03 be dd 37 48 3d
       0.15767226 -0.28350458 -0.12886684 0.0488814
0000f0 9d b2 bf bd 86 94 6c 3e d0 1c 9a bd 96 bd a0 3d
       -0.0936024 0.23103532 -0.07525027 0.07848661
000100 98 48 08 3d 24 9c 60 bd ed 57 ee 3c 2b 3f 0a 3e
       0.033272356 -0.054836407 0.02909466 0.13500659
000110 85 ad 5e 3d a2 3f 98 3d bf 22 5b be a9 69 85 bd
       0.0543647 0.07434012 -0.21399973 -0.06514294
000120 9d bf 25 bc 2c 5e 4d be ff 77 9a 3d 53 1d 07 3d
       -0.010116485 -0.20055455 0.07542419 0.03298695
000130 ab f8 29 3d b1 1f 0d 3e 68 6f 06 be 3a b2 bc 3d
       0.041496914 0.1378162 -0.13128436 0.092136815
000140 b6 5d 86 be 97 e5 1c 3c f7 d1 15 3e b7 ec c5 3d
       -0.2624337 0.009576223 0.14630876 0.096642904
000150 93 1e 41 3c 37 38 a1 3b cc ae f5 bd 9a 8d 3b be
       0.011787075 0.0049200314 -0.119962305 -0.18315735
000160 ec ed 77 3d dc 67 0e 3d 36 ba 02 3e 9c 45 ba bd
       0.060529634 0.034767017 0.12766346 -0.09095308
000170 b5 e1 df 3d 63 f2 20 3e fd 9e a3 3c d9 02 25 be
       0.10931722 0.15717463 0.019973272 -0.16114368
000180 1a ef 20 3e 44 5c 24 3e c9 5a a6 3d 85 2b 9f 3d
       0.1571621 0.16050822 0.08122785 0.077719726
000190 1c c1 ac 3e 41 3b ed bd 7e 25 9c bd a7 47 06 be
       0.3374108 -0.115835674 -0.076243386 -0.1311327
0001a0 48 58 06 be d4 dc a3 bd 76 38 aa bd bd e0 41 bd
       -0.13119614 -0.08001104 -0.0831155 -0.047333468
0001b0 57 24 c9 bd ef 88 73 bc f9 d1 19 3e ff 75 e3 3d
       -0.098213844 -0.0148641905 0.15021504 0.1110649
0001c0 f9 21 8a 3e 6b 1a 39 bd ef 01 0f be 9f d0 f3 ba
       0.26979044 -0.04519121 -0.13965581 -0.0018601603
0001d0 60 79 77 bd 65 81 e7 bc b4 93 3d be 6e 1c 32 bd
       -0.060418487 -0.028259942 -0.18513376 -0.043484144
0001e0 40 15 84 3d 59 77 1e 3e 9a 6a a3 3d de a7 68 3e
       0.064493656 0.15475215 0.07979317 0.22720286
0001f0 a3 89 88 3e b3 eb ce bd 10 ba 1b 3d 8a c9 97 bd
       0.26667508 -0.1010355 0.03801924 -0.074114874
000200 57 fe 61 bd f2 90 84 3d 7f 0f 9f 3d 17 04 41 3d
       -0.055174198 0.064729586 0.077666275 0.04712304
000210 3c 88 11 3e fc 6d 41 3e c8 a3 00 be a3 13 8b ba
       0.14212126 0.18889612 -0.12562478 -0.0010610711
000220 39 13 af 3c ec 19 a4 bc 2c b9 78 be c8 77 a8 be
       0.02137147 -0.020031892 -0.24289387 -0.32903886
000230 c7 c6 86 3e af c7 c5 3d 80 7f af 3e 0f 2e 86 3e
       0.2632353 0.09657227 0.34276962 0.26207015
000240 95 88 72 3e b0 1e 32 be 3e 93 77 3c e8 86 aa 3c
       0.23684914 -0.17394519 0.015110789 0.020816281
000250 95 3c d0 bd ea 28 98 3d 10 8a 2c be 62 49 64 bd
       -0.10167805 0.07429679 -0.16849542 -0.055734046
000260 17 aa f1 3d 71 33 85 3d 45 6c 19 3c bb a2 f7 bc
       0.1180002 0.06503952 0.009364192 -0.030228963
000270 6f 8a 1d 3d 56 ab 5f be 0a c1 62 be 1b e2 9c bd
       0.0384621 -0.21842703 -0.22143951 -0.07660314
000280 ac fe ef 3c be fb bd bd 38 e5 e2 bc 29 6b 7f 3d
       0.029296242 -0.09276532 -0.02769719 0.062358055
000290 88 e1 23 3e 69 21 d4 bd 20 af df bd 42 3f 40 3e
       0.16004002 -0.10357935 -0.10922074 0.18774131
0002a0 e2 5e ee 3d 6c 45 83 be c3 44 78 3e d9 4a 40 3d
       0.11639191 -0.25638902 0.2424498 0.04694638
0002b0 a5 16 22 3d c6 25 be bd f9 e0 7c bb fe df 8f 3c
       0.039572377 -0.092845485 -0.0038586243 0.017562862
0002c0 33 3d 8d bd 89 f3 70 3d 4f 19 d7 3d b2 21 2f 3e
       -0.068964384 0.058826003 0.10502874 0.17102697
0002d0 24 10 bc bd 33 1b b9 bd 50 d3 39 3e 13 d8 d2 bc
       -0.09182766 -0.09038391 0.18147016 -0.025737798
0002e0 5e 09 40 bd 07 c5 2b bd 37 23 28 be 25 53 0b be
       -0.046883933 -0.041935947 -0.16419683 -0.13605936
0002f0 81 23 23 3e b3 78 1d bc 85 14 55 bd 63 21 36 3d
       0.15931512 -0.0096112965 -0.052021522 0.044465434
000300 b3 be 85 be db 78 4c 3e ec 52 91 3d ea 92 6f 3d
       -0.26122054 0.19967978 0.07095894 0.058489718
000310 5d 9a f4 3d fa 72 12 3e 9f e8 9c 3d d0 6b d5 bd
       0.11943505 0.14301673 0.076615565 -0.10420954
000320 ab 21 5a be 86 59 0c be 36 68 b0 be 0b 87 14 3d
       -0.21301906 -0.13706025 -0.34454507 0.0362616
000330 8f 95 86 3d 09 92 ff bd 72 b8 25 bc d2 0b 26 be
       0.06571495 -0.12479026 -0.010114776 -0.16215447
000340 98 61 0c 3d 92 14 43 3e f7 b3 95 3e 2f 4a d0 3d
       0.03427276 0.19050816 0.29238865 0.101703994
000350 d5 6e 3f 3d dc fa 2b be 8f 46 f5 bc 70 a1 3a 3e
       0.046736557 -0.16794914 -0.029940872 0.18225646
000360 97 aa 4a 3c 40 61 6f bb a3 2f c9 3d 92 b1 0a 3e
       0.012369773 -0.0036526471 0.09823539 0.135443
000370 29 4d 92 bd 27 56 8d 3d 9f ca a4 be bb d4 07 be
       -0.071436234 0.06901198 -0.32185838 -0.13264744
000380 e9 15 33 be 8b 62 13 bc c7 26 5f bd 45 d2 03 be
       -0.17488827 -0.008995662 -0.05448034 -0.1287318
000390 7a 22 86 bb 0a 8f 0f be 2e 1e 37 3e 7d 8a 0c be
       -0.0040934654 -0.14019409 0.17882606 -0.13724704
0003a0 ac 51 94 3d eb 43 8f 3d 4c 27 c6 bc 28 28 d5 3c
       0.0724214 0.06995376 -0.02418866 0.026020125
0003b0 13 f3 2d 3c ca 7b ed bd 2e 1b 4a be a9 62 2d bd
       0.010617035 -0.115958765 -0.1973693 -0.042330418
0003c0 eb a2 32 be 68 8a 25 be 23 a2 f1 3d 85 a5 a6 3d
       -0.17444961 -0.16166079 0.11798503 0.08137039
0003d0 c6 55 03 3e d5 e3 0d be dc 94 ab 3d 78 ab ea 3d
       0.12825689 -0.13856442 0.08378002 0.11458486
0003e0 37 2f c5 3d a8 c2 5c bd bf 1d fb 3d 79 fc 0b be
       0.09628146 -0.053896576 0.12261533 -0.1367053
0003f0 df da 82 3d a4 aa ba bd 78 70 f5 bc db 12 2c 3e
       0.063894026 -0.09114578 -0.029960856 0.16804068

conv2.bias f4 [30]
000000 39 8a e0 3d fa 1b 3f bd fa 85 dd 3d 5b 77 af 3c
       0.10963864 -0.04665754 0.108165696 0.021419218
000010 87 6c 12 3e d3 9f 22 3d 9b 08 2f bc c5 38 47 3e
       0.14299212 0.0397032 -0.010683204 0.1945525
000020 5e 4c 58 bd 61 5b 00 3d a4 86 a7 3d 92 59 fa bd
       -0.052807204 0.031337146 0.081799775 -0.122241154
000030 c0 3a 2b 3e 50 93 81 3d 0d af 50 3d 0e c5 4c bd
       0.1672163 0.06326926 0.05094819 -0.049992613
000040 ce f1 5d 3e 54 12 c1 bd 6b 73 c8 3d 34 75 c8 bd
       0.21674272 -0.09427324 0.09787639 -0.0978798
000050 ef 87 aa bd 7a ad b5 bb 04 71 e7 3d 02 f7 e1 3d
       -0.083267085 -0.0055443617 0.11300853 0.11033441
000060 07 a6 d3 3d 0e 9b a7 bd a5 e6 3e bd d6 97 03 3d
       0.103344016 -0.08183871 -0.04660668 0.032127224
000070 13 e6 0f be 81 b6 4e 3b
       -0.1405261 0.0031541886

conv3.weight f4 [1, 31, 1, 1]
000000 c5 5c b1 bc 6c 78 57 3e 46 b2 88 3e 63 00 52 3d
       -0.021650681 0.21042031 0.26698512 0.0512699
000010 7c 63 6f bd 3b 0e 87 be b0 c4 50 3d f6 f5 61 3d
       -0.058444485 -0.26378044 0.050968826 0.055166207
000020 40 cf 9d be b8 a0 de bc c1 8c 3b be a1 fe 45 b9
       -0.30822182 -0.027176246 -0.18315412 -0.0001888224
000030 e6 dc d4 3d 9b 6f ef 3c ea da 2b be 0a 34 4b bc
       0.103936955 0.029228022 -0.16782728 -0.012402544
000040 34 f6 97 3d dd 02 59 bb fe 55 2e be c6 1c ee 3d
       0.074200064 -0.003311328 -0.17024991 0.11626582
000050 14 ab 14 be 49 da 09 bd 6a f4 4a bd a2 08 1e be
       -0.14518386 -0.03365544 -0.049549498 -0.1543298
000060 a9 a1 6a 3e 25 c8 04 be e6 33 5d 3e 07 31 9b be
       0.22913231 -0.12966974 0.21601829 -0.30310842
000070 39 1f eb 3d e2 47 33 3e 24 b1 09 be
       0.114805646 0.1750789 -0.1344648

conv1.weight f4 [2, 4, 3, 1]
000000 fa 35 84 3e 00 d3 8c bb ac 74 78 3e c5 9c 40 be
       0.2582243 -0.004297614 0.24263257 -0.18809803
000010 1a 03 4c be 8c 88 8d 3e 40 17 7e 3e 26 87 72 be
       -0.19923058 0.2764324 0.24813557 -0.23684368
000020 51 f4 20 be 66 a7 1e 3e 48 a0 11 be 92 2e e8 bd
       -0.157182 0.15493545 -0.14221299 -0.113370076
000030 22 ad 0c 3e 04 a8 ec 3d ad 44 09 be 80 80 84 3e
       0.1373792 0.11555484 -0.13405104 0.25879288
000040 f4 59 4d 3e 95 8a 24 be c0 46 af bb e9 6a 81 be
       0.20053846 -0.1606849 -0.00534901 -0.25276878
000050 0c f3 cb bd e0 5a 41 3e 4b 81 1c be ad 6d 6c be
       -0.09958467 0.18882322 -0.15283696 -0.23088713

conv1.bias f4 [2]
000000 84 6c 88 3e c0 c2 29 be
       0.2664529 -0.16578197

conv2.weight f4 [20, 2, 48, 1]
000000 44 d2 be 3d f0 72 9a bd a6 e1 6d bd bc ed 04 3d
       0.09317449 -0.07541454 -0.058076523 0.032453284
000010 8b 33 cf bd 4c 65 00 bd f0 97 c8 3b 50 d3 79 bd
       -0.10117253 -0.031346604 0.006121628 -0.06099254
000020 89 d3 c5 bd 80 51 b3 3c 47 02 ad bd 00 d9 fe b9
       -0.09659488 0.021889448 -0.084477 -0.00048608333
000030 da d1 9f 3d 60 0d a2 bd ca b0 83 3d af 0b c1 bd
       0.07803698 -0.07912707 0.06430204 -0.094260566
000040 fe cf 90 3d e6 6d c8 3d 34 cb b8 3c 7c be 71 3d
       0.07070921 0.097865865 0.022557832 0.05901955
000050 9e 31 1e bd a8 b1 c9 3d f2 94 9c 3d e0 28 7a 3d
       -0.038621537 0.09848338 0.076455966 0.061074138
000060 00 46 6e 3d 90 88 56 3d d8 75 8f 3d d4 66 1f 3d
       0.058172226 0.05237633 0.07004899 0.038916424
000070 3a 06 90 3d 40 27 cf 3b 40 c6 97 3d 48 44 8d bd
       0.070324376 0.0063218176 0.0741086 -0.06897789
000080 80 53 e5 3c f3 2c 28 bd 50 76 42 3c 24 3f 20 3d
       0.027993917 -0.041058492 0.011869028 0.039122716
000090 94 c8 e2 bc cc 92 99 bc f4 41 a4 3d 74 bc 84 bd
       -0.027683534 -0.018746756 0.08020392 -0.06481257
0000a0 74 fe cb bc 70 6d 8f 3c e0 db b7 3d 40 73 2a bc
       -0.024901606 0.017508239 0.08977485 -0.010403454
0000b0 b0 0a cf bd 04 2b 2f 3d a2 a9 9a 3d 1c 2f 36 3d
       -0.1010946 0.042765632 0.07551886 0.04447852
0000c0 b0 fa 97 bb 3c 4e 0b 3d ec 5f ad bd 88 04 c6 3d
       -0.0046380386 0.034010157 -0.08465561 0.09668833
0000d0 48 8e 16 3d 14 5f c6 bd 62 a1 1c bd 6a 74 57 bd
       0.036756784 -0.096861035 -0.038239844 -0.052601255
0000e0 a8 d3 a1 3d c7 d7 97 bd 99 a4 b7 bd f0 f8 17 bd
       0.07901698 -0.07414203 -0.089669414 -0.03710264
0000f0 38 a0 66 3c 69 7b 42 bd d0 19 27 3d 90 2d 93 bd
       0.014076285 -0.047480974 0.0407961 -0.07186425
000100 ac d9 b7 bc 9c 85 7a 3d 94 37 c8 3d b4 fe f4 bc
       -0.022442661 0.061162576 0.09776226 -0.029906608
000110 80 99 6b 3d d8 56 03 bd a0 42 1f bd 40 af 48 3d
       0.057519436 -0.032065243 -0.038881898 0.048995256
000120 8c c5 20 3d 64 86 8b 3d e6 0d 94 bd f4 e1 c2 bd
       0.039250895 0.06812742 -0.072292134 -0.095157534
000130 31 ae c1 bd 28 29 1f 3d a0 24 f2 3b b0 4c 08 3d
       -0.094570525 0.03885761 0.00738962 0.03327626
000140 00 f0 69 3c 4c a7 94 3d a8 06 34 3d b4 2a 3a bd
       0.014278412 0.07258472 0.04395166 -0.04545088
000150 20 3c 5e 3d 3a 6f 8e 3d ec e7 cb 3d 98 cd d0 3d
       0.05425656 0.069548085 0.09956345 0.10195464
000160 84 5f bb 3d a0 2b 4a 3c 7a 74 9b 3d 08 33 8a bc
       0.091490775 0.012339503 0.075905755 -0.016870037
000170 40 05 16 3d 60 41 c4 bb 96 2c 98 bd 4c 2d cb bd
       0.0366261 -0.0059892386 -0.07430379 -0.09920749
000180 0a 88 ab 3d d8 d8 17 3c 30 d8 1c bc 76 63 8c bd
       0.08375557 0.009268008 -0.0095730275 -0.06854908
000190 17 3d 42 bd 26 0a b0 bd 58 3f b1 bd 00 0d 11 bc
       -0.04742154 -0.08595686 -0.0865466 -0.008853197
0001a0 d0 88 28 bc 68 30 5d 3d e8 48 2d 3d 00 b7 bc 3a
       -0.010286525 0.054001242 0.042305857 0.00143978
0001b0 70 91 ee 3b 60 48 01 bc 82 ee ac 3d a8 1c 37 3d
       0.007280521 -0.007890791 0.08443929 0.044705063
0001c0 0a 8c 21 bd 6c 60 ce bd e8 31 af 3d 4e 09 c3 bd
       -0.039440192 -0.10076985 0.08554441 -0.09523259
0001d0 77 14 5b bd 94 22 5d 3d 3c bc 72 3d 4c 4c 5d bd
       -0.053486314 0.053988054 0.059261546 -0.05402784
0001e0 3d a8 71 bd 80 1d 48 3b 27 a7 64 bd 88 da 4f 3d
       -0.058998335 0.0030535161 -0.05582347 0.050745517
0001f0 3c 04 2e bd 3d 22 9a bd 3e 5a c4 bd e2 0e 92 bd
       -0.042484507 -0.07526062 -0.09587525 -0.07131745
000200 30 60 c1 3b ce e8 90 3d 1c ce 9c 3d d0 d1 c7 3c
       0.005901359 0.07075654 0.076565 0.024392039
000210 84 02 6d bd 52 f5 9c 3d 08 aa 91 bd dc c1 be bd
       -0.057863727 0.07663979 -0.07112509 -0.093143195
000220 cd e6 57 bd d2 a5 ac 3d 4c e1 64 3d 10 b8 31 3d
       -0.052710343 0.08430065 0.055878922 0.043388426
000230 1a 5e 8d bd 55 92 7f bd 00 dc 57 3d c0 f9 c1 bd
       -0.06902714 -0.062395412 0.052700043 -0.09471464
000240 22 5c 85 bd f2 2d cc 3d ab 04 6d bd 30 f2 1f 3d
       -0.065117136 0.09969701 -0.05786578 0.039049327
000250 20 33 fc 3b 8f 58 a2 bd 6a 3d 5b bd 5b fa d0 bd
       0.0076965243 -0.079270475 -0.053525366 -0.102040015
000260 50 93 65 bc 76 88 b6 3d e4 c7 2d 3d 3e a5 71 bd
       -0.014012173 0.089127466 0.04242696 -0.058995478
000270 ee 7a 2f bd de 7d a2 3d 38 3f 92 3d e8 4a 26 3c
       -0.042841844 0.079341635 0.07140964 0.010149695
000280 10 0d cb 3c a0 6d 29 3c e8 9e 57 3c 38 fe 86 bc
       0.024786502 0.010341078 0.013160445 -0.016478643
000290 e4 65 16 3d e0 a8 96 bb f0 d0 c5 bb 30 0d 45 bc
       0.036718264 -0.004597768 -0.00603687 -0.01202707
0002a0 80 40 aa 3a 06 54 8a 3d 5a 71 8e bd a2 db b4 3d
       0.0012989193 0.067543074 -0.06955214 0.08830954
0002b0 24 81 98 3c e4 04 4b bd 50 6f df 3c f4 1b b4 bc
       0.018616267 -0.04956521 0.027274758 -0.021985985
0002c0 ec 15 44 3d 8c f7 06 3d 9d 96 98 bd d8 4b 1a 3d
       0.04787247 0.032950923 -0.07450602 0.037669986
0002d0 a8 de 79 bc 45 99 2a bd 0c a1 ab bd 5a 2f 9a 3d
       -0.015250839 -0.041650075 -0.08380327 0.07528563
0002e0 78 1d 3b bd b4 06 9c bd 70 c5 a4 bc 74 b0 83 3d
       -0.0456824 -0.07618466 -0.020113677 0.0643014
0002f0 58 14 fb bc ec c3 ba bc 1e 93 92 3d b8 07 97 bd
       -0.03064935 -0.022798501 0.071569666 -0.07374519
000300 32 18 2b bd ed 7e c2 bd 86 29 a9 3d 84 e6 44 3d
       -0.04177112 -0.094968654 0.08259873 0.0480714
000310 18 7b 99 bd 68 e8 d7 3c 14 aa 02 bd 18 2f 7b 3d
       -0.074941814 0.026355937 -0.03190048 0.06132421
000320 60 b2 20 bb c2 d1 42 bd 58 88 52 3c c1 5b 57 bd
       -0.0024520382 -0.047563322 0.01284989 -0.052577738
000330 04 df 1c bd 83 51 cf bd 74 9c b7 3c 30 06 76 3c
       -0.03829862 -0.10122969 0.02241347 0.015016124
000340 34 93 70 3d 58 07 cd bc d5 f1 58 bd de bc 86 bd
       0.058734134 -0.025027916 -0.052965004 -0.06578992
000350 1e ad 97 bd 38 f8 b9 bd d4 24 e3 bc f7 44 93 bd
       -0.07406066 -0.09080547 -0.027727522 -0.071908884
000360 a4 74 b3 3c 92 fd a4 3d 50 93 2c 3d 1e e2 af 3d
       0.021906205 0.08056177 0.042132676 0.0858805
000370 d8 40 95 bd 1a dc cf 3d 1c 87 bf bc 17 12 7f bd
       -0.072877586 0.10149403 -0.023379855 -0.06227311
000380 ae 03 a1 3d 28 9a 55 3d 65 62 30 bd c2 51 cd bd
       0.0786203 0.052148968 -0.043062586 -0.1002536
000390 27 2e 6b bd 10 18 89 bc 0c c9 88 bd 55 34 5b bd
       -0.05741706 -0.016735107 -0.06678972 -0.053516705
0003a0 d8 26 d0 bc 78 61 91 bc e0 d1 50 bc 18 00 3c bc
       -0.025409147 -0.017746672 -0.012745351 -0.011474632
0003b0 40 bb 05 3d bc 7d cd bd ee e6 95 3d 2c f7 af bc
       0.03264928 -0.100337476 0.07319437 -0.021480165
0003c0 d8 42 04 3d 6b bc c0 bd e0 54 b3 bb 5c 72 3b bd
       0.03229031 -0.09410938 -0.0054727644 -0.04576336
0003d0 7e f1 97 3d 7c 43 c6 3d 18 e7 3f bd 30 44 54 bc
       0.07419108 0.096808404 -0.046851248 -0.01295571
0003e0 00 a5 65 3b a9 62 55 bd 48 42 70 bc f2 88 93 bd
       0.0035040975 -0.052096043 -0.01466424 -0.072038546
0003f0 b8 43 db 3c d6 df 83 3d 5b ff aa bd d4 dd 80 bc
       0.02676569 0.06439178 -0.083494864 -0.015730776

conv2.bias f4 [20]
000000 fc 14 c7 3d 9c c5 22 bd 66 27 2d bd 94 14 2b 3d
       0.09720799 -0.039739236 -0.0422739 0.04176767
000010 98 a4 32 3c a0 d2 51 3d c3 66 57 bd 48 79 54 3c
       0.0109035 0.05122626 -0.052588236 0.012968369
000020 38 c2 99 bd 6c 90 88 bc 47 78 6e bd 00 ae e8 ba
       -0.075077474 -0.016670428 -0.058220174 -0.0017752051
000030 d4 4f ba bc 30 b3 b8 3d 64 5f 8d 3d 94 1b bf bc
       -0.022743143 0.09018552 0.0690296 -0.02332858
000040 16 22 bc bd 9f 0e 4d bd a0 ea ca 3d 31 8a 97 bd
       -0.09186189 -0.050062772 0.099080324 -0.07399405

layer3.weight f4 [1, 66]
000000 a0 9e 77 bd c4 5e 82 3d 80 42 81 3b bc 4a 77 bd
       -0.06045401 0.06365731 0.003944695 -0.060374007
000010 70 2e e1 bb 26 5e b2 3d 60 e9 49 3d 06 49 c3 bd
       -0.006871991 0.08709364 0.04929483 -0.095354125
000020 c8 25 c7 bd cc 25 ee bc de 40 c9 3d 22 e3 a3 3d
       -0.09724003 -0.029070757 0.098268256 0.080023065
000030 d3 61 d7 bd b6 81 a5 bd 45 4a b2 bd c0 77 42 bd
       -0.10516705 -0.08081381 -0.08705572 -0.047477484
000040 20 bf 14 3c c0 ab af 3a 38 ba c0 3c 68 94 d4 bc
       0.009078771 0.0013402626 0.023526296 -0.025949672
000050 e0 21 30 3c 80 f5 dd 3c 7a 82 a7 bd 37 00 b5 bd
       0.010750264 0.027094603 -0.08179183 -0.088379316
000060 98 a8 d1 3c dc ea 48 3d d8 6b e7 3d 8a 05 84 bd
       0.025593087 0.049052104 0.112998664 -0.06446369
000070 00 66 d2 3c 42 33 4f bd e4 85 62 bd 94 e1 6f 3d
       0.025683403 -0.050585993 -0.05530347 0.058564737
000080 e6 c4 c0 3d e4 ca 81 bc cf e1 c9 bd fc a0 ac 3d
       0.094125554 -0.015843816 -0.09857523 0.08429143
000090 44 54 54 3d 9c ec 9c bd 34 92 b2 bd 05 e3 e4 bd
       0.051838174 -0.07662317 -0.08719292 -0.11176113
0000a0 0c f3 4b 3d 13 53 ed bd b4 44 ca 3d 44 5c 38 bd
       0.049792334 -0.11588111 0.09876385 -0.045009866
0000b0 68 b1 ed 3c 64 79 9e bd 02 9f d3 3d d8 8f bb bd
       0.029015258 -0.07737997 0.10333063 -0.091582954
0000c0 14 6d 6b 3d 52 fa c5 bd 74 58 d9 3d fa 30 bf 3d
       0.057477072 -0.096668854 0.10612574 0.093355134
0000d0 44 58 fb bc da 5b a1 bd 80 13 d7 bc 6f ef ea bd
       -0.030681737 -0.078788474 -0.026254416 -0.114714496
0000e0 78 ce 7b bc 62 bb ea 3d 04 d7 3e bd 18 6a ed bd
       -0.01536905 0.11461522 -0.046591774 -0.115925014
0000f0 86 a9 d8 3d 00 8b a7 ba 18 68 2d 3d 28 3f 51 3d
       0.10579209 -0.0012782514 0.0423356 0.05108562
000100 ea 75 e1 3d 32 29 95 3d
       0.110088184 0.07283248
