Ryan_ddpg-stock-trading-code/data/DDPGAgent-ddpg-20200502_00-32-15-model-PortfolioEnv.bin (torch_old, 21847 bytes, 10 tensors)

conv1.weight f4 [2, 4, 3, 1]
0.2026935 0.17306079 0.24023919 0.35458326 -0.0104298815 0.1485393 -0.0021294805 0.23299624
-0.020364407 0.04612886 -0.08276809 -0.04761757 -0.0060784146 -0.27647713 0.08973217 -0.35613683
-0.3742901 -0.09671104 -0.20193157 -0.16473265 -0.099810116 0.15889454 -0.19527166 0.036600843
00000000: e38e 4f3e d936 313e 4301 763e f08b b53e
00000010: 18e2 2abc b01a 183e c18e 0bbb 9196 6e3e
00000020: 42d3 a6bc 9ef1 3c3d 5182 a9bd a40a 43bd
00000030: 702d c7bb 698e 8dbe 80c5 b73d 9157 b6be
00000040: f4a2 bfbe 7010 c6bd 26c7 4ebe adaf 28be
00000050: 3f69 ccbd 40b5 223e 4bf5 47be c4ea 153d

conv1.bias f4 [2]
-0.14161082 0.056621715
00000000: 6d02 11be 2cec 673d

conv2.weight f4 [30, 2, 48, 1]
0.10576941 0.062193476 0.14463003 0.16608569 0.046293512 0.112288184 0.061570063 -0.00050888996
0.009955808 0.029950885 0.19866697 0.10445489 0.055048894 0.11010944 0.1668616 0.06407291
0.123166524 0.045162592 0.19522786 0.16336276 0.163567 0.11499548 0.01493716 0.057873994
0.14427397 0.18611374 0.20081176 0.14331834 0.051497556 0.12297677 0.17903832 0.15265693
0.03877667 0.09896161 0.11257193 0.030072035 0.1379119 0.077529356 0.11026126 0.034802467
0.15444987 0.034366906 0.18379374 0.044073444 0.13239324 -0.005943537 0.18268442 0.14759658
0.022151954 0.10697025 0.01595287 0.13727106 0.055933733 0.017192056 0.053706504 0.02875948
0.049893085 0.16006652 0.10574466 0.14455135 0.08463827 0.0018716414 0.032453433 0.026619684
0.10208094 0.003463284 0.13602062 0.112431355 0.0415347 0.08865246 0.15091784 0.14751406
0.033598896 0.07076181 0.09531232 0.033933 0.17853567 0.1789975 0.018762868 0.16807042
-0.0073902407 0.06551001 0.10412727 0.11979061 -0.018354889 0.010675636 0.05204512 0.17636898
-0.0010578661 0.05813438 0.14043623 0.048915543 0.10738713 0.099466 0.0745295 0.053392615
0.059318013 0.075940795 0.08346948 0.041417245 0.15447068 0.15774786 0.006795236 0.08506446
0.00614012 0.100545935 0.110496484 0.17487277 0.068233006 -0.009891191 0.024388522 0.12882562
-0.010650933 0.008909913 0.07788524 0.015491544 0.18104608 0.17275754 0.017432494 0.17114207
0.14709136 0.1579034 0.02762454 0.07429051 0.06350124 0.1779535 0.1505456 0.1663699
0.11895683 0.14018925 0.06277704 -0.008136012 0.1125221 0.16364147 0.006999583 -0.008176545
0.04423727 0.057943538 0.17390972 0.08156762 0.16221742 0.14646384 0.12509692 0.053048674
0.13850036 0.107432574 -0.032468963 0.098525524 0.08499168 0.09369064 -0.04155743 0.045305964
-0.035020065 0.019148968 0.05199013 0.035916544 0.047678404 0.064351566 0.08431083 0.10786258
-0.0063011204 0.14619942 0.00048862485 0.052314125 0.042133585 0.009838044 0.05455494 0.15725783
0.13185413 0.11462984 0.10901999 0.001148279 0.05203887 0.07482065 0.13226406 0.009084018
0.0018768839 0.036428243 0.019487666 0.08095971 0.053150438 0.13317093 0.08869365 0.14073984
0.12494263 0.030202202 0.0006076781 0.12427363 0.12220702 0.05743431 0.10960781 0.0071523264
-0.010617069 -0.100061156 -0.11193009 0.040887207 0.0652157 0.0046918634 0.035751443 -0.041922897
0.06165823 0.06701049 -0.06442764 -0.044552002 -0.08107959 0.040311873 -0.028213093 -0.0046371664
0.06520232 -0.025948044 -0.10783328 -0.07788139 -0.042419914 0.047023267 0.07638145 -0.075275384
-0.12318729 -0.035367712 0.05107999 -0.04994785 -0.010246071 -0.101501636 -0.07829966 -0.05821233
-0.09446348 0.010893193 -0.0070768837 -0.018500634 -0.05238069 -0.08362715 0.043979734 -0.01538205
0.07638603 0.07018996 -0.10827251 0.0143236425 -0.08361179 0.042130917 0.07402339 -0.025039578
0.013622298 -0.004005255 -0.09498778 -0.04797159 -0.08936302 0.08701346 -0.0065346817 -0.07018981
0.07125122 -0.011408013 -0.07404744 -0.031433664 -0.0075709736 -0.018296812 0.012870783 -0.014561336
00000000: a29d d83d 96be 7e3d e519 143e 5e12 2a3e
00000010: 449e 3d3d 59f7 e53d e430 7c3d 0767 05ba
00000020: af1d 233c 8f5b f53c 5b6f 4b3e 72ec d53d
00000030: f37a 613d 0f81 e13d c4dd 2a3e a838 833d
00000040: bb3e fc3d 69fc 383d d0e9 473e 9148 273e
00000050: 1c7e 273e c082 eb3d fdba 743c 480d 6d3d
00000060: 8ebc 133e 9a94 3e3e 99a1 4d3e 0bc2 123e
00000070: 1aef 523d 3fdb fb3d d255 373e 1952 1c3e
00000080: 49d4 1e3d 62ac ca3d 1d8c e63d a159 f63c
00000090: c738 0d3e b6c7 9e3d a8d0 e13d 088d 0e3d
000000a0: 1b28 1e3e 50c4 0c3d 6d34 3c3e 5b86 343d
000000b0: 1892 073e 01c2 c2bb a011 3b3e 8f23 173e
000000c0: 0478 b53c 3813 db3d 98af 823c c990 0c3e
000000d0: c51a 653d 5bd6 8c3c 5afb 5b3d 0099 eb3c
000000e0: b15c 4c3d 7ae8 233e a890 d83d 4505 143e
000000f0: d456 ad3d dd51 f53a e4ed 043d 8611 da3c
00000100: d00f d13d 44f8 623b fd48 0b3e 6942 e63d
00000110: 4a20 2a3d 6c8f b53d 358a 1a3e ed0d 173e
00000120: ff9e 093d 91eb 903d 1b33 c33d 54fd 0a3d
00000130: 0ed2 363e 1f4b 373e 96b4 993c a71a 2c3e
00000140: d529 f2bb 1d2a 863d ae40 d53d c854 f53d
00000150: fe5c 96bc dde8 2e3c 442d 553d 129a 343e
00000160: 19a8 8aba 511e 6e3d 84ce 0f3e aa5b 483d
00000170: c9ed db3d d5b4 cb3d eca2 983d 37b2 5a3d
00000180: 72f7 723d d986 9b3d 0cf2 aa3d 21a5 293d
00000190: 902d 1e3e a888 213e 92aa de3b 4736 ae3d
000001a0: 0f33 c93b 07eb cd3d fb4b e23d d911 333e
000001b0: bfbd 8b3d a90e 22bc 70ca c73c ddea 033e
000001c0: 4081 2ebc e2fa 113c 4c82 9f3d 3fd0 7d3c
000001d0: 2564 393e 5ae7 303e 97ce 8e3c de3f 2f3e
000001e0: 1e9f 163e 6eb1 213e dc4c e23c 9f25 983d
000001f0: f00c 823d 7139 363e a028 1a3e df5c 2a3e
00000200: a39f f33d c58d 0f3e 4091 803d e84c 05bc
00000210: fd71 e63d a191 273e c25c e53b eaf6 05bc
00000220: 2432 353d 3456 6d3d 6415 323e ed0c a73d
00000230: 531c 263e 9efa 153e 6819 003e 9149 593d
00000240: 0ad3 0d3e 9c05 dc3d 2dfe 04bd c0c7 c93d
00000250: 1e10 ae3d e1e0 bf3d 2038 2abd bf92 393d
00000260: 3371 0fbd 4cde 9c3c 9af3 543d 3a1d 133d
00000270: 6e4a 433d c1ca 833d 28ab ac3d 0ee7 dc3d
00000280: a179 cebb 4db5 153e 0f17 003a 5647 563d
00000290: 4494 2c3d bf2f 213c 0075 5f3d 3208 213e
000002a0: c504 073e 0dc3 ea3d df45 df3d da81 963a
000002b0: b626 553d 923b 993d 3b70 073e 22d5 143c
000002c0: c601 f63a c835 153d 99a4 9f3c 34ce a53d
000002d0: 46b4 593d f65d 083e 04a5 b53d 1b1e 103e
000002e0: ece1 ff3d 9c6a f73c 964c 1f3a 2c83 fe3d
000002f0: ad47 fa3d 3d40 6b3d 0f7a e03d 105e ea3b
00000300: 37f3 2dbc ddec ccbd 9a3b e5bd 5879 273d
00000310: cf8f 853d 34be 993b 1b70 123d 58b7 2bbd
00000320: 578d 7c3d cc3c 893d a3f2 83bd 297c 36bd
00000330: 0e0d a6bd 101e 253d 251f e7bc 5ff3 97bb
00000340: cb88 853d fe90 d4bc b2d7 dcbd 4780 9fbd
00000350: 81c0 2dbd 789b 403d e16d 9c3d fb29 9abd
00000360: 9e49 fcbd bcdd 10bd 4039 513d 1e96 4cbd
00000370: 23df 27bc 17e0 cfbd 925b a0bd 0d70 6ebd
00000380: 1276 c1bd 5d79 323c 34e5 e7bb a48e 97bc
00000390: 228d 56bd b644 abbd 1824 343d fe04 7cbc
000003a0: 4770 9c3d c1bf 8f3d fabd ddbd b6ad 6a3c
000003b0: a83c abbd 7891 2c3d 9399 973d cd1f cdbc
000003c0: 0f30 5f3c 843e 83bb f488 c2bd dc7d 44bd
000003d0: f603 b7bd 1d34 b23d e220 d6bb adbf 8fbd
000003e0: 29ec 913d ade8 3abc 2fa6 97bd 96c0 00bd
000003f0: ee15 f8bb 32e3 95bc fadf 523c ab92 6ebc

conv2.bias f4 [30]
0.1400465 0.07397862 0.008717527 0.08710967 -0.026433855 0.09749489 -0.009872449 0.022358147
-0.06369691 0.10485035 -0.09204711 0.09841224 0.13365872 0.08115157 0.02705302 0.11629137
0.077783056 0.115224116 0.1640908 0.122531235 0.070241235 0.053894144 0.08870334 0.17622167
0.032631595 0.09149446 0.007879157 0.042251628 -0.07542811 0.11126875
00000000: 5a68 0f3e 1a82 973d f5d3 0e3c 8e66 b23d
00000010: d08b d8bc 67ab c73d 0dc0 21bc 6f28 b73c
00000020: 8773 82bd c8bb d63d 3283 bcbd 5b8c c93d
00000030: d5dd 083e cb32 a63d 4c9e dd3c 2b2a ee3d
00000040: b94c 9f3d 9ffa eb3d 6b07 283e a8f1 fa3d
00000050: a3da 8f3d 1bc0 5c3d 19aa b53d 7473 343e
00000060: b5a8 053d 7361 bb3d 9417 013c 0b10 2d3d
00000070: 0e7a 9abd dfe0 e33d

conv3.weight f4 [1, 31, 1, 1]
-0.110499404 -0.083088964 0.047408506 -0.19387618 0.04018173 -0.19773689 -0.10695079 0.14755446
0.029858679 -0.16519193 0.06839803 -0.14245816 -0.10238745 -0.23058112 0.14943317 -0.26272273
-0.16878855 -0.27938995 -0.09426506 -0.26450914 0.14002956 0.027836936 -0.21252489 -0.1094008
-0.11089621 -0.12082547 -0.14798988 -0.22604193 -0.06460447 -0.24452296 -0.017863372
00000000: 834d e2bd 8c2a aabd 6c2f 423d 7a87 46be
00000010: 9995 243d 8a7b 4abe 0409 dbbd 8418 173e
00000020: 309a f43c 1328 29be 4414 8c3d 8de0 11be
00000030: 83b0 d1bd 751d 6cbe 0205 193e 9883 86be
00000040: e8d6 2cbe 330c 8fbe 0a0e c1bd be6d 87be
00000050: e963 0f3e 490a e43c 20a0 59be 870d e0bd
00000060: 8d1d e3bd 5873 f7bd a98a 17be 8977 67be
00000070: 594f 84bd 3a64 7abe 3556 92bc

conv1.weight f4 [2, 4, 3, 1]
-8.348344e-11 -9.967514e-11 -2.335571e-11 2.4103958e-11 -1.6152442e-11 -1.9181859e-12 2.0045224e-11 -2.816724e-11
-1.2014205e-12 -3.3970923e-11 -1.3302137e-10 -1.2562766e-10 -4.07785e-11 -5.561684e-11 -2.0415118e-11 4.868273e-11
2.337362e-11 1.5462851e-11 9.131459e-11 5.0417528e-11 2.7713425e-11 -1.846134e-11 -6.538594e-11 -7.1512865e-11
00000000: 0095 b7ae 1e30 dbae 6270 cdad 4a05 d42d
00000010: 1114 8ead f7fa 06ac d551 b02d fcc2 f7ad
00000020: bc15 a9ab dc67 15ae 3042 12af 0b21 0aaf
00000030: 8258 33ae ff9a 74ae c292 b3ad e21b 562e
00000040: b798 cd2d 3f03 882d 8bcd c82e 17bd 5d2e
00000050: 16c5 f32d 3e63 a2ad 03c9 8fae 2a42 9dae

conv1.bias f4 [2]
-1.3465521e-17 1.331187e-17
00000000: 2065 78a3 878f 7523

conv2.weight f4 [20, 2, 48, 1]
-1.206173e-39 6.99972e-40 3.05548e-40 9.59e-40 7.36522e-40 1.210507e-39 9.53609e-40 -1.0983e-41
-9.03185e-40 -2.99654e-40 -7.25107e-40 -7.36232e-40 -1.315425e-39 -1.59653e-40 -3.41279e-40 1.299134e-39
1.147442e-39 6.2617e-41 -7.71104e-40 -9.62096e-40 1.009755e-39 4.39869e-40 3.24881e-40 1.009563e-39
5.03052e-40 9.9247e-40 4.1757e-40 -8.54044e-40 -6.97593e-40 -1.252716e-39 -7.88093e-40 -7.23447e-40
-5.3975e-40 -8.8111e-41 -4.93682e-40 1.327662e-39 -8.55e-42 -9.54378e-40 3.6916e-41 -4.79488e-40
-4.48694e-40 -3.1131e-41 -1.95299e-40 -6.88545e-40 1.54396e-40 1.37477e-39 4.66852e-40 -7.5114e-41
-1.79995e-40 -4.90816e-40 6.71211e-40 6.98395e-40 -4.6113e-41 3.82256e-40 3.2967e-41 -1.097926e-39
-1.080524e-39 8.00751e-40 -4.95599e-40 -1.326562e-39 -1.003473e-39 1.17242e-40 1.092925e-39 -8.21723e-40
-8.28e-40 6.23865e-40 -1.199856e-39 -1.62298e-40 -3.78856e-40 5.70509e-40 7.22931e-40 1.125817e-39
2.44777e-40 1.011794e-39 -1.85034e-40 -5.22006e-40 8.23168e-40 1.237082e-39 -4.56743e-40 -9.0035e-41
-2.46075e-40 4.11481e-40 1.08133e-40 -3.73547e-40 -8.51545e-40 6.03975e-40 -2.61e-42 -3.19312e-40
3.56346e-40 -1.297123e-39 -4.40533e-40 6.24462e-40 -6.44625e-40 -6.34406e-40 -4.4342e-40 5.87518e-40
7.05342e-32 -2.503676e-32 3.9326352e-32 1.5102925e-31 5.9679613e-33 -3.136078e-32 1.1589937e-31 1.114766e-31
1.0932603e-31 6.271014e-31 6.307898e-31 7.6427916e-31 6.2012114e-31 5.404576e-31 5.6850955e-31 8.687017e-31
2.5548363e-30 3.7749314e-30 5.523766e-30 6.517679e-30 6.171446e-30 6.530246e-30 7.489328e-30 7.592793e-30
8.122979e-30 1.0466364e-29 1.1998008e-29 1.1739392e-29 1.258658e-29 1.4272689e-29 1.6273329e-29 1.6575423e-29
1.6459897e-29 9.162885e-30 2.6714845e-30 -3.948969e-30 -3.0691537e-30 -4.6114316e-30 -1.5672714e-30 -9.236188e-30
-1.2940713e-29 -1.01425444e-29 -1.510485e-30 1.5056172e-30 5.5169046e-30 2.6093526e-30 4.0168214e-30 -4.674417e-30
5.450593e-32 1.1326107e-31 1.0371362e-31 2.8569168e-32 -1.2327945e-31 -1.3995572e-31 -6.851046e-32 -7.499567e-32
-6.26379e-32 1.0217535e-32 -7.5120807e-32 -6.4562546e-32 -2.5962272e-31 -1.4000278e-31 -3.0017739e-31 -6.9681645e-31
-2.871567e-32 1.0583824e-31 1.6613591e-32 -2.4619652e-31 -2.9455662e-31 1.2775976e-31 -7.804901e-32 -1.513389e-32
-3.377417e-31 -3.4467201e-31 -3.2357965e-31 -8.27058e-31 -1.0010144e-31 -1.4415568e-31 3.7920942e-31 -3.764563e-32
3.5985987e-31 3.056565e-32 -8.893129e-31 -7.80466e-31 -1.20677e-30 -5.541e-31 -1.12896095e-30 -9.526795e-31
-9.575383e-31 -1.3123943e-30 -2.5140853e-31 4.6348896e-31 -7.4477253e-31 6.1732133e-30 3.903743e-30 5.067504e-30
5.9599383e-31 5.054735e-31 4.890425e-31 4.59343e-31 4.8678274e-31 5.1066333e-31 5.171384e-31 4.323369e-31
3.7259456e-31 3.056602e-31 2.3337174e-31 1.8336949e-31 1.4853264e-31 2.5673304e-31 3.9185396e-31 5.471393e-31
7.037793e-31 7.151847e-31 6.997545e-31 6.6739364e-31 5.9714163e-31 5.6094586e-31 6.397474e-31 6.715969e-31
6.998188e-31 6.3768913e-31 5.6620554e-31 5.088454e-31 4.692228e-31 3.268608e-31 1.6271207e-31 1.1324858e-31
2.7414555e-31 4.4522784e-31 7.2107513e-31 6.7975613e-31 8.266628e-31 8.941681e-31 6.8590495e-31 9.61247e-31
1.0472559e-30 9.095143e-31 9.062118e-31 9.63966e-31 1.2395703e-30 1.43006035e-30 1.323212e-30 2.4493262e-30
8.123986e-34 -9.507245e-33 1.02344335e-32 -2.2570035e-33 -8.652495e-33 -1.305327e-32 -9.613544e-33 -4.3829214e-33
-3.5864634e-33 -9.687901e-33 3.3602373e-33 -7.5951225e-33 -9.710139e-33 -9.6171836e-33 -2.9543547e-32 -2.592851e-32
00000000: 5222 0d80 3d9f 0700 be53 0300 4d71 0a00
00000010: 2005 0800 672e 0d00 4662 0a00 9e1e 0080
00000020: b6d5 0980 5043 0380 4ee5 0780 5104 0880
00000030: df52 0e80 0cbd 0180 59b7 0380 7525 0e00
00000040: 9a7e 0c00 8dae 0000 8665 0880 ef79 0a80
00000050: c9fe 0a00 2dca 0400 a389 0300 40fe 0a00
00000060: 4e7a 0500 9ace 0a00 048c 0400 ba4c 0980
00000070: 9b98 0780 10a4 0d80 e294 0880 ade0 0780
00000080: 9ae0 0580 9ef5 0080 2f60 0580 fb74 0e00
00000090: d517 0080 6b64 0a80 e866 0000 9e38 0580
000000a0: c7e2 0480 c856 0080 6a20 0280 627f 0780
000000b0: 65ae 0100 4df8 0e00 6515 0500 63d1 0080
000000c0: c1f5 0180 3258 0580 104f 0700 d79a 0700
000000d0: 8b80 0080 9329 0400 e65b 0000 92f4 0b80
000000e0: 10c4 0b80 2bb8 0800 8765 0580 ea71 0e80
000000f0: 46ed 0a80 d346 0100 a1e6 0b00 a1f2 0880
00000100: 2104 0980 15cb 0600 b610 0d80 6cc4 0180
00000110: 1920 0480 5936 0600 3ddf 0700 5242 0c00
00000120: 57aa 0200 7804 0b00 cd03 0280 24af 0580
00000130: a8f6 0800 7b78 0d00 37f9 0480 fbfa 0080
00000140: f5ad 0280 0b7b 0400 6e2d 0100 4c11 0480
00000150: c345 0980 a393 0600 4707 0080 1d7a 0380
00000160: 59e1 0300 da1f 0e80 07cc 0480 bfcc 0600
00000170: f404 0780 77e8 0680 13d4 0480 c365 0600
00000180: 041e b70b 90ff 018b b031 4c0b 140c 440c
00000190: 40e6 f709 a0d5 228b 2c72 160c 74b4 100c
000001a0: cee9 0d0c 8c81 4b0d f7b3 4c0d d405 780d
000001b0: a63d 490d 7663 2f0d ed7d 380d 75f4 8c0d
000001c0: e045 4f0e 2121 990e 1112 e00e b931 040f
000001d0: f657 fa0e fa72 040f d0e6 170f 0900 1a0f
000001e0: ebc0 240f 7848 540f 3859 730f 681a 6e0f
000001f0: 4349 7f0f 05be 900f fa07 a50f 4218 a80f
00000200: 56ec a60f 6bd8 390f 90bc 580e 7030 a08e
00000210: d4ff 788e d80f bb8e e84d fe8d 0855 3b8f
00000220: 033c 838f 1ab7 4d8f 1817 f58d e44c f40d
00000230: d0ca df0e 22b2 530e 0ff1 a20e ec9d bd8e
00000240: 6781 8d0b 7205 130c c3a0 060c f056 140b
00000250: a006 208c 44ac 358c 03dd b18b 2cb3 c28b
00000260: 069e a28b bc35 540a 5706 c38b 2c9d a78b
00000270: 3981 a88c e7bb 358c 86d3 c28c 3f21 628d
00000280: ac19 158b ca62 090c 8086 ac0a 6aca 9f8c
00000290: 9d2d bf8c 76d7 250c 77a0 ca8b c828 9d8a
000002a0: f734 db8c 76b4 df8c e403 d28c a532 868d
000002b0: 69f0 018c f11f 3b8c f91e f60c a077 438b
000002c0: fa8f e90c b8b4 1e0b 9d4c 908d 9446 7d8d
000002d0: 44cf c38d d4d0 338d 342f b78d c294 9a8d
000002e0: 965e 9b8d baf2 d48d 682c a38c 2869 160d
000002f0: 48b1 718d 506a fa0e c95a 9e0e f88f cd0e
00000300: 3b69 410d 1809 240d 10b4 1e0d b910 150d
00000310: 54f8 1d0d 40b8 250d 2dd2 270d 254d 0c0d
00000320: e4d3 f10c 8362 c60c 8877 970c f706 6e0c
00000330: 70ce 400c 18a1 a60c e853 fe0c 8e8e 310d
00000340: b263 640d 3817 680d 5415 630d e594 580d
00000350: 96c8 410d 8f09 360d 229c 4f0d 16f2 590d
00000360: ac1a 630d 24f1 4e0d 84be 370d 3921 250d
00000370: 8145 180d 1125 d40c 5c36 530c 4c01 130c
00000380: 3eee b10c 157c 100d 9400 6a0d ee97 5c0d
00000390: 3b22 860d 4a16 910d c196 5e0d a3f8 9b0d
000003a0: 4fed a90d bf93 930d 910a 930d 9569 9c0d
000003b0: bc21 c90d 620a e80d 13b4 d60d 84b6 460e
000003c0: 9dfb 8608 2f75 458a 958f 540a 2881 3b89
000003d0: 8eb4 338a 8b8d 878a 5eaa 478a 370f b689
000003e0: d2f9 9489 b835 498a 2c94 8b09 99be 1d8a
000003f0: f4ab 498a b8bd 478a 1c66 198b e7a0 068b

conv2.bias f4 [20]
-3.531154e-39 -2.1584206e-22 1.25931925e-23 1.079294e-39 1.3206417e-18 -2.279659e-39 4.523156e-38 -1.914653e-06
-3.76682e-40 -1.239321e-39 -1.1997e-40 -4.144538e-39 7.7286695e-06 -8.60977e-40 -1.07185385e-20 3.4635028e-17
-7.35923e-40 -6.298958e-15 -6.74428e-40 4.5250706e-11
00000000: 6c73 2680 f177 829b 7896 7319 a2c0 0b00
00000010: 6fe4 c221 c3d2 1880 9843 7601 7d7d 00b6
00000020: 091a 0480 b97e 0d80 6d4e 0180 4921 2d80
00000030: 62aa 0137 0e60 0980 ac77 4a9e d3b9 1f24
00000040: 7403 0880 a2f1 e2a7 0858 0780 c403 472e

layer3.weight f4 [1, 66]
-3.4522e-41 -2.60333e-40 -2.45146e-40 -1.7027074e-24 1.8948199e-22 -2.6724462e-23 -3.485606e-24 -1.7733465e-23
1.9068407e-23 -7.28593e-40 -7.941e-42 -3.08506e-40 4.5957945e-20 1.8938581e-18 3.5954892e-20 1.5479e-41
-5.617e-41 4.10289e-40 -9.894257e-39 -7.300916e-39 -1.0069252e-38 -2.8453785e-08 2.5182346e-06 -7.927858e-08
3.15846e-40 4.19218e-40 4.76006e-40 -1.059302e-39 -4.37331e-40 -1.75804e-40 -4.39873e-40 7.89207e-40
2.1664e-41 2.335572e-39 -5.1763e-41 5.73805e-40 -1.1455493e-06 2.4737235e-05 -1.5421288e-06 4.53942e-40
-4.1034e-41 -1.014103e-39 9.864606e-22 -1.28463774e-20 1.3160756e-21 -2.833211e-18 5.768955e-17 -9.705966e-18
1.207087e-39 5.92494e-40 1.2394e-40 2.2527746e-16 5.92292e-15 2.0292847e-16 4.2385e-41 -4.6896e-40
9.57077e-40 4.321806e-14 -4.028689e-11 -1.6078165e-13 0.0003801952 -2.3723855e-05 0.00031569359 -2.2498341e-05
0.00012781583 5.8147045e-05
00000000: 3c60 0080 b4d5 0280 5eab 0280 98bd 0398
00000010: d611 651b 483b 019a c5d7 8698 ef81 ab99
00000020: 176b b819 05ef 0780 2316 0080 fd5b 0380
00000030: bf07 591f f8bd 0b22 ccca 291f 262b 0000
00000040: 949c 0080 b877 0400 2abd 6b80 fc7f 4f80
00000050: faa4 6d80 896a f4b2 f1fe 2836 dc3f aab3
00000060: 7370 0300 9c90 0400 e92e 0500 e788 0b80
00000070: 1ac3 0480 12ea 0180 30ca 0480 fd97 0800
00000080: 643c 0000 a06e 1900 4b90 0080 893f 0600
00000090: c6c0 99b5 cf82 cf37 24fb ceb5 68f1 0400
000000a0: 6372 0080 e80a 0b80 d911 951c 45a9 729e
000000b0: 35e1 c61c d80d 51a2 e605 8524 210b 33a3
000000c0: de24 0d00 a273 0600 7f59 0100 16dd 8125
000000d0: 4b65 d527 eaf5 6925 2776 0000 451b 0580
000000e0: f16b 0a00 08a3 4229 012f 31ae 2806 35aa
000000f0: f054 c739 9702 c7b7 ad83 a539 d2ba bcb7
00000100: 4d06 0639 eae2 7338
