Ryan_ddpg-stock-trading-code/data/DDPGAgent-ddpg-20200430_21-59-15-model-PortfolioEnv.bin (torch_old, 21847 bytes, 10 tensors)

conv1.weight f4 [2, 4, 3, 1]
0.044786744 0.15580784 0.03855345 0.17583439 -0.26536667 0.22281031 0.2425649 0.12143415
0.028472917 -0.07483371 -0.15968671 0.030679878 -0.11861531 0.031280115 -0.019483719 0.06822043
0.020649642 0.045701336 -0.04526959 0.096262395 0.30873427 -0.05097687 -0.084455535 0.15876864
00000000: 4e72 373d 178c 1f3e 39ea 1d3d ee0d 343e
00000010: 24de 87be 6328 643e ef62 783e 78b2 f83d
00000020: 0940 e93c 6b42 99bd ea84 23be 5e54 fb3c
00000030: 95ec f2bd 941f 003d 529c 9fbc 27b7 8b3d
00000040: 7029 a93c 5331 3b3d 9b6c 39bd 3825 c53d
00000050: 6b12 9e3e 1fcd 50bd 06f7 acbd 3f94 223e

conv1.bias f4 [2]
-0.17746568 -0.2575601
00000000: 90b9 35be ebde 83be

conv2.weight f4 [30, 2, 48, 1]
-0.015814401 -0.110835865 -0.086249 -0.031034 0.015871227 0.15756693 0.14250892 0.016491428
0.060076796 0.15702884 -0.09486135 -0.049384914 -0.08658773 -0.050992105 -0.053278495 0.02360504
0.15120547 0.10496186 0.04831812 -0.07665088 -0.11874439 -0.021834815 0.017423334 -0.13762054
0.17550519 -0.18514715 0.0007492518 -0.024204312 -0.1100901 0.07306262 -0.00782595 0.112983614
0.19292547 0.110868834 -0.08061389 0.051969923 -0.07582938 -0.21342942 -0.09947762 0.02159209
0.05303697 -0.11738209 -0.07165378 0.056463115 0.15410908 -0.26652202 0.102136664 0.0557499
-0.23722163 -0.15872407 0.062396873 -0.028720533 0.084836 -0.099930815 -0.17648937 -0.0026411505
-0.124142975 0.06859613 0.09122424 0.028833903 -0.061159816 0.11092769 0.036301725 0.042114746
0.07460585 0.14762129 0.017213052 0.14916006 0.06332738 -0.07709593 -0.08626877 0.03751948
-0.0762774 -0.023108166 -0.074136555 0.16302742 0.12628657 -0.15770982 -0.14508061 0.032043498
-0.068006426 -0.07078053 0.10777357 0.056078646 0.037669823 0.09835699 -0.03750265 0.013664784
0.1010254 0.075105965 -0.0666509 0.093086585 -0.11947499 0.03336081 0.06623362 0.112371996
0.08047284 0.07085864 0.034663387 0.21845287 -0.038184036 -0.042640496 0.0039910693 -0.107686184
-0.16253413 -0.118771784 -0.21308307 -0.022676423 0.075650916 0.16629365 0.08826193 0.0071154158
-0.008999354 -0.05901024 0.1223898 0.093063675 -0.075821 0.05530059 0.030313922 0.0399531
-0.113800354 0.07034908 0.08886172 0.012614661 0.031234672 -0.14141624 -0.061678857 -0.025988972
0.0027590604 0.016032463 0.047756422 -0.037041064 0.05898991 -0.04906487 0.1347473 -0.076792344
0.102586545 0.0026601634 0.11837366 -0.03448115 -0.10114821 0.025409035 -0.022128794 0.07368303
-0.060183257 0.12308698 -0.0012019698 -0.08676324 -0.10638164 -0.1331754 0.031536732 -0.111051224
0.02850324 -0.04417202 0.032372132 0.05822308 0.15534931 -0.06710825 0.14414215 -0.07713795
0.11983988 0.061818052 -0.07126693 0.06899388 -0.1691316 0.06327208 0.03221916 0.030214662
-0.0139545305 0.005614637 0.08427934 -0.04077918 0.14985192 0.019429497 0.2920346 -0.16240363
-0.026069148 0.07100703 -0.00313803 0.13466723 0.0014571272 0.12961593 0.021591928 -0.09508243
-0.027878368 -0.12464691 0.0666544 -0.025713058 0.07151415 -0.008311201 0.047531348 -0.06037776
0.04747568 -0.021870932 0.015371174 0.039393824 -0.181743 -0.12530276 0.02872694 0.116977654
0.17970352 -0.0395786 -0.037741292 -0.027442705 0.14963259 0.006982781 0.17178854 0.034085378
-0.024124999 -0.06616848 0.11419562 -0.02721749 -0.023263777 -0.086105324 0.1319464 0.016202403
-0.056278884 -0.06752857 0.043449175 -0.1298438 -0.24206115 -0.12971246 -0.06903383 -0.10837163
0.09918843 -0.018266652 0.08724073 -0.10394843 -0.098006144 0.25418067 -0.06413649 0.10161025
0.0054809465 0.06710113 0.13454914 0.042905062 -0.1936566 0.025453221 -0.028097387 -0.05759284
-0.1836313 0.019711312 0.0010215817 0.17369244 -0.016352752 -0.008209243 -0.15329014 -0.046210833
0.108137086 -0.14299181 -0.123423256 0.038604613 -0.048473585 -0.062198408 0.028765773 -0.013432122
00000000: 348d 81bc eafd e2bd 51a3 b0bd 043b febc
00000010: 6004 823c 3a59 213e dced 113e 0819 873c
00000020: 1613 763d 2bcc 203e ab46 c2bd d647 4abd
00000030: e854 b1bd 19dd 50bd 8d3a 5abd 5b5f c13c
00000040: 9bd5 1a3e 3ef6 d63d 39e9 453d 23fb 9cbd
00000050: 4230 f3bd edde b2bc 61bb 8e3c 66ec 0cbe
00000060: a2b7 333e 3797 3dbe 7069 443a 1f48 c6bc
00000070: eb76 e1bd dba1 953d 6a38 00bc f463 e73d
00000080: 418e 453e 330f e33d e518 a5bd 6ade 543d
00000090: 6f4c 9bbd 3e8d 5abe ecba cbbd e5e1 b03c
000000a0: 4b3d 593d 0566 f0bd 38bf 92bd de45 673d
000000b0: c5ce 1d3e 9375 88be 072d d13d 025a 643d
000000c0: 3aea 72be 9088 22be dd93 7f3d 5347 ebbc
000000d0: 7fbe ad3d 87a8 ccbd a1b9 34be 2717 2dbb
000000e0: ac3e febd 217c 8c3d c6d3 ba3d 1435 ec3c
000000f0: b782 7abd 0f2e e33d 1eb1 143d 8380 2c3d
00000100: f4ca 983d 092a 173e 6302 8d3c 6abd 183e
00000110: c9b1 813d 79e4 9dbd aead b0bd 07ae 193d
00000120: 5337 9cbd 564d bdbc e8d4 97bd a9f0 263e
00000130: 4451 013e af7e 21be 0390 14be 0b40 033d
00000140: f446 8bbd 62f5 90bd 64b8 dc3d b9b2 653d
00000150: ac4b 1a3d 646f c93d 619c 19bd 42e2 5f3c
00000160: 68e6 ce3d 28d1 993d 4480 88bd 2ea4 be3d
00000170: 4eaf f4bd 58a5 083d 7ea5 873d 4a23 e63d
00000180: f2ce a43d 561e 913d 32fb 0d3d 1cb2 5f3e
00000190: dd66 1cbd cda7 2ebd 84c7 823b 938a dcbd
000001a0: 596f 26be 9f3e f3bd 7332 5abe e8c3 b9bc
000001b0: deee 9a3d e248 2a3e acc2 b43d 6f28 e93b
000001c0: 0772 13bc b9b4 71bd 81a7 fa3d 2b98 be3d
000001d0: 0a48 9bbd df82 623d e754 f83c dda5 233d
000001e0: 2910 e9bd 2e13 903d 22fd b53d b9ad 4e3c
000001f0: dbdf ff3c 6bcf 10be f8a2 7cbd d3e6 d4bc
00000200: 5ad1 343b 8356 833c 3d9c 433d 5fb8 17bd
00000210: 679f 713d 3ff8 48bd 32fb 093e 4e45 9dbd
00000220: e518 d23d 2356 2e3b e46d f23d 1b3c 0dbd
00000230: cb26 cfbd 9c26 d03c 7247 b5bc 21e7 963d
00000240: b882 76bd 0715 fc3d 6a8b 9dba edb0 b1bd
00000250: 9ede d9bd 225f 08be a92c 013d d36e e3bd
00000260: a07f e93c b8ed 34bd a498 043d 537b 6e3d
00000270: e413 1f3e 0d70 89bd 009a 133e 80fa 9dbd
00000280: 9c6e f53d ed34 7d3d 65f4 91bd aa4c 8d3d
00000290: d630 2dbe cb94 813d 3df8 033d bd84 f73c
000002a0: 8ba1 64bc fdfa b73b a69a ac3d 1208 27bd
000002b0: c872 193e 9c2a 9f3c 8f85 953e 234d 26be
000002c0: f78e d5bc 226c 913d 68a7 4dbb 35e6 093e
000002d0: 13fd be3a 0aba 043e 8ee1 b03c 94ba c2bd
000002e0: 2d61 e4bc e146 ffbd 1a82 883d 31a4 d2bc
000002f0: 0376 923d b42b 08bc 3bb0 423d ac4e 77bd
00000300: dc75 423d ab2a b3bc 60d7 7b3c 6b5b 213d
00000310: d61a 3abe 5e4f 00be c254 eb3c fb91 ef3d
00000320: 3304 383e 2c1d 22bd 9d96 1abd 86cf e0bc
00000330: 4939 193e d0cf e43b 56e9 2f3e 1c9d 0b3d
00000340: caa1 c5bc 5783 87bd 65df e93d 37f7 debc
00000350: ad93 bebc fd57 b0bd f51c 073e e7ba 843c
00000360: b084 66bd 6b4c 8abd c3f7 313d c6f5 04be
00000370: e1de 77be 58d3 04be 9c61 8dbd f2f1 ddbd
00000380: 4e23 cb3d f2a3 95bc 45ab b23d eae2 d4bd
00000390: 72b7 c8bd f823 823e fe59 83bd 0919 d03d
000003a0: 8399 b33b 516c 893d 40c7 093e 38bd 2f3d
000003b0: ea4d 46be 4683 d03c 7e2c e6bc 78e6 6bbd
000003c0: d809 3cbe 9e79 a13c 98e6 853a 6edc 313e
000003d0: 35f6 85bc 1080 06bc 17f8 1cbe 9247 3dbd
000003e0: fa76 dd3d 726c 12be 55c5 fcbd df1f 1e3d
000003f0: 3d8c 46bd c2c3 7ebd 33a6 eb3c 6712 5cbc

conv2.bias f4 [30]
0.0447845 0.12444627 0.04662742 0.18172033 0.08560503 -0.042853925 0.061027255 -0.15747431
-0.19068143 0.08458196 0.029682513 0.04320404 -0.08912489 0.06188838 0.13086231 0.03577802
-0.065637745 0.034312956 0.08191219 -0.041079372 -0.0060581965 0.11733759 -0.09922417 0.07018436
-0.045627054 -0.04989861 -0.2943167 -0.05337344 0.072948426 0.0697724
00000000: f46f 373d b0dd fe3d 65fc 3e3d e514 3a3e
00000010: b151 af3d 9987 2fbd b7f7 793d f240 21be
00000020: fe41 43be 4f39 ad3d be28 f33c b8f6 303d
00000030: 1c87 b6bd ac7e 7d3d c500 063e f98b 123d
00000040: 156d 86bd be8b 0c3d 94c1 a73d d842 28bd
00000050: d683 c6bb b14e f03d 0b36 cbbd d1bc 8f3d
00000060: 6fe3 3abd 7c62 4cbd aeb0 96be 1c9e 5abd
00000070: fc65 953d d5e4 8e3d

conv3.weight f4 [1, 31, 1, 1]
0.15717317 0.032416448 0.113544665 -0.06950855 -0.043694746 0.14831293 -0.053641666 0.23927628
-0.06718543 -0.026040375 0.110324614 0.03013945 0.009270927 0.16632085 -0.039453436 0.14945152
0.12681735 -0.1474426 0.062052965 0.1051939 -0.22123156 0.0825392 0.25447097 -0.04543109
-0.0804668 0.024837306 -0.09515908 -0.18348096 -0.15195172 0.04654072 -0.05811142
00000000: 01f2 203e 1cc7 043d 1b8a e83d 805a 8ebd
00000010: 43f9 32bd 58df 173e 5db7 5bbd d704 753e
00000020: 8498 89bd a052 d5bc dff1 e13d 02e7 f63c
00000030: 16e5 173c 0350 2a3e ed99 21bd d209 193e
00000040: 68dc 013e 31fb 16be 402b 7e3d e66f d73d
00000050: 878a 62be 500a a93d 054a 823e f315 3abd
00000060: c7cb a4bd 9b77 cb3c c4e2 c2bd 6fe2 3bbe
00000070: 3b99 1bbe 7ba1 3e3d 3e06 6ebd

conv1.weight f4 [2, 4, 3, 1]
-0.1302708 -0.14190447 0.27181983 -0.20701018 0.17370138 -0.016355842 0.19224423 -0.2369934
0.18372634 0.13613307 -0.13232943 -0.012262821 -0.036966115 -0.19092545 -0.094977185 -0.09514481
0.28788424 -0.12445842 -0.11325149 -0.1337693 0.15956834 -0.24803859 -0.06855476 -0.14488961
00000000: b565 05be 684f 11be f82b 8b3e 7afa 53be
00000010: c6de 313e b0fc 85bc acdb 443e 66ae 72be
00000020: c222 3c3e 7866 0b3e 5e81 07be 00ea 48bc
00000030: c869 17bd f681 43be 6683 c2bd 48db c2bd
00000040: 9065 933e 0ee4 febd 66f0 e7bd d2fa 08be
00000050: e265 233e d4fd 7dbe 7066 8cbd f15d 14be

conv1.bias f4 [2]
0.2140292 0.09511551
00000000: 782a 5b3e eccb c23d

conv2.weight f4 [20, 2, 48, 1]
-0.06335233 -0.025947392 0.06791651 -0.069612056 0.035714373 -0.01909104 -0.09025773 -0.07368365
0.02076079 -0.0598813 0.07612528 0.055213526 0.04194908 -0.052633204 0.039615884 0.048606515
-0.0444699 -0.0348384 -0.06518637 0.014777005 -0.05333289 0.09558433 -0.0096230805 -0.016799904
0.082427874 0.0033967495 -0.08130827 -0.003366068 -0.0895614 -0.037885696 0.034751207 -0.028196886
0.049440578 0.054071516 -0.07303152 0.05991438 0.05340551 0.023130149 -0.024262808 -0.037003227
0.027480125 -0.048123673 0.0077883825 -0.008771017 0.063128635 0.0037526786 0.0075404495 0.060196415
-0.06557448 0.0279589 -0.06241303 -0.07700974 0.039915323 -0.009225741 0.07113065 0.07600412
0.014618941 0.073292166 0.035727173 -0.066684455 0.06974636 0.005509749 0.075654596 -0.046246015
0.0054512173 0.052974164 -0.004260041 -0.07327013 -0.01701326 -0.07163956 0.013152741 0.073305115
0.017235838 -0.06991872 -0.0491828 0.032931685 -0.07473382 0.0055448264 0.084356666 -0.03934455
-0.005476363 -0.09578009 0.085798636 -0.00057539344 0.08078775 -0.053240776 0.06568214 -0.083688416
0.0032237172 -0.10097067 0.01073987 0.09823343 -0.047355805 -0.036561355 0.025469497 -0.04498409
0.003230244 -0.063148215 0.025909513 -0.05222446 -0.09059732 0.07573268 0.097211435 -0.031016827
-0.09654149 0.008787394 -0.052556884 -0.05372529 0.051131457 -0.04200392 0.05383025 0.07009037
-0.052149355 0.09653258 0.015562974 0.0901697 -0.04938697 0.06625883 -0.011163183 0.023897529
0.05837296 -0.001885198 0.06431967 0.09042415 -0.0908639 -0.025434643 0.040355623 -0.018182449
-0.06964173 -0.036235504 0.0850452 -0.0052835047 0.076536 0.04158689 -0.040937904 -0.004942693
-0.03636951 0.0551984 -0.09679296 0.06626044 0.00045395643 0.09701347 -0.098723486 0.0070385635
0.0959713 0.044239163 -0.026722923 0.055590108 0.07486512 -0.02996187 0.044726223 -0.044273492
-0.028416194 0.038640007 0.04982893 -0.052032776 0.038490027 0.062833324 -0.085513644 0.02347596
-0.034093767 0.059951916 -0.10080235 -0.077893354 -0.084461585 0.0077775195 -0.0874019 -0.078290835
0.0636065 0.011299469 -0.05090617 -0.06410439 0.031231448 0.025333986 0.0440647 -0.03488888
0.059715897 0.0114598125 0.07911821 -0.052948434 -0.03818208 0.027642354 0.03961025 0.04863052
0.044400588 -0.011516675 -0.094200365 -0.050299987 0.03531097 0.079098105 -0.038194582 -0.08348416
0.048625454 -0.095215045 0.06715515 0.093818575 -0.065221116 0.026178762 -0.08166577 0.04713279
-0.029255077 0.08503355 0.04367441 0.08993305 -0.026495889 0.029075667 0.07468955 0.06337097
-0.04010526 -0.011090159 0.02159755 0.047627956 0.008264564 0.006112486 -0.055967513 -0.091175005
-0.070964724 0.0992776 0.0034608766 -0.07338822 0.01145155 -0.07637909 -0.06784186 0.07498044
-0.035500303 -0.051604882 0.02786827 0.027850598 -0.07750105 -0.100399025 0.094833866 0.020961143
0.060975134 0.07433316 0.03079234 -0.03190428 0.04952614 -0.08174249 0.07631384 0.029688418
0.043579787 0.07338457 -0.057416234 -0.0032549948 0.00041959435 0.08549178 -0.07419829 -0.016865633
-0.08663209 -0.01717344 -0.10140712 -0.026982524 0.08174917 0.0822376 0.061177075 0.03190367
00000000: debe 81bd a08f d4bc d017 8b3d c490 8ebd
00000010: 3c49 123d d064 9cbc 0bd9 b8bd 74e7 96bd
00000020: 8812 aa3c 1846 75bd 92e7 9b3d 9427 623d
00000030: ccd2 2b3d ea95 57bd 4444 223d a017 473d
00000040: 1226 36bd b6b2 0ebd 6e80 85bd 401b 723c
00000050: 9773 5abd b8c1 c33d 20aa 1dbc f49f 89bc
00000060: f2cf a83d 009c 5e3b f384 a6bd 4099 5cbb
00000070: f86b b7bd 082e 1bbd 4857 0e3d 28fd e6bc
00000080: 3482 4a3d 187a 5d3d 8d91 95bd c868 753d
00000090: bcbf 5a3d 707b bd3c ccc2 c6bc b290 17bd
000000a0: 001e e13c 541d 45bd b035 ff3b 50b4 0fbc
000000b0: 9649 813d 80ef 753b e015 f73b 8490 763d
000000c0: ea4b 86bd 100a e53c cea4 7fbd 48b7 9dbd
000000d0: 407e 233d 9027 17bc f2ac 913d 0ca8 9b3d
000000e0: 4884 6f3c 341a 963d a856 123d dc91 88bd
000000f0: 2ed7 8e3d 208b b43b ccf0 9a3d 766c 3dbd
00000100: 20a0 b23b 70fb 583d d097 8bbb a60e 96bd
00000110: 645f 8bbc c3b7 92bd 987e 573c fe20 963d
00000120: 2c32 8d3c 8c31 8fbd e773 49bd 60e3 063d
00000130: 0c0e 99bd 60b1 b53b 30c3 ac3d c027 21bd
00000140: 1073 b3bb 5a28 c4bd 32b7 af3d 00d6 16ba
00000150: 0c74 a53d 0013 5abd 5c84 863d d564 abbd
00000160: 0045 533b b6c9 cebd 48f6 2f3c 9c2e c93d
00000170: 29f8 41bd 5cc1 15bd 68a5 d03c 3d41 38bd
00000180: 80b2 533b da53 81bd 3040 d43c 51e9 55bd
00000190: 168b b9bd bc19 9b3d ca16 c73d 0017 febc
000001a0: 8bb7 c5bd 00f9 0f3c e345 57bd 0d0f 5cbd
000001b0: 386f 513d 4d0c 2cbd 1c7d 5c3d 8a8b 8f3d
000001c0: 909a 55bd e0b2 c53d d8fb 7e3c e4aa b83d
000001d0: fe49 4abd b6b2 873d c8e5 36bc c0c4 c33c
000001e0: 7c18 6f3d c018 f7ba 08ba 833d 4c30 b93d
000001f0: da16 babd 505c d0bc f04b 253d 5cf3 94bc
00000200: 53a0 8ebd ae6b 14bd 2e2c ae3d 4021 adbb
00000210: e8be 9c3d 0457 2a3d 81ae 27bd 50f6 a1bb
00000220: 32f8 14bd b817 623d 633b c6bd 8eb3 873d
00000230: 0001 ee39 00af c63d 8a2f cabd c0a3 e63b
00000240: 9a8c c43d 2034 353d 08ea dabc 74b2 633d
00000250: e252 993d 9872 f5bc d832 373d 1f58 35bd
00000260: 14c9 e8bc fc44 1e3d 6c19 4c3d 5220 55bd
00000270: b8a7 1d3d c2ae 803d c721 afbd a850 c03c
00000280: e8a5 0bbd 2490 753d 7671 cebd 8d86 9fbd
00000290: 32fa acbd 90da fe3b c4ff b2bd f256 a0bd
000002a0: 2044 823d 6821 393c fd82 50bd 2a49 83bd
000002b0: 18d9 ff3c 3889 cf3c 307d 343d a4e7 0ebd
000002c0: a898 743d f0c1 3b3c ba08 a23d 75e0 58bd
000002d0: d064 1cbd 3872 e23c 5c3e 223d cc30 473d
000002e0: 64dd 353d 70b0 3cbc 1fec c0bd 5c07 4ebd
000002f0: 3ca2 103d 30fe a13d ec71 1cbd bef9 aabd
00000300: 7c2b 473d 1b00 c3bd a488 893d f423 c03d
00000310: a692 85bd d874 d63c 6240 a7bd 500e 413d
00000320: 58a8 efbc 1226 ae3d f0e3 323d d22e b83d
00000330: e80d d9bc 1830 ee3c d6f6 983d a4c8 813d
00000340: 6a45 24bd 80b3 35bc 58ed b03c 8815 433d
00000350: 1868 073c 404b c83b 313e 65bd f6b9 babd
00000360: f455 91bd 0e52 cb3d e0cf 623b 904c 96bd
00000370: 489f 3b3c a46c 9cbd acf0 8abd 588f 993d
00000380: c468 11bd a45f 53bd 004c e43c f026 e43c
00000390: dfb8 9ebd 019e cdbd 4238 c23d b4b6 ab3c
000003a0: 10c1 793d fc3b 983d 3840 fc3c 10ae 02bd
000003b0: ecdb 4a3d 9b68 a7bd 6e4a 9c3d 2035 f33c
000003c0: b880 323d a64a 963d 492d 6bbd c051 55bb
000003d0: 00fd db39 5016 af3d 46f5 97bd cc29 8abc
000003e0: 2a6c b1bd 50af 8cbc 89ae cfbd 740a ddbc
000003f0: 1c6c a73d 306c a83d d094 7a3d 6cad 023d

conv2.bias f4 [20]
-0.057473235 -0.024410583 0.0955791 0.047272965 0.016271666 0.0120590925 -0.06169624 0.07979791
-0.057761963 -0.081693634 0.0038090944 -0.04307683 -0.028709754 0.008527331 0.0009704828 0.091992274
0.09830344 0.043338418 0.029984877 -0.034116097
00000000: 0e69 6bbd b4f8 c7bc fabe c33d 4ca1 413d
00000010: 284c 853c 8093 453c 32b5 7cbd 166d a33d
00000020: cf97 6cbd fe4e a7bd 00a2 793b 5571 30bd
00000030: b830 ebbc 38b6 0b3c 0068 7e3a 7266 bc3d
00000040: 5053 c93d a083 313d d8a2 f53c 52bd 0bbd

layer3.weight f4 [1, 66]
0.0552963 -0.097842276 -0.026550502 -0.07037009 0.1042269 0.010701656 -0.108174756 0.04074432
0.024306774 -0.107653975 0.09512192 -0.050144702 -0.018911049 0.10344061 0.02911909 0.043927282
0.012337163 -0.11429707 0.06108205 -0.06561394 0.06930219 -0.095018245 0.093939066 -0.09121603
0.0547273 -0.06881994 -0.077879205 -0.08371456 0.09366378 0.012742922 0.11877802 0.062475964
-0.05944898 0.05266936 -0.11059019 -0.092060715 0.0755596 -0.10280156 -0.06693603 0.06913197
-0.04815036 -0.034565993 -0.10461663 -0.042329736 0.019381955 -0.06964627 0.018903136 -0.11333532
0.11976914 0.0633845 -0.04081338 0.046923816 0.09556365 -0.0459657 -0.12080242 0.038023278
0.060268432 -0.109936565 -0.07343596 0.104133785 0.0004100874 0.10921687 -0.08381109 -0.04840862
0.11923589 0.10715793
00000000: 607e 623d 8861 c8bd 7080 d9bc 321e 90bd
00000010: ea74 d53d 0056 2f3c ba8a ddbd 84e3 263d
00000020: 001f c73c b079 dcbd 48cf c23d 8864 4dbd
00000030: 58eb 9abc acd8 d33d 288b ee3c 18ed 333d
00000040: d021 4a3c 9514 eabd 2c31 7a3d 9a60 86bd
00000050: 4eee 8d3d ed98 c2bd 2063 c03d 78cf babd
00000060: bc29 603d 78f1 8cbd 227f 9fbd 8a72 abbd
00000070: ccd2 bf3d b0c7 503c e441 f33d cce6 7f3d
00000080: c680 73bd d4bb 573d 1c7d e2bd 548a bcbd
00000090: febe 9a3d a089 d2bd c215 89bd 1095 8d3d
000000a0: 5039 45bd 1295 0dbd 3e41 d6bd f261 2dbd
000000b0: e8c6 9e3c b4a2 8ebd c0da 9a3c 591c e8bd
000000c0: 8649 f53d bccf 813d ee2b 27bd 3033 403d
000000d0: e0b6 c33d 8846 3cbd 4267 f7bd 4cbe 1b3d
000000e0: 08dc 763d 6c26 e1bd 9865 96bd 1844 d53d
000000f0: 0001 d739 18ad df3d 26a5 abbd 1e48 46bd
00000100: f231 f43d 9e75 db3d
