Ryan_ddpg-stock-trading-code/data/DDPGAgent-ddpg-20200430_21-41-44-model-PortfolioEnv.bin (torch_old, 21847 bytes, 10 tensors)

conv1.weight f4 [2, 4, 3, 1]
-0.04351104 0.23734118 0.11234813 -0.22903217 0.084737755 0.07630846 0.24814183 -0.06947404
-0.050317522 -0.14475262 -0.16315944 0.08707845 -0.18874975 -0.06283289 0.15661816 -0.042026173
0.29313135 0.0208084 0.0012455294 0.10079844 0.16566856 -0.112054236 0.10097464 -0.06651258
00000000: a238 32bd 9109 733e c716 e63d 6987 6abe
00000010: fd8a ad3d 9c47 9c3d e418 7e3e 6848 8ebd
00000020: bf19 4ebd 083a 14be 4513 27be 3056 b23d
00000030: 9d47 41be 88ae 80bd 8360 203e a323 2cbd
00000040: 5015 963e 6176 aa3c 0841 a33a 6a6f ce3d
00000050: 05a5 293e b17c e5bd cbcb ce3d bf37 88bd

conv1.bias f4 [2]
0.094697416 0.027793959
00000000: b8f0 c13d 28b0 e33c

conv2.weight f4 [30, 2, 48, 1]
0.15656433 0.15027492 0.019558882 0.11576962 -0.10828504 -0.05881107 0.08466985 -0.06362876
-0.08790472 -0.07339364 0.051740084 -0.06526819 0.12066495 -0.022979211 0.005608027 0.14439878
0.021357281 0.026647098 0.115640275 -0.0153031405 0.10208809 0.038717974 0.14203288 0.15667687
-0.011074503 -0.11073075 0.04588235 0.0044034473 -0.04374995 -0.015119844 0.06724426 -0.0825846
-0.1331999 0.09531056 -0.010893942 -0.0166227 -0.10924777 -0.13106291 -0.0434898 -0.079975136
0.028589897 -0.013535861 -0.043164518 0.076102026 -0.06336135 -0.04186048 0.15043218 -0.0607806
0.008536227 -0.057734277 -0.08346862 0.11098539 0.14288102 -0.022800284 0.042227384 -0.063514
0.12777974 0.26950994 0.086943746 0.024438046 -0.07554511 0.073645666 0.12322216 0.07132561
-0.07062034 0.013942301 0.12217457 0.15936524 -0.10487873 0.13084897 0.0032263135 -0.13738675
0.01491979 0.081441216 -0.05611098 -0.05908117 0.06317467 0.08594383 -0.04533561 -0.1578833
0.004089168 0.08720144 -0.055666335 0.010119537 -0.025347788 -0.015120506 -0.054732088 0.05791191
0.13697073 -0.12877993 -0.0022457258 -0.011388523 -0.06660396 0.029353783 0.06685371 -0.02660777
-0.12078336 0.1616855 -0.12840426 -0.07388687 -0.119720384 0.056630548 0.06271663 -0.050992873
-0.12405032 0.046942458 -0.011351352 -0.0144470725 -0.018475441 -0.0946513 0.07223867 -0.04593839
-0.0033582107 0.041196164 -0.010024348 0.009077201 -0.08185729 0.071574904 -0.089322165 0.06990887
-0.090163946 0.033977628 -0.071136095 -0.031448342 -0.12823573 0.05046046 -0.15487197 0.11215642
-0.06028064 -0.06599532 0.06265834 0.033397704 -0.014561585 0.14807478 -0.05952128 -0.08693399
-0.029171472 -0.025021158 -0.027271869 0.097065516 0.0264999 -0.04417918 0.055350516 -0.13666089
-0.041999917 -0.09470016 0.100945435 0.09363824 0.11117894 -0.06343778 -0.08377741 0.11444297
0.12686726 0.12366233 0.03754847 -0.0042351917 -0.07129553 0.07702495 0.028045556 0.06727573
0.05739672 -0.07992954 -0.048898462 -0.09060323 0.11441559 0.071455956 -0.13947544 -0.039088573
-0.010848488 -0.033369113 -0.038662013 0.008173457 -0.056328155 0.06375261 0.10671868 -0.011348963
-0.01796195 0.13895816 0.032870624 0.0966665 0.061262086 0.0019235247 0.040318694 0.08381281
0.032867163 0.07946127 0.05333019 -0.011555904 0.031561304 -0.16164875 0.032716207 0.009341765
0.018923411 0.014138423 0.030236313 -0.1305489 -0.036932226 -0.02031295 0.08559824 -0.031023966
0.05351787 0.07093668 -0.012233027 0.018319078 0.0043640556 0.026179645 -0.062089235 -0.21689883
0.02703679 0.0011702349 0.14532074 0.033600412 0.10016601 -0.087236956 -0.055900656 -0.020780358
0.11733887 0.0030161345 -0.057844296 -0.16255324 0.21778944 -0.14743824 -0.005043613 -0.0045341314
0.020662775 -0.095502615 0.07258373 -0.0004259018 0.19441672 0.08137905 -0.081405275 0.08634196
-0.07846512 -0.07006366 0.020878311 -0.11450776 -0.0053936252 0.061158754 -0.08747707 -0.021856168
-0.0016119479 -0.07806046 0.052349117 0.11667051 -0.21966438 0.04734378 0.10800874 0.08993989
0.14326112 -0.023041205 -0.07820925 -0.05490115 0.027748324 0.03182433 0.019298417 0.052974973
00000000: 6652 203e abe1 193e f339 a03c 9f18 ed3d
00000010: 8cc4 ddbd e0e3 70bd 6367 ad3d cc4f 82bd
00000020: 6407 b4bd 684f 96bd 69ed 533d 54ab 85bd
00000030: 2f1f f73d e63e bcbc 8ac3 b73b 46dd 133e
00000040: 77f5 ae3c 044b da3c cfd4 ec3d 06ba 7abc
00000050: 8f13 d13d bd96 1e3d 1171 113e e76f 203e
00000060: d571 35bc cec6 e2bd 22ef 3b3d cb4a 903b
00000070: 2633 33bd 39b9 77bc 5cb7 893d 1d22 a9bd
00000080: 8e65 08be 2f32 c33d 817c 32bc 542c 88bc
00000090: 4bbd dfbd 5b35 06be 5c22 32bd 01ca a3bd
000000a0: 5c35 ea3c 84c5 5dbc 47cd 30bd 61db 9b3d
000000b0: 98c3 81bd e575 2bbd e50a 1a3e 14f5 78bd
000000c0: 88db 0b3c c77a 6cbd 99f1 aabd 4f4c e33d
000000d0: 674f 123e a9c7 babc 9ff6 2c3d a113 82bd
000000e0: b1d8 023e 35fd 893e 900f b23d 4c32 c83c
000000f0: 65b7 9abd 8ad3 963d e65b fc3d 2913 923d
00000100: 66a1 90bd 406e 643c a936 fa3d a430 233e
00000110: a9ca d6bd 46fd 053e 8f70 533b 1daf 0cbe
00000120: 2372 743c a7ca a63d a1d4 65bd 19ff 71bd
00000130: b961 813d 5203 b03d d5b1 39bd 29ac 21be
00000140: 6dfe 853b ab96 b23d 6202 64bd 6acc 253c
00000150: 2aa6 cfbc 00bc 77bc c12e 60bd 0a35 6d3d
00000160: 0e42 0c3e e3de 03be 072d 13bb ed96 3abc
00000170: a867 88bd 5877 f03c 99ea 883d 8af8 d9bc
00000180: 445d f7bd e290 253e 687c 03be 0052 97bd
00000190: f62f f5bd 6ff5 673d 9471 803d e7dd 50bd
000001a0: 180e febd bc46 403d 05fb 39bc 6ab3 6cbc
000001b0: cf59 97bc 8ad8 c1bd def1 933d e529 3cbd
000001c0: 6d15 5cbb 4fbd 283d 2a3d 24bc 8ab8 143c
000001d0: cba4 a7bd dd95 923d 8aee b6bd 622c 8f3d
000001e0: e0a7 b8bd 202c 0b3d cdaf 91bd facf 00bd
000001f0: 3a50 03be a1af 4e3d c296 1ebe 44b2 e53d
00000200: d5e8 76bd 8e28 87bd 0453 803d 08cc 083d
00000210: b793 6ebc eaa0 173e 96cc 73bd 730a b2bd
00000220: 03f9 eebc 2cf9 ccbc 4169 dfbc 49ca c63d
00000230: 5116 d93c 3af5 34bd 39b7 623d d5f0 0bbe
00000240: 1b08 2cbd 28f2 c1bd 7bbc ce3d 68c5 bf3d
00000250: c9b1 e33d abeb 81bd 7e93 abbd 1361 ea3d
00000260: 7ee9 013e ad42 fd3d 6dcc 193d 5dc7 8abb
00000270: 6403 92bd 42bf 9d3d cbbf e53c dcc7 893d
00000280: d318 6b3d 19b2 a3bd c149 48bd 308e b9bd
00000290: b952 ea3d 8057 923d a6d2 0ebe 571b 20bd
000002a0: dbbd 31bc 0dae 08bd 0f5c 1ebd f7e9 053c
000002b0: 5ab8 66bd ba90 823d 538f da3d 00f1 39bc
000002c0: f024 93bc 0c4b 0e3e 59a3 063d 16f9 c53d
000002d0: f4ed 7a3d c71e fc3a 3725 253d 0da6 ab3d
000002e0: b89f 063d 97bc a23d c270 5a3d f954 3dbc
000002f0: 6d46 013d 4087 25be 6e01 063d 340e 193c
00000300: 4505 9b3c d8a4 673c 25b2 f73c 9cae 05be
00000310: 3f46 17bd 5867 a6bc 214e af3d f925 febc
00000320: 8e35 5b3d 4047 913d 096d 48bc e411 963c
00000330: 5a00 8f3b b276 d63c 4851 7ebd ba1a 5ebe
00000340: 427c dd3c 9162 993a f6ce 143e 96a0 093d
00000350: d623 cd3d 4aa9 b2bd 16f8 64bd 923b aabc
00000360: 5d4f f03d 57aa 453b 24ee 6cbd 5b74 26be
00000370: 3204 5f3e 0dfa 16be e444 a5bb 0d93 94bb
00000380: fb44 a93c e096 c3bd c7a6 943d 924b dfb9
00000390: 2d15 473e 0faa a63d cfb7 a6bd 0ed4 b03d
000003a0: 52b2 a0bd 897d 8fbd fe08 ab3c 0b83 eabd
000003b0: 02bd b0bb 9a81 7a3d 2e27 b3bd b50b b3bc
000003c0: ff47 d3ba 2ade 9fbd 076c 563d f3f0 ee3d
000003d0: b3ef 60be 8deb 413d b033 dd3d 6832 b83d
000003e0: 0bb3 123e e9c0 bcbc 2c2c a0bd 07e0 60bd
000003f0: 7450 e33c 3b5a 023d b717 9e3c 49fc 583d

conv2.bias f4 [30]
0.07612438 -0.21106397 -0.06331773 0.07359702 0.15659584 0.049807187 -0.008480987 -0.18591154
0.10271002 0.02193652 0.08854863 -0.107065864 0.059547983 -0.1299852 -0.040022783 -0.03402452
0.109325044 -0.010226509 -0.05034442 -0.089628406 -0.17433882 0.15841094 -0.08650973 0.08899832
-0.0732386 0.06025429 0.040228795 -0.10103267 0.081789 -0.033121962
00000000: 19e7 9b3d 2721 58be baac 81bd 09ba 963d
00000010: a95a 203e 9f02 4c3d d6f3 0abc 985f 3ebe
00000020: a259 d23d 37b4 b33c fc58 b53d 5945 dbbd
00000030: 96e8 733d d71a 05be eeee 23bd 4c5d 0bbd
00000040: cfe5 df3d 168d 27bc f335 4ebd 198f b7bd
00000050: e085 32be 7a36 223e 032c b1bd c044 b63d
00000060: 1efe 95bd 34cd 763d f3c6 243d 37ea cebd
00000070: fe80 a73d e5aa 07bd

conv3.weight f4 [1, 31, 1, 1]
-0.03798152 0.065755524 0.11775431 -0.02458424 -0.05235986 -0.041809168 0.13216573 -0.055811387
-0.14994337 -0.16922167 -0.006045724 0.17871453 0.100685336 -0.11632721 -0.017120337 -0.1225075
-0.040509596 0.16094361 -0.009954477 -0.12088775 -0.012498927 -0.1143096 0.0663309 0.096491456
-0.15021044 -0.15047751 -0.05485082 -0.11469996 -0.010207597 0.1699196 0.016220422
00000000: 8392 1bbd d5aa 863d 2c29 f13d e364 c9bc
00000010: 4b77 56bd 1740 2bbd 7456 073e 7b9a 64bd
00000020: c18a 19be 7248 2dbe 351b c6bb f100 373e
00000030: 1d34 ce3d f63c eebd f33f 8cbc 36e5 fabd
00000040: 64ed 25bd 67ce 243e 1a18 23bc ff93 f7bd
00000050: 4dc8 4cbc 271b eabd 7fd8 873d 509d c53d
00000060: c4d0 19be c716 1abe 41ab 60bd d0e7 eabd
00000070: c43d 27bc 67ff 2d3e b1e0 843c

conv1.weight f4 [2, 4, 3, 1]
-0.27435002 -0.12092472 0.24745458 -0.020737223 -0.09252216 0.21457778 -0.19657406 0.24758327
0.14560269 -0.116763555 0.15038295 0.1872813 -3.105591e-09 -1.8090228e-12 -7.9501705e-23 -9.679904e-23
0.0018852142 1.1356452e-31 3.1622718e-17 1.9470092e-06 -8.5488056e-32 -0.00038009335 -6.9847637e-15 -0.0020005677
00000000: 9b77 8cbe 61a7 f7bd bc64 7d3e 1ce1 a9bc
00000010: 427c bdbd 47ba 5b3e b64a 49be 7886 7d3e
00000020: df18 153e bb21 efbd fdfd 193e abc6 3f3e
00000030: 226a 55b1 ea98 feab 2c39 c09a b40b ea9a
00000040: 4b19 f73a 496a 130c 84d5 1124 5da9 0236
00000050: 8ff0 dd8b 4447 c7b9 13a7 fba7 f51b 03bb

conv1.bias f4 [2]
-0.25371787 -0.0005403266
00000000: 4fe7 81be b4a4 0dba

conv2.weight f4 [20, 2, 48, 1]
0.037661135 0.06772569 0.022520317 -0.047791317 0.025483718 -0.02742497 0.028094808 -0.04851949
-0.055336013 -0.017625755 0.033392236 -0.02367215 -0.003945015 -0.033877082 -0.04677182 -0.05538872
-0.034777496 -0.0051145046 0.033626698 0.070556976 0.006095722 0.023492634 -0.042761423 0.035500668
-0.03743267 -0.0049912836 -0.028824627 0.06504833 -0.021443428 -0.044847596 0.006502847 -0.01904865
0.024432128 0.053741165 -0.021530526 -0.033647485 -0.015709657 0.06219601 -0.035021227 0.01601183
0.053499013 0.025233729 0.0054652607 0.030242622 0.055468824 0.046194218 0.09070142 0.05095854
-1.6547254e-16 1.6267791e-32 3.534771e-28 -6.790028e-32 -1.4949344e-28 7.3267646e-32 2.0609021e-16 3.010075e-30
1.0190794e-16 1.6601858e-24 -8.07774e-21 -9.682332e-28 -2.2612204e-16 5.465226e-20 1.26795514e-23 -1.9443102e-24
-1.3231048e-18 3.1783994e-31 1.7409582e-24 -1.1275892e-31 -1.2525387e-31 -1.8752765e-19 1.0237964e-14 3.4913898e-31
-1.3617602e-25 1.0826096e-19 -5.831821e-32 5.3790255e-31 -2.1787285e-24 8.1225455e-33 -2.3331713e-16 3.6053815e-17
8.072397e-20 -2.916142e-30 1.9526773e-24 -3.0332863e-31 6.8479634e-32 -1.1587533e-25 4.3368566e-20 2.9216388e-27
1.2249489e-31 -1.4286806e-18 -4.8560293e-26 4.1055445e-32 -6.0583104e-32 1.3623365e-27 -8.294946e-30 1.2817646e-31
0.027441623 0.049279146 0.010765524 0.0077137635 -0.04377015 -0.03348947 0.04029951 -0.009798033
-0.023712214 0.04125052 0.00472714 0.045492485 0.021175636 0.048790976 0.026594486 -0.0023422053
0.037402418 -0.015273813 0.032662384 -0.042631358 -0.0141312415 0.027694931 0.0389724 -0.01819128
-0.047955804 -0.019759513 0.019996213 -0.012775878 0.009738546 -0.0043269186 0.0036531498 -0.018405385
-0.032564558 -0.03102785 0.013857018 -0.0058296984 -0.039483786 0.04194801 0.014703537 -0.0050644274
-0.02462193 0.034399282 -0.04224272 -0.016177654 -0.03268451 -0.02199387 -0.0063519506 -0.023982063
-3.0128276e-29 -1.2359253e-21 -1.753276e-29 7.6737305e-16 -1.4435094e-32 -1.0602203e-28 -2.2733725e-31 -5.5657995e-26
1.31015615e-17 7.153099e-22 2.7395824e-20 9.545074e-30 -1.2423701e-27 -9.402765e-20 4.8224456e-21 4.6932345e-31
1.5051881e-16 -6.1037884e-21 9.737451e-32 3.0039495e-14 -2.3699627e-16 -1.275191e-14 1.224851e-29 2.0799774e-29
-1.31669e-32 -6.702024e-33 7.840484e-28 -6.699223e-20 1.4248148e-26 1.3825248e-25 6.047595e-33 9.2083035e-15
-4.7741212e-17 -5.1281172e-23 -5.503635e-24 -1.2611601e-31 2.7051016e-16 6.1178495e-31 1.6292809e-21 3.7258155e-18
-3.6818293e-32 -6.3667904e-27 8.0143224e-32 4.7847043e-21 -2.1344413e-18 2.028272e-15 -2.564978e-24 -1.3237044e-29
-1.1099103e-15 1.43047e-15 1.3458226e-15 1.5919786e-15 -9.209621e-16 4.4050705e-16 1.4118947e-15 -7.257309e-16
-1.6857836e-15 1.7541122e-15 4.7567172e-15 1.5700245e-15 9.747458e-16 2.0459763e-15 1.3680403e-15 8.577646e-16
-1.533633e-15 1.592834e-15 -1.6754127e-13 -2.4373172e-15 4.281309e-15 -2.2043617e-15 6.0566456e-15 1.345865e-15
1.3693314e-15 -1.3401205e-15 -5.874953e-14 1.0469367e-15 -1.5577312e-15 1.1685704e-15 -1.82123e-15 -1.7386195e-15
-7.598147e-16 4.5786146e-15 -2.4817923e-15 6.249284e-15 -4.7956983e-16 2.987607e-15 3.9459504e-15 -2.7248362e-16
-1.2611662e-15 2.9548331e-16 5.400642e-15 1.7596385e-15 -9.462233e-16 1.0291507e-15 -7.1535924e-14 -1.7634149e-15
4.5831642e-21 -1.0736374e-18 1.00959546e-19 -1.3629949e-30 4.068623e-30 2.168333e-22 -3.679343e-21 1.1810096e-30
-6.0186882e-27 7.9235666e-35 -2.3245753e-33 -1.3535858e-28 2.9174771e-30 4.6606855e-28 5.4267856e-19 1.4009863e-28
00000000: 9042 1a3d c4b3 8a3d 877c b83c d4c0 43bd
00000010: 3bc3 d03c 55aa e0bc 1527 e63c 5fbc 46bd
00000020: 04a8 62bd e363 90bc 4cc6 083d 19ec c1bc
00000030: 2f45 81bb b2c2 0abd cf93 3fbd 48df 62bd
00000040: d972 0ebd 9397 a7bb 26bc 093d 2d80 903d
00000050: 9fbe c73b a073 c03c 9a26 2fbd 2669 113d
00000060: 0053 19bd ec8d a3bb a021 ecbc 0f38 853d
00000070: 21aa afbc 1db2 37bd d615 d53b ea0b 9cbc
00000080: e325 c83c b21f 5c3d c960 b0bc f2d1 09bd
00000090: 8ab1 80bc 3ec1 7e3d 6b72 0fbd 3e2b 833c
000000a0: c821 5b3d f7b6 ce3c ee15 b33b 60bf f73c
000000b0: 4733 633d 2636 3d3d abc1 b93d e7b9 503d
000000c0: e0c6 3ea5 35ef a80a f00a e011 7a47 b08b
000000d0: 6581 3d91 b436 be0b 189b 6d25 d034 740e
000000e0: d4fb ea24 5e73 0018 8e95 189e 346c 9992
000000f0: b959 82a5 440b 811f 1942 7519 086f 1698
00000100: 7c41 c3a1 384a ce0c 3bb3 0618 945e 128c
00000110: bd96 228c c164 5da0 476e 3828 aa9a e20c
00000120: e793 2896 bc9f ff1f 1967 978b 328f 2e0d
00000130: 2a92 2898 dcb2 280a 887f 86a5 d544 2624
00000140: a59a be1f e695 6c8e c214 1718 1ddf c48c
00000150: 86c8 b10b 5c72 0f96 61cd 4c1f e079 6713
00000160: e901 1f0c 07d6 d2a1 7c75 7095 0c2c 550b
00000170: 6148 9d8b efde d712 d23d 288f ef61 260c
00000180: 41cd e03c eed8 493d e161 303c bdc3 fc3b
00000190: 5448 33bd 412c 09bd 1911 253d ee87 20bc
000001a0: 1e40 c2bc 4ef6 283d 20e6 9a3b 5456 3a3d
000001b0: 8778 ad3c 0cd9 473d aedc d93c af7f 19bb
000001c0: 4733 193d 043f 7abc fec8 053d 389e 2ebd
000001d0: b986 67bc 7be0 e23c 86a1 1f3d e105 95bc
000001e0: 4e6d 44bd b4de a1bc 19cf a33c eb51 51bc
000001f0: 6c8e 1f3c d3c8 8dbb af69 6f3b e4c6 96bc
00000200: 6a62 05bd 1e2e febc 8c08 633c 0e07 bfbb
00000210: c0b9 21bd add1 2b3d 1be7 703c 7ff3 a5bb
00000220: eeb3 c9bc 43e6 0c3d b406 2dbd 0087 84bc
00000230: 31e0 05bd 7d2c b4bc 0624 d0bb 0876 c4bc
00000240: bdc4 1890 8bc4 ba9c a6cd b18f 232e 5d26
00000250: 10e7 958a 1e66 0691 e18c 938c 72cd 8995
00000260: 60ae 7123 6c30 581c 855f 011f dc98 410f
00000270: 85dc c492 3a04 de9f d52f b61d de4d 180d
00000280: 5089 2d25 3898 e69d 76cc fc0b 2e49 0729
00000290: 7a9e 88a5 ceb7 65a8 e66d 780f 4def d20f
000002a0: a0bb 888a 1232 0b8a 9079 7812 512e 9e9f
000002b0: 591b 8d14 f625 2b16 1035 fb09 cee1 2528
000002c0: e02a 5ca4 04fb 779a 5ce9 d498 3cb5 238c
000002d0: 41f0 9b25 1b89 460d c035 f61c 5575 8922
000002e0: e82b 3f8b ed36 fc93 4f10 d00b d2c2 b41d
000002f0: 757e 1da2 0427 1227 a074 4698 553d 868f
00000300: 76f4 9fa6 0727 ce26 17f4 c126 a56d e526
00000310: 81b9 84a6 5eef fd25 b879 cb26 7d2d 51a6
00000320: 70f2 f2a6 51cb fc26 f960 ab27 ae43 e226
00000330: c679 8c26 9a6d 1327 c727 c526 db3b 7726
00000340: 1205 dda6 348d e526 7ca2 3caa 91a0 2fa7
00000350: 1b40 9a27 4cd7 1ea7 b236 da27 a8f5 c126
00000360: 6957 c526 b821 c1a6 cc4a 84a9 26e1 9626
00000370: 237e e0a6 a368 a826 c43b 03a7 bd8f faa6
00000380: 6e00 5ba6 44f6 a427 fdd4 32a7 7927 e127
00000390: 023a 0aa6 9f47 5727 f82a 8e27 7c13 9da5
000003a0: d2c0 b5a6 a455 aa25 2194 c227 3497 fd26
000003b0: 7a5d 88a6 f650 9426 a715 a1a9 8722 fea6
000003c0: a525 ad1d e070 9ea1 4d62 ee1f 9828 dd8d
000003d0: ff0a a50e 5411 831b 6c00 8b9d 38a1 bf0d
000003e0: c06c ee93 00a5 d206 401e 4189 5f96 2b91
000003f0: a1b1 6c0e f9b3 1312 a22b 2021 9b98 3111

conv2.bias f4 [20]
0.07881539 -0.043930024 -8.3681044e-13 -0.0036423479 -0.0067909453 0.08538953 0.07062671 0.059194725
0.06755029 -0.008103271 -0.011592903 0.09848751 -0.03898755 2.0553322e-16 -0.052316535 -4.0469677e-05
0.047751524 0.121493205 0.0387756 0.060597677
00000000: f769 a13d f8ef 33bd 8c8a 6bab 75b4 6ebb
00000010: 9486 debb b5e0 ae3d bda4 903d 2b76 723d
00000020: ce57 8a3d 95c3 04bc 29f0 3dbc d2b3 c93d
00000030: 69b1 1fbd b3f6 6c25 dd49 56bd fcbd 29b8
00000040: 1a97 433d 6ed1 f83d 2ad3 1e3d 4535 783d

layer3.weight f4 [1, 66]
0.051281396 -0.08245208 -0.08673806 0.015297846 -0.02769997 -0.022980321 6.8489123e-15 3.5004365e-15
-1.0505282e-14 0.008086116 0.007641392 0.009037848 0.09788975 -0.06026801 0.10465903 -0.08607528
-0.0014085583 -0.13099743 0.09579221 0.049480475 0.0925855 -0.036770023 0.009765506 -0.104570545
-0.1555948 0.06843284 0.022277577 0.019240452 0.06912193 0.013796867 -0.07397326 0.042945687
0.018750865 -0.021023307 -0.020513335 -0.08986073 -0.021917012 0.07143948 0.0768114 9.951046e-30
1.0610789e-10 -5.8473144e-32 -0.039728876 0.02196867 -0.015009691 -0.0008571083 -0.0008349419 0.00031824587
-0.020872388 -0.022984749 -0.0067240195 -0.07166405 0.09205498 -0.16899459 -0.03374684 0.10265539
-0.0046838825 0.0656017 0.023123434 -0.045445383 -0.12508044 0.10156366 -0.08232302 4.2192097e-14
-0.072034426 0.0116043165
00000000: 710c 523d a3dc a8bd b9a3 b1bd d1a3 7a3c
00000010: 0ceb e2bc 3a41 bcbc 11c2 f627 a83b 7c27
00000020: 103f 3da8 a17b 043c a464 fa3b 7b13 143c
00000030: 6c7a c83d 97db 76bd 7957 d63d 3d48 b0bd
00000040: 609f b8ba 3124 06be b52e c43d 0aac 4a3d
00000050: 779d bd3d 2a9c 16bd 80ff 1f3c 1529 d6bd
00000060: 3e54 1fbe 8426 8c3d 777f b63c 279e 9d3c
00000070: cc8f 8d3d 410c 623c 4b7f 97bd d1e7 2f3d
00000080: 6a9b 993c 1239 acbc 950b a8bc e708 b8bd
00000090: 4e8b b3bc dd4e 923d 4c4f 9d3d c9d4 490f
000000a0: 6f55 e92e 12ce 978b bfba 22bd a4f7 b33c
000000b0: 35eb 75bc 90af 60ba 01e0 5aba 3dda a639
000000c0: 92fc aabc 834a bcbc 2a55 dcbb 9ac4 92bd
000000d0: 5287 bc3d eb0c 2dbe 203a 0abd fd3c d23d
000000e0: 417b 99bb 2f5a 863d 5b6d bd3c f024 3abd
000000f0: 1615 00be 9c00 d03d f998 a8bd 2d04 3e29
00000100: c986 93bd 0820 3e3c
