Ryan_ddpg-stock-trading-code/data/DDPGAgent-ddpg-20200430_14-48-25-model-PortfolioEnv.bin (torch_old, 21847 bytes, 10 tensors)

conv1.weight f4 [2, 4, 3, 1]
00000000: eaa6 edbd 90a0 d0bc 2076 2abd 199f 73be
00000010: 7a72 65be 6c27 62bd 6034 453c 7687 3b3e
00000020: f06b 263e 7490 ebbd 3c7a 983d dc1a 43be
00000030: 6ca0 633e fc2b 15be 60c0 54bd 006c d5ba
00000040: d4ab 1f3e 7b44 8bbe ee5a b2bd 8876 12be
00000050: ac37 853e 6063 08bd 5557 3bbe a4cb ae3d
-0.11604102 -0.025467187 -0.04161656 -0.2379116 -0.2240695 -0.055213377 0.012036413 0.18313393
0.16252112 -0.115021616 0.07445189 -0.19053215 0.22229165 -0.1456756 -0.051941276 -0.0016282797
0.15592891 -0.27200684 -0.0870875 -0.14303029 0.26019037 -0.033297896 -0.18295033 0.08534935

conv1.bias f4 [2]
00000000: 1d1f 8fbe 686e 163e
-0.27953425 0.14690554

conv2.weight f4 [30, 2, 48, 1]
00000000: 4afb 36bd 2271 913d 18dd bf3c 8c4e 073d
00000010: b88a d83c c8c7 4cbc a4a8 abbd 6a06 b13d
00000020: 8015 0e3d a800 94bc 1a11 b13d aa91 9fbd
00000030: 795d a8bd 7ec2 c33d 303c 4b3d c87d 133d
00000040: 3eeb b4bd e889 a23d f03e 95bc e8c9 313c
00000050: 8481 0abd fc41 b4bd c863 483d 04c2 513d
00000060: f8da d4bc 4ea9 ad3d d0b8 813d 8224 c6bd
00000070: 70b7 91bc 882d 1b3c 30d6 babd d299 7fbd
00000080: 60fa 6c3c b28f cf3d c0d8 dfbc f4d8 21bd
00000090: f126 aebd 0678 04bd f0a8 6b3c d694 903d
000000a0: 6051 c23d 00fe 833a e058 143c 56a7 b83d
000000b0: 789b 083d d06d 8cbb fe9b 8c3d 30c8 a53c
000000c0: 56c8 c1bd ac1d 93bd 7b01 92bd 14b3 87bc
000000d0: 0851 6b3c 80b5 b73d e037 f0bb 4841 b93d
000000e0: 3027 013d f8e7 4ebc d091 723d 4c9b c83d
000000f0: b84e ef3c 7a3c c13d 6858 81bd 1c7c 9c3c
00000100: 34c8 113d c809 a73d b8f9 7cbc 7c9b 523d
00000110: 389d ed3c e08f a33b 805e 7e3b b294 31bd
00000120: 93b3 c5bd 30fe a6bd a8fb 853d 5571 b5bd
00000130: 6f1c 65bd ec64 91bd 8245 68bd fe8c 813d
00000140: ea03 853d f49a f6bc d0d5 38bc 70f7 99bb
00000150: fa33 b73d 149f bcbd 9054 c03c dc7c 773d
00000160: 9080 ba3c 78ce 0abd 0aa4 933d 05a5 7bbd
00000170: a4bd 823d 0c6b cd3d 3247 bb3d 5ff5 cfbd
00000180: c10f 29bd 42e0 96bd 211c 53bd 46d2 d0bd
00000190: cdc6 3cbd 0046 0bbc b15c bdbd 181f 2bbc
000001a0: b5e2 24bd a0a2 49bc ca82 b6bd 4503 c3bd
000001b0: b818 66bd 45b3 a5bd 8074 a5bb 00c1 8fb9
000001c0: 3b53 cebd 5c7d 8d3d bc66 b8bd acec 3ebd
000001d0: 20c1 e23c a2fe ac3d b0ed b1bd 4756 4ebd
000001e0: ccd3 b03d 04e6 62bd 28d4 043d c421 bbbc
000001f0: f4d0 c4bc 1299 b63d d440 393d 8c08 97bd
00000200: 3f4b a2bd b0d3 633d 18bf c33c 44e1 88bd
00000210: f871 393d 104d 02bc 86d8 2ebd 0085 ce3a
00000220: 0083 5a3b fcc1 8d3c 52df b93d d682 27bd
00000230: 5a4a 9f3d b00c b13d c2cc a93d c010 2b3c
00000240: 2ca1 8cbd ec2a c53d 60ba 203d cc16 473d
00000250: 843e 623d 9e0e c1bd 4c76 96bc d4df b2bc
00000260: 2834 32bc e2ee 9c3d 9024 403c 9caf 003d
00000270: 7472 3fbd 70c1 b93d 6ec2 d03d c083 32bd
00000280: f45d a9bc ccf6 2b3d fc17 44bd 88f1 d63c
00000290: 2069 b53c 9c3f dcbc 7898 c93d 00a7 9cbc
000002a0: af07 babd a843 5fbd 2004 bb3d 8480 643d
000002b0: c835 b8bc 1808 b63c 00c3 bb3d 1044 90bb
000002c0: c8fc 50bc 4458 283d 68e7 1e3d a800 1f3d
000002d0: 2c61 663d 31dc cbbd 846f a6bd 007b 15bb
000002e0: 7e07 d03d 01b2 38bd 461c 873d 1033 9d3b
000002f0: 4020 5ebb 48ad 1c3c f8d1 31bd 1183 c4bd
00000300: de01 9abd bc81 a53d ec3a 03bd 2224 9fbd
00000310: bf29 83bd 49dd 6dbd c4ab 753d 35d3 35bd
00000320: d2b1 20bd d935 33bd 4dbc 91bd 2eea 903d
00000330: 30af 8a3b 7090 39bd 081e ffbc b315 64bd
00000340: 7632 90bd f83c fa3c 36b8 8dbd 4cb4 0d3d
00000350: b8a6 093c c291 1abd f85b ccbc fc16 b03c
00000360: 42a6 c03d b16b 9ebd 00ed dbbb f084 9b3c
00000370: 22bc ac3d 2c59 783d 2004 9abd 8065 9f3d
00000380: b0d4 b13b b856 513c dc0b bfbc 048e 043d
00000390: 64eb 17bd dc9c 1ebd d0e3 d1bb 36d6 cabd
000003a0: f81f af3d 242f b8bd 4827 a6bc 6c4e c43d
000003b0: 7cfc 0fbd e65e ce3d 3417 18bd a3fd cbbd
000003c0: 40bc 073b d0b8 d03d dcb2 9ebc dc9a 623d
000003d0: 5869 9fbd 3522 91bd e4d3 9e3c 9c96 a63c
000003e0: b49e 81bd ec91 983d d048 e03c a0b0 c73b
000003f0: daab a93d d071 973d 9451 973d 4006 bfbb
-0.04467324 0.071016565 0.023420855 0.033033893 0.026433334 -0.012498803 -0.08381775 0.086438015
0.034688473 -0.01806672 0.0864584 -0.07791455 -0.082209535 0.09558581 0.049617946 0.036008626
-0.088339314 0.0793646 -0.018218488 0.010851361 -0.033814922 -0.08801648 0.048923284 0.05121042
-0.025983319 0.08479558 0.06334078 -0.09674932 -0.017787665 0.009471305 -0.09122884 -0.062402554
0.014463991 0.101348296 -0.027325034 -0.039513543 -0.08503521 -0.032341026 0.01438354 0.07059638
0.09488177 0.0010070205 0.009054393 0.09016292 0.03335139 -0.0042855516 0.06865691 0.020237058
-0.09462039 -0.07183394 -0.071291886 -0.016564883 0.014362581 0.08970165 -0.0073308796 0.090456545
0.031531513 -0.012628548 0.05922109 0.097952455 0.02921234 0.09435363 -0.0631569 0.019102149
0.03559132 0.081561625 -0.015440397 0.051417813 0.029005632 0.0049915165 0.003881365 -0.043354698
-0.09653392 -0.08153951 0.0654214 -0.08859507 -0.05593532 -0.070993274 -0.056706913 0.0632572
0.06494887 -0.030103184 -0.011281446 -0.0046986863 0.089454606 -0.09210029 0.023477823 0.06042181
0.022766382 -0.03388831 0.07209022 -0.06143667 0.06383827 0.10030183 0.09144439 -0.10154223
-0.04127479 -0.073669925 -0.051540498 -0.101963565 -0.04608803 -0.008500576 -0.09246195 -0.010444425
-0.040255267 -0.012306839 -0.08911665 -0.09522108 -0.056175917 -0.080908336 -0.0050492883 -0.00027418882
-0.10074469 0.06908676 -0.0900397 -0.046612427 0.02767998 0.08447005 -0.086879134 -0.05037525
0.08634147 -0.05539514 0.03242889 -0.02284325 -0.024025418 0.089159146 0.04522784 -0.07374677
-0.07924508 0.055621803 0.023894832 -0.06683591 0.045274705 -0.007952943 -0.04268696 0.001575619
0.0033342242 0.017304413 0.09075798 -0.04089626 0.07777853 0.08644998 0.082910076 0.010441005
-0.068666786 0.09627327 0.03924024 0.048605725 0.0552354 -0.09426616 -0.018366955 -0.021835245
-0.010876693 0.07662751 0.011727467 0.031417474 -0.04674001 0.090700984 0.101933345 -0.043582678
-0.020674683 0.04198341 -0.047874436 0.026238218 0.022144854 -0.0268858 0.09843534 -0.0191226
-0.09083497 -0.05450788 0.09131646 0.055786625 -0.022486582 0.022220656 0.09168053 -0.004402645
-0.01275558 0.0410998 0.038794905 0.038818985 0.056245014 -0.099541076 -0.08126739 -0.002280891
0.10157679 -0.045091633 0.065971896 0.004797347 -0.0033893734 0.009562798 -0.043413132 -0.095953114
-0.075198874 0.080813855 -0.032038614 -0.07770564 -0.06404447 -0.058072362 0.05997826 -0.044390876
-0.039232083 -0.043752525 -0.07115994 0.07075916 0.0042323098 -0.045303762 -0.03114225 -0.055684756
-0.07040875 0.03054665 -0.06919901 0.034595773 0.008401565 -0.03773666 -0.024946198 0.021495335
0.09406711 -0.07735384 -0.006711602 0.018984288 0.08434321 0.060631916 -0.07520318 0.077830315
0.0054269657 0.012777023 -0.023321085 0.032362 -0.03708972 -0.03872381 -0.006405331 -0.09904139
0.085510194 -0.08993366 -0.020282403 0.0958527 -0.035152897 0.10076694 -0.037131503 -0.09960487
0.002071157 0.101915 -0.019372396 0.055323467 -0.077837646 -0.070866026 0.019388147 0.020335488
-0.06329098 0.074497074 0.02737847 0.0060940534 0.08284731 0.07394755 0.07388607 -0.0058296025

conv2.bias f4 [30]
00000000: e08b 103b fa7f c3bd 38b9 c33c 404a c9bb
00000010: 0e01 01bd 72e1 ab3d 62d7 66bd d6a2 5dbd
00000020: 9447 c4bd c8e9 abbd dc01 823c 4dfb 9cbd
00000030: 6037 67bc 4b9c 83bd 2fd5 a1bd 08a2 383c
00000040: eaca 983d 599a c3bd 8036 2e3d 0087 ce39
00000050: c686 c4bd 9ce7 c2bd 5c77 973d 5827 c3bd
00000060: a039 393d d443 e4bc 9cb8 003d 1285 9f3d
00000070: 80a9 54bc 9ade cd3d
0.0022056028 -0.09545894 0.02389203 -0.0061428845 -0.031495146 0.0839261 -0.05635775 -0.05411037
-0.09583965 -0.083941996 0.015870027 -0.07665119 -0.0141123235 -0.06426295 -0.0790199 0.0112691
0.07460578 -0.09550924 0.042532444 0.00039391965 -0.095960185 -0.09516832 0.07395813 -0.095289886
0.04522097 -0.027864374 0.031426057 0.07789053 -0.012979865 0.100522235

conv3.weight f4 [1, 31, 1, 1]
00000000: 9a9c 2ebe 28c6 0abd 5e33 07be 38fa b63c
00000010: eb67 2abe 8cb2 be3d d684 ffbd 2a2e 32be
00000020: d0ef 333e b9d7 17be 3027 f63d 10bb 0cbe
00000030: 6c1a 413d dc8e 1a3e 316e 12be e9ba b6bd
00000040: dc0c 813d ec14 a13d b450 dcbd aeb5 26be
00000050: d8a7 e13d 0cca 1abd f61d 2b3e 2070 be3b
00000060: 8057 c8ba 1830 dc3d 40ae d53b b85d 9e3d
00000070: 2016 eebb 0cc4 093e 4a55 69bd
-0.17051926 -0.033880383 -0.13203189 0.02233611 -0.16641204 0.09311399 -0.12476508 -0.17400423
0.1757195 -0.14828385 0.12019193 -0.13743234 0.04714434 0.15093559 -0.14299847 -0.08922369
0.06301281 0.07865319 -0.107575804 -0.16280243 0.11018342 -0.037790343 0.16710648 0.005811706
-0.0015284866 0.10751361 0.0065210164 0.07732719 -0.007265821 0.13453692 -0.056966104

conv1.weight f4 [2, 4, 3, 1]
00000000: 808d 013c 7cb1 823e 4797 0ebe 0f08 00be
00000010: a487 543e 943d 5d3e 803a 5c3e 8b95 63be
00000020: 989e 213d 4c5d e2bd 00c6 743e 0c39 e93d
00000030: b0af f83c 68e3 1bbe c2a5 063e f062 d6bd
00000040: 0b7a 1fbe 24b1 923e 5c07 45be d642 0e3e
00000050: df4c 86be 0070 403c 0a80 94bd 2039 1f3c
0.007907271 0.25526035 -0.13924895 -0.12503074 0.20754868 0.21605521 0.21506691 -0.22225015
0.039457887 -0.11052951 0.23903656 0.11387834 0.030357212 -0.15223467 0.13149169 -0.104680896
-0.155739 0.28650773 -0.19241089 0.13892683 -0.26230523 0.011745453 -0.07250984 0.0097182095

conv1.bias f4 [2]
00000000: 7096 62be 2003 243c
-0.221277 0.010010511

conv2.weight f4 [20, 2, 48, 1]
00000000: 73f1 bcbd 386f ea3c 756c 81bd 8acf 8fbd
00000010: 7866 0bbc 00e5 4b3d 8c94 f9bc 10ac 0abc
00000020: 6c4e 3d3d 5203 a03d 47b6 7dbd 9ce3 593d
00000030: 0f12 a0bd 303b f83c c0dc 85bd d8b2 ce3d
00000040: a832 ee3c 6036 a0bb 6826 203d e95f c8bd
00000050: 8adc b73d a84b 213d 28af 113c 54f0 8f3d
00000060: 4881 0bbd 8002 d63c 30be 453c 4ae4 6cbd
00000070: 989c e53c 80ac a73d 10e5 12bd e479 c3bd
00000080: 2ed9 c93d 9401 a5bc 004f 613c 5980 cbbd
00000090: 4d50 c1bd 74f6 8c3c 2085 59bc 68d4 bcbd
000000a0: 82e4 a53d 8043 0ebd 2cfa 443d 1459 86bd
000000b0: 9a5c c93d 2c59 5a3d 3e40 b4bd 4304 b2bd
000000c0: 4846 6ebd 24cd 6f3d da94 92bd c038 4c3d
000000d0: 8852 04bd 38b5 873c 2419 a73d f2fd 23bd
000000e0: 9c53 8e3d 647c a43d d4dd 873d cc46 e8bc
000000f0: 94c7 9dbd 6eec 00bd 14ba 99bd 685b 443d
00000100: f858 d83c 9044 e8bb 8813 3c3d cc96 3c3d
00000110: 88e8 643d ec6f 8dbc e051 113b 20b4 533c
00000120: 3cdf 44bd ac84 283d a066 4e3d 00fc e13a
00000130: d6ec 8d3d 7cc6 65bd 6023 5e3d 0a0f 0bbd
00000140: e0b7 7ebb 60af 15bc f4e7 67bd a25b a7bd
00000150: ec61 333d 40e1 ae3c 2893 cdbc e51b 50bd
00000160: 5cac c43d 507d c6bb c811 58bc 809e 403a
00000170: 9c39 c93d d664 0fbd e041 e03c 01fa 7ebd
00000180: a799 25bd 0f1b a9bd 6a81 69bd 65b7 48bd
00000190: 90e8 b23c 1056 ac3b ffc8 9abd 0660 b73d
000001a0: 9774 cfbd 5be4 a3bd 3684 a13d 5254 7ebd
000001b0: 8817 5f3c 80c8 77bd 3336 c5bd 986b 2abc
000001c0: a8a8 b9bd c543 d0bd 5286 22bd e0a8 f9bc
000001d0: d8d7 9fbc 26b6 74bd 58a3 b23d a427 b23d
000001e0: be7c 933d 6434 bfbc d02c 9e3b 80fe 513d
000001f0: a55d 5abd 0cf2 323d 6037 573b e4ea 87bd
00000200: 2481 af3d f413 a33c f82e 573d 32e5 ccbd
00000210: f024 a63b 2262 99bd 601f a5bd 9476 99bd
00000220: 2816 c93d 70f6 f2bc 6807 303c 2548 a7bd
00000230: 02d7 aabd 5bb4 cdbd 32dc 83bd 5c0b 783d
00000240: bfab adbd 8d67 b3bd b05e 7abc 10d8 983b
00000250: 0087 f63c 007b c7ba e090 78bb d80c aabd
00000260: 1426 2abd 421c 84bd cc7c 2dbd 187f 423d
00000270: c249 cbbd a057 b3bd 0c89 323d 5107 47bd
00000280: 5ce4 3a3d ab1f 4cbd a12c 8fbd 2c92 1b3d
00000290: 2802 a13c c881 f2bc c3dc cabd c5af 9ebd
000002a0: c4a3 793d b47b b43d ee9c 96bd b821 84bc
000002b0: 20f9 1dbc 1c87 773d d751 2ebd a02f 2dbc
000002c0: 1679 6cbd 3ca4 383d e07f fdbb f822 3e3d
000002d0: 6239 1bbd 263a 49bd 7ce0 8c3c e0c5 0d3b
000002e0: c02e 36bb 78f8 8d3d e058 98bd db51 94bd
000002f0: 90dd 313d 2e2e adbd 9803 cabd 80df 3e3c
00000300: 544b 263d 6471 943d a870 863c 26ed 6fbd
00000310: 7089 843c 68c9 253c c257 a03d d0c6 58bd
00000320: aa7c a4bd f252 a33d ad13 48bd a04a df3b
00000330: 101b 8abc 6210 aabd dc91 a7bc 80fc 88bc
00000340: 58c7 653d 018c 5fbd d667 cd3d 07cd 69bd
00000350: b09a a13c 91a0 a7bd 24ef 123d c853 843d
00000360: cc1a 313d eea3 acbd fc73 cdbc d8bf 50bd
00000370: 9e79 babd d6bf ab3d 380b bcbc 2059 29bc
00000380: fc41 09bd f814 923d 1de3 80bd 90cc dfbb
00000390: 431e d0bd b4ed b93c d02e 8d3c 805c 203d
000003a0: 606f 7fbd 590a 36bd 4c9f 8abd 9068 7d3d
000003b0: 8854 c43d 80a9 f73b 85be c3bd 44c3 cc3d
000003c0: 55d2 78bd 588b 89bd 2c36 0a3d d8bd 6f3c
000003d0: 047f ac3c b0f5 b8bb fff7 83bd 6c77 883c
000003e0: 8843 b13d 564d 893d 70d7 603d 7199 b3bd
000003f0: b8df 9b3c 188f 2dbd 1cb7 88bd 4a17 a33d
-0.0922574 0.028617486 -0.06319515 -0.07022007 -0.008508317 0.04977894 -0.03046634 -0.008463874
0.046217367 0.07813133 -0.06194141 0.05319558 -0.078159444 0.03030166 -0.06536245 0.100927055
0.02907689 -0.0048892945 0.039099127 -0.097839184 0.08977611 0.039378792 0.008891858 0.07028261
-0.03405884 0.026124239 0.01206927 -0.0578349 0.028028771 0.08187199 -0.035862982 -0.09544733
0.09855877 -0.020142354 0.013751745 -0.0993659 -0.09439144 0.017207362 -0.013276368 -0.09220201
0.08100225 -0.03473234 0.048090145 -0.06559959 0.098321155 0.053307697 -0.08801316 -0.08692219
-0.058172494 0.058545247 -0.071572974 0.04985881 -0.03230527 0.016565904 0.08159092 -0.040037103
0.06949541 0.08031538 0.06634107 -0.028354071 -0.07704082 -0.031475477 -0.07506195 0.047938734
0.026409611 -0.0070882514 0.045917064 0.04604225 0.05588582 -0.017265283 0.0022174045 0.012921363
-0.048064455 0.04114215 0.05039084 0.001724124 0.069299385 -0.056097493 0.054232955 -0.03394989
-0.0038866922 -0.009136051 -0.056617692 -0.081717744 0.043794557 0.021347642 -0.025094584 -0.050807852
0.096031874 -0.006057419 -0.013187833 0.0007347837 0.09825441 -0.035008274 0.027375162 -0.06225014
-0.040429737 -0.08257114 -0.057008184 -0.049003024 0.02183941 0.005259283 -0.07557868 0.08953862
-0.101296596 -0.0800254 0.07886545 -0.062092133 0.01361645 -0.060493946 -0.09629478 -0.010401629
-0.09065372 -0.10169176 -0.03967888 -0.030476034 -0.019512102 -0.059744023 0.087225616 0.08698967
0.07201527 -0.023340411 0.0048271194 0.0512681 -0.053311963 0.043687865 0.0032839403 -0.06636599
0.085695535 0.019906975 0.052535027 -0.10004653 0.0050703213 -0.074894205 -0.08062625 -0.0749332
0.09818679 -0.029658526 0.010743953 -0.08168057 -0.08341791 -0.10044166 -0.06438483 0.06055771
-0.084800236 -0.08759985 -0.015281364 0.0046644285 0.03009367 -0.0015219152 -0.003792815 -0.08303231
-0.04154022 -0.06450702 -0.042355344 0.047484487 -0.099261776 -0.087569475 0.04358773 -0.04859096
0.045627937 -0.04983489 -0.06990934 0.037981197 0.019654348 -0.0296029 -0.09905388 -0.07748369
0.060947195 0.08812657 -0.07354151 -0.01612936 -0.009641916 0.060431585 -0.042558517 -0.010570437
-0.057732664 0.0450785 -0.007736191 0.046420068 -0.03789652 -0.04912772 0.017196886 0.0021632835
-0.0027798861 0.06932157 -0.074388266 -0.07242175 0.04342419 -0.08456074 -0.09863967 0.011649966
0.040599182 0.0724819 0.01641114 -0.05857577 0.016178817 0.01011882 0.078292385 -0.052923977
-0.0803159 0.07974805 -0.04884689 0.006814316 -0.016858608 -0.08303906 -0.020455293 -0.016721964
0.056098312 -0.054576878 0.10029571 -0.057080295 0.019727081 -0.081849225 0.035872594 0.064612925
0.043238446 -0.084297046 -0.02507972 -0.050964206 -0.09105228 0.08386199 -0.022954568 -0.01033619
-0.033510193 0.07132906 -0.062933184 -0.0068298057 -0.10162022 0.022696353 0.017234236 0.039150715
-0.062362075 -0.044443462 -0.06768665 0.061867297 0.095864356 0.007558048 -0.09557823 0.099981815
-0.060747463 -0.06716031 0.03374307 0.014632665 0.02105666 -0.0056445226 -0.06443786 0.016658507
0.08655459 0.06704204 0.054892957 -0.08769501 0.019027576 -0.042372793 -0.0667555 0.079634264

conv2.bias f4 [20]
00000000: 5ccb c1bc aa2a 873d 60ae e23c 7806 b0bc
00000010: 645c e6bc 44a7 233d 79d4 62bd e449 e4bc
00000020: d0e5 44bc 3e2d bb3d 00a1 433b 4c73 a83d
00000030: e48d b73d b09f af3d 0c6b babd c8ab a5bd
00000040: 889b 733d f4f5 cd3d b062 31bc 8863 1cbd
-0.02365654 0.065999344 0.02767104 -0.02148746 -0.028120227 0.03995444 -0.05537841 -0.027867265
-0.012017682 0.09139489 0.0029850602 0.08225116 0.0896261 0.0857538 -0.09102449 -0.08089405
0.059474498 0.100566775 -0.010826752 -0.038180858

layer3.weight f4 [1, 66]
00000000: c046 053b e8a9 9a3c c88d da3c 3c24 edbc
00000010: 8236 50bd d479 b0bd f408 2cbd 1c7a 9fbd
00000020: 585a 0dbd 1a2a ad3d e461 1dbd 1c46 abbc
00000030: 6a88 9e3d 5e26 dfbd 2823 37bc 805f b33c
00000040: 4c0b 61bd f2a5 a13d 2c86 7f3d e058 5d3d
00000050: b8ff e33c e094 70bc 3aec 6abd 485e 3c3d
00000060: ead5 b53d c720 7dbd 9697 c0bd a046 4ebc
00000070: 14ae 353d 7809 d03d 7ad3 bb3d 2e8b c23d
00000080: f42e aa3d 28d3 b73d 9343 eabd 6e6e 24bd
00000090: fc5f f33d 6e0c eb3d 0477 743d 5453 8abd
000000a0: efb9 abbd 28f6 223d 1e0b ed3d f83e d63c
000000b0: 84b4 bdbc 021c 893d 00df 933d 50db cabb
000000c0: daf9 73bd c657 09bd 5469 30bd d050 233d
000000d0: 4e2a 19bd 5cc4 b9bc 0858 7d3d 3adc f0bd
000000e0: 1855 e23d 124d 3dbd d806 ef3c aed4 e4bd
000000f0: 2e63 02bd 22ee 95bd a078 a93b ff5a 81bd
00000100: 1cb9 9c3d 0027 fc39
0.002033636 0.018879846 0.026678935 -0.028947942 -0.050833233 -0.08616987 -0.042000726 -0.077869624
-0.034509987 0.08455296 -0.038423434 -0.020907454 0.07740863 -0.1089599 -0.0111778155 0.021896124
-0.054942414 0.0789298 0.062383816 0.054039836 0.027831897 -0.014683932 -0.05735419 0.04598835
0.088786915 -0.061798837 -0.09403913 -0.0125900805 0.044355467 0.10158056 0.09171195 0.09499203
0.08309737 0.08975822 -0.1143867 -0.040144376 0.11883542 0.1147698 0.059683815 -0.06754175
-0.083850734 0.039785534 0.11574386 0.026153073 -0.023157366 0.06694795 0.07220268 -0.006190695
-0.05956445 -0.033530973 -0.0430692 0.03987199 -0.03739386 -0.02267664 0.06185153 -0.11760755
0.110513866 -0.046216078 0.029178068 -0.11173378 -0.031832866 -0.07320811 0.0051718503 -0.06316184
0.07652494 0.00048094243
