Ryan_ddpg-stock-trading-code/data/DDPGAgent-ddpg-20200430_21-55-42-model-PortfolioEnv.bin (torch_old, 21847 bytes, 10 tensors)

conv1.weight f4 [2, 4, 3, 1]
000000 dc d2 48 3e fd 34 f7 bc b2 15 d4 3d f0 61 c3 3e
       0.19611686 -0.030176634 0.103557006 0.38160658
000010 32 f2 87 3e 1e bd 10 3e 33 5d 35 be 8b 7c a2 bb
       0.26551968 0.14134642 -0.17711334 -0.0049586943
000020 a6 28 0c bc a3 04 0e 3e f3 3c 55 3d 84 32 5b 3c
       -0.008554613 0.13868956 0.05206008 0.013378743
000030 e3 5e 78 bd b2 28 34 3e a6 47 31 3e b9 a7 87 be
       -0.060637366 0.17593649 0.17312488 -0.2649515
000040 8f 20 06 bd 2b 60 84 be 1e c3 04 3e 98 7d 66 3d
       -0.032745894 -0.2585462 0.12965056 0.05627212
000050 dd ec 32 3d 9c 4b 93 be 0b f8 64 3e 86 56 00 3e
       0.04368292 -0.28768623 0.22360246 0.12533006

conv1.bias f4 [2]
000000 fc 0e 78 be 14 36 27 bd
       -0.24224466 -0.040823057

conv2.weight f4 [30, 2, 48, 1]
000000 3e 56 7f be d0 ab 64 3d 96 ed 18 be c5 b2 d7 3d
       -0.24935243 0.055827916 -0.14934382 0.105321445
000010 8a cf 98 3b ec e5 c8 3b 90 9e 24 3e db d3 54 3d
       0.0046634125 0.0061309244 0.16076112 0.051959854
000020 f6 df ae bc 79 db 97 3d fc a5 82 3c e5 45 8d bc
       -0.021347027 0.07414908 0.015948288 -0.017245242
000030 7e c7 49 bd 6e ff 17 3e cb d8 24 be 24 bc ff bd
       -0.049262516 0.14843532 -0.16098325 -0.12487057
000040 ce 41 75 bd ec a8 57 bd f0 2f 19 3e e0 66 ca bd
       -0.05987721 -0.05265133 0.14959693 -0.09882903
000050 55 01 c8 3c e1 53 b6 3d 5a ce ba bb 50 a4 2a 3e
       0.024414698 0.089027174 -0.0057008686 0.16664243
000060 49 f6 44 3d cf 1e 18 3e 84 a6 bb 3d ce 89 1e 3d
       0.04808644 0.14855503 0.0916262 0.03870564
000070 50 84 df bd 57 d7 ff 3c b8 2b 60 3d 67 85 39 bd
       -0.109139085 0.031230612 0.054729193 -0.045293238
000080 15 69 bc bb 53 5d 1d 3e 8c a8 10 be b4 e9 a8 3c
       -0.0057498314 0.15367632 -0.14126796 0.02061925
000090 8c 47 a5 bc b0 f0 05 3e 93 d3 3c bd 8d 86 a7 3d
       -0.020175718 0.13080096 -0.04610021 0.081799604
0000a0 90 45 00 3d 93 5a 31 3d ac 5c e3 3d 39 3f be bd
       0.03131634 0.04329927 0.1110166 -0.092894025
0000b0 9f ee 73 3d 25 bc 29 3d 86 d7 34 be 45 07 95 3d
       0.05955374 0.041439194 -0.1766034 0.07276777
0000c0 a2 86 95 be a3 d9 71 3d 17 ed 70 3e ba 86 cd 3c
       -0.2920428 0.059045445 0.23527943 0.025088657
0000d0 94 12 07 bc f9 34 77 3e 38 c2 f1 3d e1 f6 5b 3e
       -0.008244175 0.24141301 0.118046224 0.21480896
0000e0 86 16 72 3e 9c 95 b1 bd 45 b3 bd bd 5d c3 0c be
       0.23641405 -0.08671114 -0.092627086 -0.137464
0000f0 76 1d 05 bd 7c 3e 03 3e 8a fe de 3d b7 87 e3 bc
       -0.0324988 0.12816805 0.10888393 -0.027774675
000100 bf 28 21 3e 5e 3b f0 bb 0a cb de 3c 53 7f 6b bd
       0.157382 -0.007331296 0.027196426 -0.057494473
000110 8f e3 ee bd ad 3e 83 bd 84 5a c5 bc 1e b4 ce 3c
       -0.11664497 -0.06408439 -0.024091013 0.025232371
000120 41 b0 d2 bb 32 11 4c be 1d e9 01 3e 76 75 72 3d
       -0.0064297025 -0.19928434 0.12686582 0.05919405
000130 f0 ff 33 bd 67 81 98 bb 9d a8 04 3e 9d 0b 1f 3c
       -0.043945253 -0.004654098 0.12954946 0.009707359
000140 2b 2c 9e 3d e6 35 47 3e 58 d1 3c be 3f b8 3f bd
       0.07723268 0.19454154 -0.18439233 -0.04680657
000150 ea f0 6e 3d e1 9a 5e 3c 20 6e cb 3d 23 20 97 3d
       0.058335222 0.013586731 0.09933114 0.073791765
000160 78 5e 2a 3d 7c 37 47 3d 02 40 36 bc 0c c5 01 bd
       0.041594 0.0486369 -0.011123659 -0.03168206
000170 47 c9 47 3c a1 07 61 3d 65 9c a8 be 8b cc d1 3d
       0.012193984 0.054938916 -0.3293182 0.102440916
000180 65 8c 34 bd 8d b0 ad 3d f3 eb 45 3e df da 2e 3e
       -0.044079203 0.0848094 0.19328289 0.1707568
000190 76 b7 99 3a 8a 8a 4e bd 50 8e d4 3c b5 1c 40 3e
       0.0011727649 -0.05042509 0.025946766 0.18760951
0001a0 4d e1 4d bd 8c 7a af bc ae c6 ba bc 46 87 1f 3d
       -0.05026369 -0.02142074 -0.022799816 0.038947366
0001b0 e1 d5 3d 3d ab a0 b8 bd 96 1d 11 3e 19 64 d3 3c
       0.04634655 -0.0901502 0.14171442 0.025804566
0001c0 cf cc cd 3d e7 2e 95 3d 4b ce 0d 3e a9 86 8b bd
       0.1004883 0.072843365 0.13848226 -0.06812794
0001d0 0f fe 13 bd 2c 4c b0 bd 53 7c 7e 3d d1 83 9f bc
       -0.03613096 -0.08608279 0.062130284 -0.019472035
0001e0 d4 42 b9 3d 0c 79 59 bd 61 95 f3 3d 18 60 9b bd
       0.090459496 -0.053093955 0.11893726 -0.07586688
0001f0 90 9b 13 3c ea 57 b0 3d f6 68 0b be 1a f4 98 bd
       0.009009257 0.08610518 -0.13614258 -0.07468434
000200 63 fa c9 3d f4 a8 62 bc 3c d8 7a bd 7f 4b 2c 3d
       0.098622106 -0.013834227 -0.061241373 0.042064186
000210 67 59 9d 3d 6f 91 d9 bd d8 c9 23 3d 2b f1 fd bc
       0.07683068 -0.106234424 0.039987415 -0.030998787
000220 d5 67 36 be 03 d1 bd bc e7 51 51 3d c2 69 38 bd
       -0.17813046 -0.023170954 0.0511035 -0.045022734
000230 9a 1d d7 bd 8c 50 d4 3d 15 45 a6 3b 96 33 89 bc
       -0.10503693 0.103669256 0.005074153 -0.01674823
000240 2a ca d7 3c 5e 3c a5 bd d2 89 af bd 6b 4a 91 bd
       0.026341517 -0.08068155 -0.08571209 -0.07094272
000250 50 36 9f bc 7e 0d 7d bd fb af a2 bc bf cd 94 3d
       -0.019435078 -0.061780445 -0.019859305 0.072658055
000260 dc 6c c0 3b 0e 2f 99 bc 78 70 cc 3d 56 7d c6 bd
       0.005872352 -0.018699195 0.09982389 -0.09691875
000270 32 44 18 be 60 3b d8 bd a3 e2 cd 3b 48 63 57 3d
       -0.14869764 -0.105582 0.0062831207 0.052584916
000280 9b c1 3a bb 7d 26 52 be 1f 4c 8d 3d 1f e0 53 3d
       -0.0028496746 -0.20522495 0.068992846 0.05172741
000290 1a 33 80 3d b5 1c e2 3d 2d c2 1f 3e 7a c0 99 bd
       0.06259747 0.11040632 0.15601416 -0.07507415
0002a0 90 05 00 3e 09 aa 35 3d 97 64 75 be ac 7a d9 bd
       0.12502122 0.04435161 -0.23964153 -0.10619101
0002b0 5d 58 0c be 4f 16 e8 bc b7 e7 ff bd 92 0d 8a bd
       -0.13705583 -0.02833095 -0.12495368 -0.067408696
0002c0 ab 56 c2 bd c1 73 c5 bc f3 99 5a bd cf ab 93 3d
       -0.09489187 -0.024103047 -0.053369474 0.07210504
0002d0 3b de 92 3d a6 bb dd bc 23 c4 41 3c b1 e9 d0 bd
       0.07171293 -0.027067017 0.011826548 -0.10200823
0002e0 dc ca 87 bc cc 69 7d 3b d1 78 06 3e db db a2 3d
       -0.016576223 0.0038667796 0.13132025 0.0795209
0002f0 ec 4c ca 3d 75 b3 cc bd 87 08 31 3e b1 8d 07 3e
       0.09877953 -0.09995166 0.17288409 0.13237645
000300 7a 7b b3 3d 35 2b f7 3c a1 12 0c be a3 b5 76 bd
       0.08763786 0.03017197 -0.13678981 -0.060231816
000310 1a fe 32 3e 3e 5e 32 be 74 48 2c 3e 3c 36 35 3e
       0.17479745 -0.17418763 0.16824514 0.1769647
000320 e8 bb 03 bc 46 ca 9c 3c 44 bc 8e 3d db 24 c8 bd
       -0.008040406 0.01913942 0.069695026 -0.097726546
000330 c7 d7 85 3d 6f df b5 3d 59 76 d3 3d 64 96 55 bc
       0.06535297 0.08880507 0.103253074 -0.013036344
000340 55 62 2b 3e 2c 99 20 3e be 24 9a 3d 69 5c 40 3e
       0.1673673 0.1568343 0.07526539 0.18785252
000350 9d 56 08 bd c0 6d 5e 3e e4 7c 0b be d6 b2 92 3d
       -0.033285726 0.21721554 -0.1362186 0.071630165
000360 30 4e 9a 3d 6a 9e 96 3d 8f 89 44 3d f2 d1 4e 3e
       0.07534444 0.07354434 0.04798275 0.20197275
000370 84 28 65 3e 54 df da 3c 00 32 a8 3b 8b 57 85 bc
       0.22378737 0.02671782 0.0051329136 -0.016277095
000380 15 64 16 be 10 55 bd bc 59 5c 7b bc 51 71 84 3b
       -0.14686616 -0.02311185 -0.015341842 0.0040418287
000390 28 a5 b4 3d 69 96 b7 3d b8 17 df 3d 20 55 94 bd
       0.088205636 0.08964235 0.10893196 -0.07242799
0003a0 7c dc 3b bd ab b0 63 3d 8d 0a 67 3d 14 a1 2a 3e
       -0.045864567 0.055588406 0.056406546 0.16663009
0003b0 fd 0e 1d 3e 39 a5 6d be 43 27 7f 3c 99 61 3d 3c
       0.15337749 -0.23207559 0.015573326 0.011558914
0003c0 fd 06 ce bd f3 27 29 bd da e9 14 3d 0c 94 62 3e
       -0.10059927 -0.041297864 0.03635583 0.22126788
0003d0 fe b9 34 bd 95 86 f5 bb bd 73 8a bd 3a 05 31 be
       -0.04412269 -0.00749285 -0.067603566 -0.1728715
0003e0 80 b6 ec bb c3 ed 7c 3d 95 1d 89 3d 6f 18 fb 3c
       -0.007223904 0.061750185 0.066950954 0.0306513
0003f0 00 35 18 be be 35 9e bd d7 4d 12 be 97 96 ad 3b
       -0.14863968 -0.07725094 -0.14287506 0.0052974927

conv2.bias f4 [30]
000000 97 11 b4 bc 3e 1a 45 be 4f aa d5 bd 90 8c bf bc
       -0.021981044 -0.19248292 -0.104328744 -0.023382455
000010 37 15 ce 3d 47 5b 14 3d 28 a8 3e bd f3 5f 77 3d
       0.1006264 0.03621986 -0.046547085 0.06039424
000020 77 b6 0a 3e ff 8e 77 bd 3b d2 14 bd 63 3c 68 bd
       0.13546167 -0.060439106 -0.036333304 -0.056698214
000030 69 46 74 be 4b 2c da bc ec 3e a7 3d d1 0a 1f bd
       -0.23854984 -0.026632449 0.08166298 -0.038828675
000040 d1 13 83 3c 10 9e 31 3e 2d ea a5 bc 3f 1f 05 3d
       0.01600066 0.17345452 -0.020253265 0.0325005
000050 43 15 23 3d e4 7e f9 3d 54 0c c5 bd 26 47 92 3d
       0.0398152 0.121824056 -0.09621492 0.07142477
000060 9f d6 0b be f8 aa c7 bb ab 0b f7 3d 96 39 9f 3c
       -0.1365609 -0.006093379 0.12062772 0.019436639
000070 67 d6 35 be a8 4b 08 bd
       -0.17757569 -0.033275276

conv3.weight f4 [1, 31, 1, 1]
000000 f0 36 73 3e 50 ea d1 bc b6 52 1e 3e e6 25 8a 3d
       0.23751426 -0.025624424 0.15461239 0.0674551
000010 9f 9f 77 be 80 4b 8f bd 53 42 ba bd 50 90 fd 3d
       -0.24181984 -0.06996822 -0.090946816 0.12381041
000020 49 b8 06 3e be 81 82 3e f1 f2 ee 3d c0 ca d6 bd
       0.13156237 0.2548961 0.11667431 -0.1048789
000030 b3 77 37 3e 76 8b be bd 22 8f 85 bd 8c 12 3a 3e
       0.17916755 -0.09303944 -0.06521441 0.18171138
000040 09 3b a1 bd 99 0b 4a be a7 ed 8c 3d 68 c6 11 3d
       -0.07872588 -0.19730987 0.06881266 0.035589606
000050 ad 49 a4 bd 98 d4 5d bd df 5f 74 bd 5a 37 7f bd
       -0.08021865 -0.054157823 -0.059661742 -0.062308647
000060 5f c9 26 3d b6 6f a8 bd 90 d6 71 3d b3 ef 1f bd
       0.040719386 -0.08224432 0.059042513 -0.039046954
000070 46 87 de 3d ff 58 89 bd 77 57 96 bd
       0.10865645 -0.06706428 -0.07340901

conv1.weight f4 [2, 4, 3, 1]
000000 b8 e1 e1 3d 40 79 b0 bc e6 fc 94 bd a2 68 02 3e
       0.110293806 -0.021542192 -0.07274799 0.12735227
000010 40 e0 06 be 4c d3 7f 3e 14 5c 38 3e 60 5c 6d 3e
       -0.13171482 0.24982947 0.18003875 0.2317977
000020 40 bc 09 be 38 24 01 3e 7a 5d 8d be a0 a3 05 bc
       -0.13450718 0.12611473 -0.2761038 -0.008156687
000030 86 ad 65 be 02 7f 90 3e bc 45 55 be 6c e0 3f bd
       -0.22429475 0.282219 -0.20827383 -0.046844885
000040 68 ff 89 be e2 8b 5d be c3 1b 8f be ec ad d4 3d
       -0.26952672 -0.21635392 -0.27950868 0.103847355
000050 10 08 e8 bc 6c 59 ad 3d 50 18 d4 3c 60 2b db 3d
       -0.028324157 0.084643215 0.0258905 0.107016325

conv1.bias f4 [2]
000000 08 fc 74 3d 0c c5 7c 3e
       0.05981067 0.24684542

conv2.weight f4 [20, 2, 48, 1]
000000 e8 6c 34 bd a0 44 23 3b 86 b7 2c bd 6d 51 a9 bd
       -0.044049174 0.002491273 -0.04216721 -0.08267484
000010 b0 b7 7c 3d b0 70 0c 3c 3d b7 bc bd d8 78 d8 3c
       0.061698616 0.008571789 -0.092146374 0.02642481
000020 a0 c4 a8 bb b6 18 cb bd fc 48 45 3d a8 27 9b bd
       -0.0051503927 -0.099168226 0.048165306 -0.07575923
000030 69 67 af bd f8 73 37 bc 9b 45 b5 bd bc ff 80 3d
       -0.08564646 -0.011197083 -0.08851167 0.062987775
000040 b4 77 aa bd f7 0a 3e bd 1c a1 3a 3d 35 55 49 bd
       -0.08323613 -0.046397176 0.045563802 -0.049153525
000050 b0 e0 71 3d 46 13 cf 3d 54 55 8a 3d 0c dd 88 3d
       0.05905217 0.10111098 0.06754556 0.06682786
000060 a0 85 af bc 0a 04 8a 3d 04 07 c8 3d a4 f5 ba bd
       -0.021426022 0.06739052 0.09766963 -0.091288835
000070 14 f3 5f 3d e4 44 c6 3d 6c 89 96 3c 93 13 b3 bd
       0.054675177 0.096811086 0.018376075 -0.08743968
000080 fc c1 b8 bc c8 9c fa bc 11 60 51 bd c8 36 57 bc
       -0.022553436 -0.030592337 -0.051117007 -0.013135619
000090 66 04 c8 bd 3c 3d 75 3d 90 0a 2b 3d 00 38 3a ba
       -0.09766464 0.05987285 0.04175812 -0.00071036816
0000a0 f0 46 65 bc 90 94 e0 3c 10 84 09 3c 44 01 aa 3c
       -0.013993964 0.02741459 0.008393303 0.020752557
0000b0 3e bf 81 3d e0 e9 52 3d fb 71 5f bd 70 1a a4 3d
       0.06335305 0.05149257 -0.05455206 0.08012855
0000c0 d0 ec c6 bb a4 b3 25 bd 1e 03 9b bd 38 a2 ca bd
       -0.0060707107 -0.04045452 -0.07568954 -0.09894222
0000d0 90 00 af 3c f4 4a 03 bd ec 24 5f bd 54 42 de bc
       0.021362573 -0.032053903 -0.05447857 -0.027131237
0000e0 4f 9f c8 bd 40 bb bc 3c b0 5a c5 3d 84 60 7c 3d
       -0.09796011 0.023038507 0.09636438 0.061615482
0000f0 13 94 7c bd 30 47 38 3c c0 35 0e 3b 77 f0 b9 bd
       -0.061664652 0.011247441 0.0021699518 -0.09079068
000100 59 d4 cb bd 71 d3 62 bd 68 65 20 3d 1a 5f 7d bd
       -0.099526115 -0.055377427 0.03915921 -0.061858274
000110 98 63 8e 3d e0 82 cd 3b 96 b2 a8 3d 7d 89 be bd
       0.0695259 0.006271705 0.082371876 -0.093035676
000120 1a 21 0f bd 70 5b 30 3d d4 6c 25 3d 9f c1 98 bd
       -0.034943677 0.04305595 0.04038699 -0.07458805
000130 24 b9 8a 3d 00 53 95 bd 63 9d cb bd 88 3f 50 3d
       0.06773594 -0.072912216 -0.099421285 0.050841838
000140 c7 19 8b bd eb af 29 bd 2f 01 6a bd ac ed aa bd
       -0.06792026 -0.041427534 -0.057130035 -0.083461136
000150 d4 6a ae 3d 3a b1 5d bd f4 fd 05 3d 4d 74 8d bd
       0.085164696 -0.054124095 0.03271289 -0.06906948
000160 e4 55 c7 bc 27 83 5f bd 4c a7 8c bc d7 1b 9f bd
       -0.024332948 -0.054568436 -0.017169617 -0.07768982
000170 84 4f 8f 3c 73 8e bf bd d0 26 5e bc fc 41 7d 3d
       0.01749397 -0.09353342 -0.013559058 0.061830506
000180 93 4a 62 bd 28 f6 d0 3d be 2c 44 bd 64 4e d2 bc
       -0.0552469 0.102032006 -0.047894232 -0.025672145
000190 e4 48 a3 3d e8 08 4d bd 37 f8 69 bd ac 22 4c 3d
       0.07972887 -0.05005732 -0.05712148 0.049837753
0001a0 a8 59 43 bc f0 b7 bf 3b 9a ab 92 3d 3c 6a 36 bd
       -0.011923231 0.0058507845 0.07161637 -0.044534907
0001b0 88 f3 8f 3d 64 97 26 bd 8b b0 bb bd b8 db c8 3c
       0.07028872 -0.04067172 -0.09164532 0.024518833
0001c0 24 72 44 3d 20 6f ad 3c aa df b1 bd a0 8a 76 bc
       0.047960415 0.021171153 -0.08685239 -0.015047699
0001d0 6c ab d8 bc c4 b9 e7 bc 8b 4d af bd d8 3c 48 3c
       -0.026448928 -0.028286822 -0.08559712 0.0122215375
0001e0 0c 4d c6 3d 01 7e 54 bd ab 69 c8 bd f0 bb 3e 3c
       0.09682664 -0.05187798 -0.097857796 0.0116414875
0001f0 0c 02 90 bd e0 05 ae bb 68 4b 49 bc 1c 7e 71 3d
       -0.070316404 -0.005310759 -0.012286045 0.058958158
000200 78 4a ce 3c 03 8b 93 bd b0 14 5e 3d 38 b5 0e 3d
       0.025181994 -0.07204249 0.054218948 0.034840792
000210 89 fe 5d bd c0 99 53 bc 2e 67 8e 3d 60 3a 82 3d
       -0.05419782 -0.012915075 0.06953274 0.063587904
000220 e2 a9 95 3d 44 16 c7 3d c8 a9 5f bd 44 00 4e 3d
       0.07307793 0.09721044 -0.054605275 0.050293222
000230 ac 0e 70 3d 64 e7 4a 3d 18 45 4a bc 93 c8 95 bd
       0.058607742 0.049537078 -0.012345575 -0.07313647
000240 86 64 86 3d f6 e2 92 3d e4 16 88 3d 48 59 ad bd
       0.06562142 0.071721956 0.06644991 -0.08464295
000250 a2 a8 d0 3d 4a c9 d0 bd 7d a0 38 bd 6c 52 3b 3d
       0.10188414 -0.10194643 -0.04507493 0.0457329
000260 70 30 0c bc 40 65 7c 3c e8 84 b3 bd a4 76 93 3d
       -0.00855647 0.015404999 -0.08765584 0.07200363
000270 a0 a6 ca 3c 28 80 0e bc b0 55 08 3d a8 89 b0 bc
       0.024737656 -0.008697547 0.033284843 -0.021550015
000280 50 16 ee 3c 32 ac 7e bd f0 0c 83 3d 55 16 9e bd
       0.029063374 -0.062175937 0.06398952 -0.07719103
000290 28 a5 ba bd 10 f0 8e 3d 00 f5 b6 bd f8 bb f1 3c
       -0.09113532 0.06979382 -0.08933449 0.029508576
0002a0 4b 2e 4f bd 08 1c a4 3d d0 ce 9a bd 30 14 8c 3d
       -0.050581258 0.08013159 -0.075589776 0.06839788
0002b0 fd d1 c1 bd 68 a4 37 3d 9c 2f 06 bd b4 43 a8 bd
       -0.0946388 0.044834524 -0.032760248 -0.08216038
0002c0 d4 cb 0f 3d ff 27 b2 bd a0 bc 67 3d 73 f3 89 bd
       0.035106495 -0.08699035 0.05657637 -0.067358874
0002d0 78 aa 2a 3c c0 22 5a 3d a4 80 91 bd 20 cf 0f 3d
       0.0104166195 0.053255796 -0.071046144 0.03510964
0002e0 f4 14 0c bd 04 4a 80 3c 90 54 81 bc a0 b9 92 3c
       -0.03419967 0.015660293 -0.015787393 0.017910779
0002f0 40 6d 9c bd 70 96 c4 3c 33 ad b7 bd 30 4e 07 3c
       -0.07638025 0.023997515 -0.08968582 0.008258387
000300 44 0e c0 3d d8 96 aa bd e8 3f 71 bd 70 2a 64 3d
       0.09377721 -0.083295524 -0.058898836 0.055704534
000310 ea 6d 9d bd 98 74 0a bd b8 a1 cd 3c 80 81 aa 3d
       -0.0768698 -0.0338026 0.025101528 0.083254814
000320 64 3a 47 3d 7f 02 74 bd 2e 3a 11 bd a2 02 c9 3d
       0.04863967 -0.059572693 -0.035455875 0.09814955
000330 97 29 ce bd e0 9d 1d 3d 94 6a f8 bc 80 6b cb 3d
       -0.100665264 0.03848064 -0.030324258 0.099326134
000340 50 68 bc bc e8 2a 3c 3c f0 63 b5 3d 54 15 7e 3d
       -0.022998959 0.011484839 0.08856952 0.06203206
000350 fc dd 9f 3d dc 3a 69 3d b4 95 81 bd b4 8b 77 3d
       0.07806012 0.0569409 -0.06327382 0.060435966
000360 fe 45 c6 bd 5d cc 4e bd 21 91 a5 bd 05 f1 a7 bd
       -0.09681319 -0.050487865 -0.08084322 -0.08200268
000370 82 59 ad bd e0 8b 42 bb ca 1d 90 bd d2 5f ab 3d
       -0.08464338 -0.0029685423 -0.07036932 0.08367886
000380 d8 08 bd bd 98 8d 23 3d 98 31 5c bc 3e 7c 9b 3d
       -0.092302024 0.039929956 -0.013439558 0.07592057
000390 d0 12 97 3d 04 75 bc 3d 4c df 75 3d 70 8f 28 bd
       0.07376635 0.092020065 0.060027406 -0.041152418
0003a0 5a ee 98 3d ec 13 67 3d 22 bb af bd ce 33 a0 3d
       0.07467337 0.056415483 -0.085806146 0.07822381
0003b0 64 11 85 bc 66 4e a6 bd 34 59 ac 3d 78 de 82 3d
       -0.016243644 -0.08120422 0.08415452 0.06390089
0003c0 c0 35 97 3d 7e f0 3d bd 30 52 8b bd e3 a7 b6 bd
       0.07383299 -0.04637193 -0.068027854 -0.089187406
0003d0 74 39 b1 bc d8 48 64 3d 76 21 88 bd 72 61 bc 3d
       -0.021633841 0.05573353 -0.06647007 0.09198274
0003e0 ae 1c 05 bd d8 4d 13 bc 14 ef 7f 3d 88 35 89 3d
       -0.032498054 -0.008990727 0.062483862 0.066996634
0003f0 62 e7 02 bd 1e fb a6 bd 62 bd 91 3d aa 9d 8e 3d
       -0.031958945 -0.081533656 0.071162 0.06963666

conv2.bias f4 [20]
000000 34 14 82 3d 4e 8b 4c bd 2c 41 84 3d 4a 25 c6 3d
       0.0635151 -0.04993754 0.06457743 0.09675081
000010 40 84 83 bb 48 87 e7 bc b6 9a c1 3d dd 04 bf bd
       -0.004013568 -0.02826275 0.09453337 -0.093270995
000020 d8 f3 fa bc 32 36 b3 3d 98 8c 7e 3d a4 83 72 3d
       -0.030633852 0.08750571 0.0621458 0.059207574
000030 54 9e a9 3c 6e 37 c0 bd 3c 40 d8 bc 79 0e 9b bd
       0.02070538 -0.093855724 -0.026397817 -0.0757112
000040 c2 26 ac 3d a2 db 26 bd 88 f0 4c 3d 5e b2 8e bd
       0.0840583 -0.040736802 0.050034076 -0.069676146

layer3.weight f4 [1, 66]
000000 21 11 a9 bd 64 3f c9 bd 98 59 f0 bc 39 0d e8 bd
       -0.0825522 -0.09826544 -0.029339597 -0.11330647
000010 70 bc 21 3c e0 b9 a7 3b 44 7b e1 3d 14 23 ff bc
       0.009871587 0.0051185936 0.11009839 -0.031144656
000020 64 46 19 3d 30 54 81 3d c0 ce 7b bd 40 42 8b 3a
       0.037420645 0.063148856 -0.06147647 0.0010624602
000030 04 95 1c 3d 53 19 f4 bd b3 3b c1 bd f4 5b 97 bd
       0.03822805 -0.11918893 -0.09435215 -0.073905855
000040 9a e1 db 3d 1e 09 93 bd 40 be 12 bb 40 ca c7 bd
       0.107363895 -0.07179473 -0.002239123 -0.09755373
000050 76 d7 e2 3d 00 9d 04 3c c0 9d 10 3c 00 f8 65 b9
       0.11076252 0.008094072 0.008826673 -0.00021931529
000060 a8 0d ba 3d 58 5e 5d 3d 4c d8 81 3d 7c 34 f2 3d
       0.09084636 0.05404505 0.063400835 0.11826417
000070 40 55 82 3c 28 18 ad 3c 38 50 0c 3d d0 0d 32 bc
       0.015909791 0.021129683 0.03425619 -0.010867551
000080 7c 5b 65 bd ef af a7 bd ca 8c ab 3d bc e9 e5 bd
       -0.05599545 -0.081878535 0.08376463 -0.11226222
000090 80 3b bf 3d f0 a9 ad 3c 5a 45 56 bd 32 95 f0 bd
       0.093375206 0.021199197 -0.052312233 -0.11747207
0000a0 f6 26 d6 3d 30 5a 73 3c cd ab e8 bd e6 e6 0f bd
       0.1045665 0.014853045 -0.113608934 -0.03513231
0000b0 70 ea b3 bc 08 de 26 3d a8 85 9b bd 48 d1 d3 3d
       -0.021962374 0.04073909 -0.07593852 0.103426516
0000c0 4a 0e 91 bd 48 a5 45 bd e0 6f a5 bd 68 16 a9 3d
       -0.070828035 -0.048253328 -0.08077979 0.08256227
0000d0 f9 35 98 bd d4 6b af bd 12 e7 ad 3d a6 a3 c6 3d
       -0.074321695 -0.085654885 0.08491339 0.09699182
0000e0 40 03 cd 3c 18 bb 11 3d 0e 5c 0c bd 42 82 86 3d
       0.025025964 0.035578817 -0.034267478 0.065678135
0000f0 f0 54 2f 3d e8 88 c7 bc b8 06 d2 3d d8 fb 7a bc
       0.042805612 -0.024357274 0.10255188 -0.015318833
000100 b0 61 a0 3c 70 3e 37 3c
       0.019577831 0.01118432
