Ryan_ddpg-stock-trading-code/data/DDPGAgent-ddpg-20200430_21-57-28-model-PortfolioEnv.bin (torch_old, 21847 bytes, 10 tensors)

conv1.weight f4 [2, 4, 3, 1]
0	0xbe12e70a	-0.14345947
1	0xbe3239e2	-0.17404893
2	0xbd14c4eb	-0.036320608
3	0xbcd744bb	-0.02627789
4	0xbe993696	-0.29924458
5	0xbd2ea921	-0.042641763
6	0x3d84d455	0.064858116
7	0xbdec1a11	-0.11528409
8	0x3a756e54	0.00093624485
9	0x3e6a9781	0.22909357
10	0xbe922476	-0.28543442
11	0x3e8df24e	0.27723926
12	0xbcc93901	-0.024563314
13	0xbe34b8c2	-0.17648605
14	0x3dc8d4f1	0.0980624
15	0x3e8dd0d7	0.27698395
16	0x3e46619b	0.19373171
17	0x3dc312a6	0.09525041
18	0x3ec65737	0.38738415
19	0xbd5598fb	-0.052147847
20	0x3e4d70f6	0.20062622
21	0xbaa14790	-0.0012304652
22	0x3c800205	0.015625963
23	0x3e3b6b68	0.18302691

conv1.bias f4 [2]
0	0x3da58908	0.08082777
1	0x3d6af1f7	0.057359662

conv2.weight f4 [30, 2, 48, 1]
0	0xbdd79cd5	-0.1052796
1	0xbd7ad0bc	-0.06123422
2	0x3d8ad19e	0.067782626
3	0x3d10c571	0.035344545
4	0xbdc25793	-0.0948936
5	0x3e05e8ed	0.13077135
6	0xbdc9b1fa	-0.098483995
7	0xbb7b1bee	-0.0038316208
8	0x3e3a10bc	0.18170446
9	0x3d9f5515	0.077799
10	0x3b8a992a	0.0042296844
11	0xbd0d30eb	-0.03447048
12	0xbdb3a552	-0.08771767
13	0x3d7b30b8	0.06132576
14	0x3e0a4539	0.13502969
15	0x3df5391f	0.119737856
16	0x3d526265	0.051363368
17	0xbdb74410	-0.08948529
18	0x3bc00ce3	0.005860911
19	0xbde10c31	-0.109886535
20	0xbe0334dd	-0.12813134
21	0xbca088c4	-0.019596465
22	0x3bb0d8f9	0.005396959
23	0xbe3065ab	-0.17226283
24	0xbd243305	-0.04008772
25	0x3cd4d523	0.025980538
26	0xbdc5b2bf	-0.09653234
27	0xbd16ea62	-0.03684462
28	0x3cd864c5	0.026415238
29	0x3dd8e7ca	0.10591085
30	0x3d98b49e	0.07456325
31	0x3df1d2b4	0.118077666
32	0x3d45736b	0.048205774
33	0xbddbabce	-0.107261285
34	0x3e046fc6	0.12933263
35	0xbe477c2b	-0.1948096
36	0xbd73da91	-0.059534613
37	0xbd2d7faa	-0.042358078
38	0x3d72e280	0.05929804
39	0x3d3db0b5	0.0463111
40	0xbdcb9a24	-0.09941509
41	0xbe0da525	-0.13832529
42	0x3c1de586	0.009637242
43	0xbba700ab	-0.005096515
44	0x3db159cf	0.08659708
45	0xbb8f153b	-0.0043665445
46	0xbe16397b	-0.14670365
47	0x3e3f0d0a	0.18657318
48	0xbe11b1a8	-0.14227927
49	0x3d1bd222	0.038042195
50	0xbb0ffcc7	-0.0021970735
51	0xbca5ff2f	-0.020263283
52	0xbe02fbe0	-0.12791395
53	0xbd5148d8	-0.05109486
54	0x3d36a960	0.044595122
55	0x3e00af96	0.1256698
56	0x3d3e6be5	0.046489615
57	0x3c025ff3	0.007957446
58	0x3d385a0d	0.045007754
59	0xbd8cc50c	-0.06873521
60	0x3c8dbc3a	0.017301667
61	0xbdaf2919	-0.08552761
62	0xbceb5fc5	-0.02873219
63	0xbcc53ba5	-0.024076292
64	0x3dc727c5	0.09724382
65	0xbda2445a	-0.07923193
66	0x3c9228ab	0.017841658
67	0xbd8068b3	-0.0626997
68	0xbcd9c7a2	-0.02658445
69	0xbe161eb4	-0.1466015
70	0x3d02b9bd	0.031915415
71	0xbd7b3e4c	-0.061338708
72	0x3d2fe021	0.042938355
73	0xbe051724	-0.12997109
74	0xbc953cc0	-0.018217444
75	0xbd8044b6	-0.062631056
76	0xbb930823	-0.004487054
77	0xbd4153e3	-0.04719914
78	0xbc23dc4d	-0.010001254
79	0xbcf81e55	-0.030287901
80	0xbd60e93f	-0.05490994
81	0x3da62e0e	0.08114253
82	0xbaa4d5d1	-0.0012575929
83	0x3df31fec	0.11871323
84	0x3cf43178	0.029808745
85	0x3e063c40	0.13108921
86	0x3e37f967	0.17966233
87	0xbd58e270	-0.052950323
88	0x3c695c89	0.0142432535
89	0x3b0a0131	0.002105784
90	0xbd7f4db5	-0.062329967
91	0xbd0aa848	-0.03385189
92	0xbdd74d93	-0.10512843
93	0xbbb4f783	-0.0055226698
94	0x3d6ce330	0.05783385
95	0x3d0b16b4	0.0339572
96	0x3dab9017	0.08377092
97	0x3d71b3d5	0.05900939
98	0x3c0adc4c	0.008475374
99	0x3dce333a	0.100683644
100	0x3d08f7da	0.033439495
101	0x3d34bec0	0.044127226
102	0xbd628b53	-0.05530865
103	0xbd536a0c	-0.051614806
104	0xbd677d7f	-0.056516167
105	0x3cced76a	0.025249202
106	0x3dad5cd2	0.0846497
107	0xbdd6fdf2	-0.10497655
108	0x3b82a4d6	0.003986935
109	0x3d3d5feb	0.046234053
110	0xbd1fef48	-0.039046556
111	0xbc827f29	-0.015929775
112	0x3bb5eff3	0.005552286
113	0xbd35573d	-0.04427265
114	0xbd8a69ac	-0.067584366
115	0xbcfe4e45	-0.031043181
116	0x3ca6f934	0.020382501
117	0xbdf6ddbc	-0.12054011
118	0xbc06d4c6	-0.00822944
119	0x3db25f59	0.08709592
120	0xbd896269	-0.067082234
121	0xbdae4628	-0.08509475
122	0xbd9f7602	-0.0778618
123	0xbc829088	-0.015938058
124	0xbde614c7	-0.11234432
125	0xbe008ea2	-0.1255441
126	0xbde42689	-0.111401625
127	0x3bcfef29	0.006345649
128	0xbd37a40d	-0.044834185
129	0xbd1036f8	-0.035208672
130	0xbdb2a357	-0.08722561
131	0x3b09a9cb	0.0021005746
132	0xbcce5132	-0.025185201
133	0x3bd30089	0.006439273
134	0x3dc7db79	0.09758658
135	0xbd0f3e86	-0.034971736
136	0x3dd3ce59	0.10342092
137	0xbdf2461a	-0.11829777
138	0x3d9ab776	0.07554524
139	0xbd840fb7	-0.0644831
140	0x3e42410a	0.18970123
141	0xbcd7bc97	-0.026335044
142	0xbcd3e9e4	-0.025868364
143	0xbd873f90	-0.066039205
144	0x3c8b032c	0.016969286
145	0x3db3c35a	0.08777495
146	0x3d9b264b	0.07575663
147	0xbdb69f38	-0.08917087
148	0x3d6b5a7a	0.057459332
149	0x3d847210	0.06467068
150	0xbe1deab4	-0.15421563
151	0x3d36fdfa	0.044675805
152	0x3da0aa31	0.078449614
153	0xbdb09a99	-0.08623237
154	0x3caa624a	0.020798821
155	0xbcbf8b11	-0.023381742
156	0x3b99b8ae	0.004691205
157	0x3d8ea376	0.069647714
158	0x3d91af54	0.07113519
159	0x3c567c96	0.013091227
160	0xbd98476a	-0.07435496
161	0x3d9b5546	0.07584624
162	0xbcc2d2d7	-0.023782177
163	0xbbd5c2ef	-0.006523482
164	0x3cfa734c	0.030572556
165	0xbd4b7a1f	-0.04967701
166	0x3da39efc	0.07989308
167	0x3d3d2aa7	0.046183255
168	0xbd69924f	-0.057024296
169	0x3b3207d1	0.0027165303
170	0x3c51fd3e	0.012816725
171	0xbd7e889f	-0.06214201
172	0xbc89635a	-0.016771007
173	0x3db34310	0.087530255
174	0xbd7e232d	-0.062045265
175	0xbe05ada1	-0.13054515
176	0xbda66bcd	-0.0812603
177	0x3db44844	0.08802846
178	0xbbd325c1	-0.0064437096
179	0xbdb27500	-0.08713722
180	0x3d91b685	0.07114891
181	0x3d1eec64	0.03879966
182	0x3c993779	0.01870321
183	0xbda46863	-0.08027723
184	0x3c8a4f61	0.016883554
185	0x3ac97cf3	0.0015372321
186	0xbdbeadc0	-0.09310484
187	0xbd15a1b2	-0.036531158
188	0xbcc14f49	-0.023597376
189	0xbcef5a32	-0.029217813
190	0x3d648b3c	0.055796847
191	0xbd83d4f1	-0.064371
192	0xbc1a8597	-0.009431264
193	0xbd52597c	-0.05135487
194	0xbd08cf2b	-0.033400696
195	0xbbd11852	-0.006381073
196	0x3dfdbdfd	0.12389753
197	0xbda54e02	-0.080715194
198	0x3e102112	0.14075115
199	0xbe1e0835	-0.15432818
200	0x3a38b89a	0.0007046551
201	0xbd38ac92	-0.04508645
202	0xbe07d9f0	-0.1326673
203	0xbd9c287c	-0.07624909
204	0xbdd2d345	-0.10294203
205	0x3d01a975	0.031655747
206	0x3d6789b8	0.056527823
207	0x3d86c41a	0.06580372
208	0x3d595454	0.053058937
209	0x3d418fc0	0.04725623
210	0xbe135836	-0.14389119
211	0x3d874d1b	0.066065036
212	0xbcce1128	-0.025154665
213	0xbd997a57	-0.074940376
214	0x3c3da3cd	0.011574698
215	0x3d7028c5	0.05863263
216	0x3e16c388	0.14723027
217	0x3d99d5da	0.07511492
218	0x3db9208f	0.09039413
219	0xbd86a123	-0.06573703
220	0xbb7a7082	-0.0038214033
221	0xbcc9e341	-0.024644496
222	0xbcd8fdaa	-0.026488144
223	0xbc8158c6	-0.0157894
224	0xbd401c6e	-0.046902113
225	0x3dd8037d	0.1054754
226	0x3b1cc156	0.0023918948
227	0xbe0e196f	-0.1387689
228	0xbdaa8e64	-0.0832794
229	0x3ca902ef	0.020631282
230	0x3d249b51	0.040187184
231	0xbe30e439	-0.1727456
232	0x3dfe3a95	0.124135174
233	0xbc47b78b	-0.012189756
234	0x3dbac4e0	0.09119582
235	0x3dc3b9e9	0.09556944
236	0x3cd7f72a	0.026362974
237	0xbdc85542	-0.09781887
238	0x3d31a1c5	0.043367166
239	0xbdab1c57	-0.08355015
240	0x3daac027	0.083374314
241	0x3d4f4c36	0.05060979
242	0x3e1c0cc2	0.15239242
243	0xbdf203ec	-0.11817154
244	0x3e04cc1f	0.12968491
245	0xbd37e647	-0.044897344
246	0xbd03b64e	-0.03215628
247	0xbcc75c19	-0.024335908
248	0x3d64e9d4	0.05588706
249	0xbd371fed	-0.04470818
250	0xbddb1869	-0.10698015
251	0xbd2016ef	-0.03908437
252	0x3e193309	0.14960875
253	0x3d07bc2c	0.03313844
254	0x3d363b9d	0.044490445
255	0xbd90b503	-0.07065775

conv2.bias f4 [30]
0	0x3e070f6d	0.13189478
1	0x3c0aea2e	0.008478684
2	0xbd2f279c	-0.042762384
3	0x3e3a849b	0.18214647
4	0xbe09b4ee	-0.13447925
5	0x3db0458c	0.08607015
6	0x3dc09641	0.09403659
7	0x3d13a6fc	0.03604792
8	0x3cc13a24	0.023587294
9	0x3c80cd16	0.015722793
10	0xbda39e82	-0.07989217
11	0x3dba08c3	0.090837024
12	0x3d431d60	0.047635436
13	0xbda29783	-0.07939055
14	0x3d3fd5cd	0.046834756
15	0x3dd3f21c	0.10348913
16	0x3dd3304f	0.103119485
17	0x3d7c0fdb	0.06153856
18	0x3da4ba50	0.08043349
19	0xbdfae565	-0.12250785
20	0x3dcb6265	0.09930877
21	0x3e20e32d	0.1571166
22	0xbd400242	-0.046877153
23	0xbe18b2cc	-0.14911956
24	0x3e03145e	0.12800738
25	0xbdb04278	-0.08606428
26	0xbcb2b827	-0.021816326
27	0xbddfd9ce	-0.10930215
28	0xbaabacc0	-0.0013097748
29	0x3d90ce72	0.07070626

conv3.weight f4 [1, 31, 1, 1]
0	0xbcfdf2fa	-0.03099965
1	0xbdc166d1	-0.09443439
2	0xbd82a711	-0.06379522
3	0x3e34a5d2	0.1764138
4	0xbd805963	-0.06267049
5	0x3c1bb808	0.009504326
6	0xbdb38a72	-0.08766641
7	0xbd6d3e89	-0.057920966
8	0xbdf1124e	-0.117710695
9	0x3e0a6fb0	0.13519168
10	0xbe0912bc	-0.13386053
11	0xbd8a5da5	-0.067561425
12	0xbdd0dce9	-0.10198385
13	0x3dae2d5a	0.08504744
14	0x3e65564c	0.22396201
15	0x3e5bcb56	0.21464285
16	0x3e01b5ce	0.12667009
17	0xbdd3cff5	-0.10342399
18	0x3d94b331	0.072607405
19	0xbd924d8e	-0.07143699
20	0x3d0708ed	0.032967497
21	0x3d817012	0.06320204
22	0xbda368e5	-0.079789914
23	0xbd61d796	-0.05513724
24	0x3e8fbbc2	0.28072935
25	0xbd3e9157	-0.046525326
26	0x3ce50f39	0.02796136
27	0xbe06ff0e	-0.13183233
28	0xbdee407f	-0.116333954
29	0x3d3cd100	0.046097755
30	0xbdd5d851	-0.1044165

conv1.weight f4 [2, 4, 3, 1]
0	0xbc19b12f	-0.009380623
1	0x9704be50	-4.289171e-25
2	0x9bf3f90e	-4.0361926e-22
3	0x97948c30	-9.599664e-25
4	0x3b73a6f1	0.0037178362
5	0x3b70964a	0.0036710673
6	0x394f489d	0.00019768109
7	0xbbc9d19d	-0.006159021
8	0xb955ed94	-0.00020401768
9	0xb0f46cbc	-1.7784241e-09
10	0xa1e93ec0	-1.5805304e-18
11	0x244756bd	4.3224717e-17
12	0x3b339b8d	0.0027405948
13	0xbb3dad5a	-0.0028942437
14	0x39e83ed1	0.0004429729
15	0x3c11a89d	0.008890298
16	0x36d40491	6.318624e-06
17	0xbc4661bb	-0.012108262
18	0xbb2151ae	-0.0024615335
19	0xbb3d9c5f	-0.0028932316
20	0x96cce486	-3.3102196e-25
21	0xa4bbd68c	-8.146178e-17
22	0x3b5a3cff	0.0033300517
23	0xb7570b7a	-1.2817671e-05

conv1.bias f4 [2]
0	0xa893a067	-1.6389842e-14
1	0xb5469e21	-7.3990856e-07

conv2.weight f4 [20, 2, 48, 1]
0	0x1a60a0a8	4.645189e-23
1	0x130fb45b	1.813806e-27
2	0x16c4cdc4	3.1795364e-25
3	0xb107a060	-1.9736248e-09
4	0x158a7606	5.5923964e-26
5	0x1fd36eb8	8.9545145e-20
6	0x291a54cd	3.4268422e-14
7	0xa4380f6b	-3.99117e-17
8	0x2ea9c5e2	7.720381e-11
9	0x9c042eba	-4.373553e-22
10	0x95efc3ab	-9.684004e-26
11	0x954498c4	-3.9702396e-26
12	0x1b37c857	1.5202139e-22
13	0x17eea82d	1.5422843e-24
14	0xa2906eda	-3.9148647e-18
15	0x2261ce6c	3.0602465e-18
16	0x23598e46	1.1793721e-17
17	0x28efacb4	2.6609228e-14
18	0x93bc7d5c	-4.7581486e-27
19	0x95bd8c47	-7.655781e-26
20	0x952b3d9a	-3.458177e-26
21	0x224c51be	2.769043e-18
22	0x981dc4ed	-2.0391197e-24
23	0xa8f6955f	-2.7376266e-14
24	0x198a07cb	1.4272013e-23
25	0x9dc9b461	-5.3390764e-21
26	0x2cc33f8d	5.549289e-12
27	0xafa58313	-3.010646e-10
28	0xaf4e5b3a	-1.8768001e-10
29	0xa528a3d8	-1.462719e-16
30	0xa0ece92b	-4.0134253e-19
31	0xa24797f4	-2.7049972e-18
32	0x970d438f	-4.564483e-25
33	0x96321707	-1.4385992e-25
34	0x15ad1a7d	6.9915935e-26
35	0x9675a560	-1.9843126e-25
36	0x98582c96	-2.7939856e-24
37	0x209f451b	2.6981378e-19
38	0xa0a86b28	-2.8531217e-19
39	0x9b7c6b96	-2.0879714e-22
40	0x210962cd	4.6548167e-19
41	0x15fb9e16	1.0162751e-25
42	0xad7a92ea	-1.4243476e-11
43	0x987870a4	-3.2110118e-24
44	0x1943b735	1.0118262e-23
45	0x1d99d3f6	4.0717925e-21
46	0x97f07596	-1.5539319e-24
47	0x2e56dd74	4.8854656e-11
48	0xb10e5ea9	-2.0717528e-09
49	0x3159c9a6	3.169228e-09
50	0xa22c6ad0	-2.3366893e-18
51	0x1eaca284	1.8278423e-20
52	0xa66c3728	-8.19537e-16
53	0x9e57c256	-1.1422193e-20
54	0xa35e2682	-1.20427985e-17
55	0x9ffbc086	-1.0662114e-19
56	0xa4440dc3	-4.2512382e-17
57	0x97e84df1	-1.5012324e-24
58	0x9527391b	-3.377043e-26
59	0x9c2a3b96	-5.6325295e-22
60	0x94b27701	-1.8020346e-26
61	0x1aedfea4	9.8432297e-23
62	0x154a76f1	4.0887403e-26
63	0xa3bc2717	-2.0399556e-17
64	0xa22a3e4b	-2.3072274e-18
65	0x2ae32f13	4.0355965e-13
66	0x94c14248	-1.9514163e-26
67	0x9802cd5c	-1.6905786e-24
68	0xb1843173	-3.8473273e-09
69	0x96205538	-1.2951587e-25
70	0x93a21e74	-4.092458e-27
71	0x968787a7	-2.1896035e-25
72	0x14062760	6.7730365e-27
73	0xac61419f	-3.201085e-12
74	0x2fcb07e5	3.6931094e-10
75	0x1604a0a6	1.0713567e-25
76	0x965f7311	-1.8050105e-25
77	0x2f30346b	1.602573e-10
78	0x9da858b8	-4.4560963e-21
79	0x30ca8f7d	1.4738216e-09
80	0xa2a981d2	-4.5944994e-18
81	0x9defa05f	-6.3428593e-21
82	0xb1198076	-2.2337452e-09
83	0x95f9d38c	-1.0090406e-25
84	0x1502b566	2.639639e-26
85	0x9e986294	-1.6134397e-20
86	0xa9105e37	-3.205614e-14
87	0x9be9c4e5	-3.8673857e-22
88	0x24043b71	2.8673286e-17
89	0x1820b23c	2.07695e-24
90	0x166295e3	1.830343e-25
91	0x16a3d631	2.6469244e-25
92	0x16251496	1.333509e-25
93	0xa922c91d	-3.6145664e-14
94	0x9fcded61	-8.721359e-20
95	0x15ae9f8c	7.052976e-26
96	0x19931ca4	1.5211012e-23
97	0x2926dbae	3.7049946e-14
98	0x96d253e0	-3.3980262e-25
99	0x17b0d770	1.14281175e-24
100	0x9b8a095a	-2.2836228e-22
101	0xa1ba4e9e	-1.262466e-18
102	0x9516fda1	-3.0492337e-26
103	0x16a2777d	2.624792e-25
104	0x978648c6	-8.677918e-25
105	0xadcee305	-2.3520305e-11
106	0x291de52a	3.505977e-14
107	0x2ebb238a	8.5100885e-11
108	0x95bb983e	-7.5768894e-26
109	0x1502e5c2	2.6434538e-26
110	0x9a8997fe	-5.690743e-23
111	0x13869d7c	3.3981647e-27
112	0x163218f5	1.43866e-25
113	0x14960bfb	1.5150855e-26
114	0x95b82a27	-7.438351e-26
115	0x2d969ca8	1.7122595e-11
116	0x97c63682	-1.280921e-24
117	0x1907bb6a	7.017184e-24
118	0x20eef792	4.0482597e-19
119	0x17dca5e8	1.4259047e-24
120	0x248092e6	5.576001e-17
121	0x16282aca	1.3584434e-25
122	0x995b33ed	-1.1332521e-23
123	0xa28a0212	-3.7407167e-18
124	0x1cf96fb1	1.6506309e-21
125	0x9450422e	-1.0514368e-26
126	0x30027bb2	4.7469506e-10
127	0x1704ee4b	4.295227e-25
128	0xa041d6ca	-1.6418804e-19
129	0xad94b54a	-1.690616e-11
130	0x14473578	1.0057477e-26
131	0x1556ec9c	4.3403608e-26
132	0x1683c5a1	2.1288913e-25
133	0xb076f008	-8.9835384e-10
134	0x27f2dfe9	6.7411257e-15
135	0x1670509d	1.9412483e-25
136	0x16e20738	3.6516825e-25
137	0x28b71dc8	2.0329997e-14
138	0xa47e13f4	-5.509437e-17
139	0x2727fc6e	2.3312748e-15
140	0x188fbc5d	3.715483e-24
141	0xa360414c	-1.21568915e-17
142	0x14b1b00a	1.7941868e-26
143	0x208ea36b	2.4163877e-19
144	0x96220c4c	-1.3090136e-25
145	0xa18dfeb8	-9.621955e-19
146	0x953a689f	-3.7644932e-26
147	0x1516a62f	3.0423355e-26
148	0x2f80daf4	2.343864e-10
149	0x1bfcb554	4.1807083e-22
150	0x9aa50a25	-6.825879e-23
151	0x14292116	8.5388446e-27
152	0x150f0296	2.888066e-26
153	0x9497be70	-1.5322218e-26
154	0xa135ae83	-6.155615e-19
155	0xa7931d87	-4.083271e-15
156	0x95377243	-3.7046692e-26
157	0x141672cc	7.595704e-27
158	0x946b8dc6	-1.1892428e-26
159	0x280cfee2	7.82683e-15
160	0x9606c980	-1.0888016e-25
161	0x1dcd46f1	5.43364e-21
162	0x11a95480	2.6715576e-28
163	0x1b120e0c	1.2081376e-22
164	0x148aadc6	1.400298e-26
165	0x9695c1b8	-2.4194502e-25
166	0xabc498d2	-1.3969054e-12
167	0xb0e0d34f	-1.6358203e-09
168	0x9a714b42	-4.9898425e-23
169	0x17583ec1	6.987257e-25
170	0x2d36de02	1.0394798e-11
171	0x168ca404	2.2721728e-25
172	0x9883a1c3	-3.4026044e-24
173	0x1b674c30	1.913249e-22
174	0x197ad3c1	1.29674604e-23
175	0x9c2dcf4d	-5.750883e-22
176	0x28c4303a	2.1781286e-14
177	0xb03464e8	-6.5627015e-10
178	0x2c835038	3.73215e-12
179	0x9613f75c	-1.1952618e-25
180	0x30a3614b	1.1887463e-09
181	0x16513b4f	1.69016e-25
182	0xa10b1694	-4.7124914e-19
183	0x9dbd9dad	-5.0190916e-21
184	0xa441f129	-4.2054474e-17
185	0x18dd398e	5.7185276e-24
186	0x975dcb5a	-7.1665617e-25
187	0x98012876	-1.6693287e-24
188	0x2b91fb9f	1.0372709e-12
189	0x2d9c3371	1.7757991e-11
190	0x956fa248	-4.8393683e-26
191	0x9933552a	-9.271282e-24
192	0x14938248	1.4894594e-26
193	0x969539b4	-2.4108664e-25
194	0xa7efc4cd	-6.6549198e-15
195	0xa42bee27	-3.7281437e-17
196	0x9634ad23	-1.4594917e-25
197	0x9eb0160e	-1.8643846e-20
198	0x2e86928a	6.119645e-11
199	0x960336ef	-1.059943e-25
200	0x12da5744	1.3779247e-27
201	0x319350e2	4.2874584e-09
202	0x1366dce0	2.9138981e-27
203	0x165d45bb	1.7874241e-25
204	0x15395dd1	3.743446e-26
205	0x9610ec3c	-1.170677e-25
206	0x9a853e9e	-5.5108674e-23
207	0x128b15cc	8.777507e-28
208	0x1faea701	7.396815e-20
209	0x228eede2	3.8741045e-18
210	0x21b137cb	1.2008755e-18
211	0xa94718f0	-4.4208506e-14
212	0x9b53ca47	-1.751887e-22
213	0x30cce731	1.4908662e-09
214	0x95233398	-3.2958288e-26
215	0x1c2fc1bc	5.815304e-22
216	0x2783c49e	3.6572977e-15
217	0x15d37aa2	8.54157e-26
218	0x9392d9b5	-3.7070257e-27
219	0x15db1231	8.8482097e-26
220	0x15631722	4.5860533e-26
221	0x1e523b4f	1.1129572e-20
222	0x95a20cf0	-6.545169e-26
223	0x15078cde	2.7374158e-26
224	0x30b4ba12	1.3149608e-09
225	0x92ff7d06	-1.6123583e-27
226	0x2b361650	6.4690354e-13
227	0x195dd800	1.1469053e-23
228	0x17a8eca9	1.0916487e-24
229	0x2ea9ca1a	7.721131e-11
230	0x9505392b	-2.6904234e-26
231	0xaf8b8132	-2.5375752e-10
232	0x98e16e22	-5.8272343e-24
233	0x184c7736	2.6426568e-24
234	0xafd84de4	-3.9345516e-10
235	0x28815b88	1.4361572e-14
236	0x14b1a37e	1.7936919e-26
237	0x1fcbcad1	8.6309376e-20
238	0x1e0662e8	7.114354e-21
239	0x2e4c58df	4.6463163e-11
240	0x9d7eec03	-3.3738635e-21
241	0x17345d6d	5.8279057e-25
242	0xa26cd2e4	-3.2095609e-18
243	0x9aa15df2	-6.6739816e-23
244	0x97351194	-5.850644e-25
245	0xa1f673d5	-1.6700269e-18
246	0xa408e44f	-2.9683684e-17
247	0x17d18b2a	1.3541438e-24
248	0x2f97ef12	2.763661e-10
249	0x954ac9a6	-4.0952648e-26
250	0x15ef024e	9.653497e-26
251	0x93cf74b8	-5.236924e-27
252	0x94e1b9d5	-2.2792492e-26
253	0x1297358c	9.54264e-28
254	0x9b624a0d	-1.8718209e-22
255	0x140ed79b	7.2116886e-27

conv2.bias f4 [20]
0	0xb8753007	-5.845728e-05
1	0xad2d7480	-9.85978e-12
2	0xb3b85c2a	-8.584932e-08
3	0x3d51010d	0.051026393
4	0x3e062103	0.1309853
5	0x3de66e94	0.1125156
6	0xb9acc944	-0.0003295635
7	0xbb0c503b	-0.0021410126
8	0x3d93178c	0.071822256
9	0xaf2938ee	-1.5390686e-10
10	0xb3e645f6	-1.07229354e-07
11	0x3e1cef01	0.15325548
12	0xb10558ed	-1.9404596e-09
13	0xb111dc08	-2.122535e-09
14	0xb888bdef	-6.520363e-05
15	0xbaa75e40	-0.0012769178
16	0xbabb7447	-0.0014301621
17	0x3dbc5f55	0.09197871
18	0x3e46d57b	0.19417374
19	0x3dfce163	0.123476766

layer3.weight f4 [1, 66]
0	0x3734ffb7	1.0788374e-05
1	0x37b2dd41	2.1322283e-05
2	0xb7e8c786	-2.7749466e-05
3	0x2c00f2b4	1.8324621e-12
4	0xa79ef82b	-4.4122874e-15
5	0xa7ef1ecd	-6.636922e-15
6	0xb314fbee	-3.4688064e-08
7	0x32cfe311	2.420123e-08
8	0xb2644884	-1.3287835e-08
9	0xbe011fcd	-0.12609787
10	0xbc805a18	-0.01566796
11	0x3ce69c92	0.02815083
12	0xbb8a8ce1	-0.00422822
13	0xbe383ac6	-0.1799117
14	0xbddc5155	-0.107577
15	0xbdf4fe69	-0.119625874
16	0xbe164cd1	-0.1467774
17	0xbd529695	-0.051413137
18	0x34bf4592	3.562714e-07
19	0x16b98d9a	2.9977725e-25
20	0x28f01711	2.6655356e-14
21	0xaca101ba	-4.576087e-12
22	0x1491cbf4	1.4721704e-26
23	0xb3d18e65	-9.758222e-08
24	0xbda19c25	-0.0789111
25	0xbd7d4f48	-0.061843187
26	0xbd86ff13	-0.0659162
27	0xb47f408e	-2.377221e-07
28	0x34d9525f	4.0479333e-07
29	0x9604b48b	-1.0719844e-25
30	0xb393913e	-6.87164e-08
31	0x33bbc349	8.743388e-08
32	0x33dd2f4c	1.0299718e-07
33	0xbda5b1f8	-0.080905855
34	0xbd9bddec	-0.076106876
35	0xbe33c570	-0.17555785
36	0xb55269ac	-7.838487e-07
37	0x96912943	-2.3452053e-25
38	0xa58d0dc7	-2.4468937e-16
39	0xa04e58e6	-1.7478293e-19
40	0x16ef4b71	3.8660143e-25
41	0xa9805c92	-5.7004e-14
42	0xb4442c51	-1.8270045e-07
43	0x340a12c7	1.2859083e-07
44	0x29e4e958	1.0165713e-13
45	0xbb565c86	-0.0032708957
46	0x3c4ee2d2	0.01262732
47	0x3c52e540	0.01287204
48	0x9ee03a90	-2.3741143e-20
49	0xb4a4555f	-3.0609496e-07
50	0xac639a08	-3.2344145e-12
51	0xbdc157e5	-0.09440593
52	0xbd5076a9	-0.050894413
53	0xbde928b3	-0.11384716
54	0xbd460a4d	-0.048349667
55	0xbe2f5d09	-0.17125334
56	0xbd9a7297	-0.075413875
57	0xbd62dff7	-0.05538937
58	0xbc041078	-0.008060567
59	0xbe534d22	-0.20634893
60	0xbe272967	-0.16324387
61	0xbb9cf767	-0.004790235
62	0xbbed8920	-0.0072490126
63	0x14cc7ce3	2.0647995e-26
64	0x3e0b9d98	0.13634336
65	0x3e1b3627	0.15157376
